policy_net_5000.pth (torch, 23192 bytes, 6 tensors)

fc.0.weight f4 [64, 6]
00000000: 4ad7 2d3e 4e9a 0a3e 4a42 ac3e d3ff 163e
00000010: 1be7 65bd 32e7 babd 18f5 e23e bd27 533e
00000020: ea2c b6be e1e1 70be 4fa8 44be b3bc 44bf
00000030: 28a1 253e 8017 0e3e f946 98be 7dca 7ebe
00000040: ae80 9cbe 78d7 0f3e edec 93be 1a99 313e
00000050: 3660 403e f81e f33d bfc0 973d b039 05be
00000060: 7d5b a63d 8e55 173e 0a80 103e fe49 65be
00000070: aa3d 1a3d fa6b 4d3c d924 e43d 146b 603c
00000080: 046b 353e 8fb0 283f 8969 6b3e 1ef3 093f
00000090: 9c97 2bbe 7bd8 803e 1e1b dc3e 6581 f33e
000000a0: 9ec5 5c3e 0775 1cbe d248 80be b239 0fbe
000000b0: 748b 95be c19e 833e a90a 9abe bdd7 9b3c
000000c0: 851b 81bc 05bb b0bd 1b31 cb3d 3bb3 2e3e
000000d0: a0eb da3e e8f9 fd3e 0c89 a1be dbbd 03be
000000e0: 264a f9bd efa3 9abe 54e4 b63d bec1 fcbd
000000f0: a4e6 bcbc 390f 91be 2717 3e3d 4fd3 9b3e
00000100: b1c0 943e ccc7 f23e 86eb c9be de43 93be
00000110: bd7b c33e 7ea9 f63e 483c 303e e7dd 59bd
00000120: bd3b 5cbe 2ae5 873e 5e32 53be 273a b83e
00000130: 73a0 3d3e 4956 8c3e f250 a1be e188 b13c
00000140: 1cba 2abf 4b45 bbbe 9fa0 25bd e5e1 31bd
00000150: 6f7d 1d3e 3264 a9be 55b7 bdbd 3690 b23e
00000160: 390e d4be af21 513e 0dcd 893d 14f6 d4be
00000170: 8a1a 04bd 52cb 85be 64fc 9d3e b4ed b63e
00000180: c06c 8c3d fbf8 cfbe 0af9 903e e7eb a13e
00000190: ca0c aabe f051 873d 8093 70be 2990 1cbe
000001a0: e1a6 01bf 67e6 bd3e c3ff 3e3e 9bf8 1a3e
000001b0: 6877 813e bd3d 48be f0dd fabe 8cb8 c83e
000001c0: 29ee 8e3e 5a59 3fbf 308e dbbe 9fb7 343c
000001d0: 9d64 7d3e 0b0c 123e 3037 173e 0624 da3d
000001e0: 7c8e f2bd 72a1 e6be 7e5e 173e 8073 ca3e
000001f0: 266e b63c 2248 3d3f c640 403e 10dc 993e
00000200: e0a9 613e 4e36 b7bb 32a4 9bbe ceb1 b6bc
00000210: 6c5d 7c3e a027 08be 20e4 1dbe 5b9e 1cbf
00000220: 0b7f 67be a983 89be 4c5f 85bc 98c5 17bd
00000230: 734d 533d bf31 37bf d90d 863e 8567 7e3f
00000240: 2856 da3d c359 863e 45ea 5f3e 17ed 06bf
00000250: a0c2 ccbe cf5e 10bf 3ed6 f4be f975 20bf
00000260: 603f ef3e d80d 243f c319 9fbb c7e5 3aba
00000270: 1ff1 263e 546b b9be 8bf5 5b3e ffac 99be
00000280: 5d60 28be 3ad4 6cbf 5a71 34be 41de 693e
00000290: c9e8 a83d 3f51 8dbe 6b1a 843d bed1 77bd
000002a0: faa6 bb3d e6ae 3a3f 9afb b5bd 5f83 3dbf
000002b0: 215e e53a 4a83 a7bb 80ae 583e 54b3 47be
000002c0: d1d6 0dbe 13ad 8d3d 5f51 1abe 9dd8 cf3c
000002d0: d36f 81be db9d 333f ffb3 3cbe f8e1 87be
000002e0: b01e 89be 61e8 03bf 4c6f fdbd e8f7 d13d
000002f0: 9f2a a4be be36 45be 20a8 dfbd 9d38 72be
00000300: 8208 e63d 9444 1fbd 68df 14be 4e3e 5c3f
00000310: 1c76 95be a8d5 acbe acc3 1c3e 50e0 da3e
00000320: 9d07 d0be 6e7c 703e 1154 9ebe 3f13 2e3f
00000330: 9de9 1c3e b7ea 7abe d242 18be 5126 b03d
00000340: bd69 673e cc7b cc3c 49af e13d 4ab9 91bd
00000350: 18d6 8abd a975 f8bc 9134 9bbe 9f71 06be
00000360: ac02 3d3e 8545 423e b736 a1be b54f 4c3e
00000370: 5621 ebbd 9952 72be 3490 cd3d 0250 a93e
00000380: 9960 e13e 1c84 30bf 545e 81be 99f2 ec3e
00000390: fa89 88be 944a 5dbd 821c 6bbe 3859 a6be
000003a0: a8b4 38bd 5d41 9abe 0a79 333d 29f4 143f
000003b0: 60b3 40ba e515 17bf 333e cbbe c718 adbe
000003c0: a960 503e ac44 333e 7494 15be 749c 88bd
000003d0: b4ed 8abe 6a4a aebe 754c 80be e80a ad3d
000003e0: 7816 043e ed50 75be 8d21 1cbe eb0d e53e
000003f0: 6f1d f03d 32b5 f9bc 2daf 5f3e 836e 1fbd
0.16976658 0.13535425 0.33644325 0.14746027 -0.056128602 -0.09126128 0.44327617 0.20620628
-0.35581142 -0.23523666 -0.1920483 -0.7685043 0.16174757 0.13876152 -0.29741648 -0.2488193
-0.30566925 0.14047039 -0.28891698 0.1734356 0.18786702 0.11871141 0.0740981 -0.13010287
0.08122919 0.1477873 0.14111343 -0.22391507 0.037656464 0.012537951 0.11139841 0.013697404
0.17716604 0.6589441 0.22989477 0.5388659 -0.16757053 0.25165161 0.4298944 0.47559658
0.2155976 -0.15279017 -0.25055557 -0.13986853 -0.29207957 0.25707057 -0.30086258 0.01902377
-0.015760193 -0.08629421 0.099214755 0.17060558 0.42757893 0.49604726 -0.3154987 -0.12865393
-0.12172346 -0.30203196 0.08930269 -0.12341641 -0.023059197 -0.28331926 0.0464088 0.30434653
0.29053262 0.47418058 -0.39437503 -0.28762716 0.38180342 0.48176187 0.17210495 -0.05319014
-0.21507163 0.26542026 -0.20624682 0.35981867 0.18518238 0.2740958 -0.3150707 0.021671714
-0.6669023 -0.36576304 -0.040436383 -0.04342832 0.1537988 -0.33084255 -0.092634834 0.3487565
-0.414171 0.20423006 0.067285635 -0.41593993 -0.032251872 -0.26131684 0.3085662 0.35728228
0.0685668 -0.40619645 0.28315002 0.31625292 -0.33212882 0.06607425 -0.23493767 -0.15289368
-0.5064526 0.37089846 0.18652253 0.15133898 0.25286412 -0.19554801 -0.4899745 0.39203298
0.27916077 -0.74745715 -0.42881918 0.011030107 0.24745412 0.14262407 0.14767146 0.10651402
-0.11843583 -0.45045048 0.1478214 0.39541245 0.02226932 0.7393819 0.18774709 0.30050707
0.22037458 -0.0055911904 -0.3039871 -0.02230158 0.24645013 -0.13296366 -0.15419054 -0.6117913
-0.22607057 -0.2685826 -0.016280793 -0.037053674 0.051587533 -0.7156028 0.2618244 0.9937671
0.10660964 0.26240358 0.2186671 -0.5270552 -0.39992237 -0.56394666 -0.47819704 -0.6268001
0.4672804 0.64083624 -0.004855366 -0.00071295764 0.16302918 -0.36214697 0.21480386 -0.30014798
-0.1644301 -0.9251133 -0.17621365 0.2283869 0.08247525 -0.27601048 0.06450351 -0.06050276
0.091627076 0.72923124 -0.0888588 -0.7402858 0.0017499366 -0.0051120864 0.21160316 -0.19502002
-0.13851477 0.06917777 -0.15070103 0.025371844 -0.25280628 0.70162743 -0.18428038 -0.26539588
-0.26781225 -0.5152646 -0.12374744 0.102523625 -0.32063767 -0.19259164 -0.10920739 -0.23654409
0.112320915 -0.03888376 -0.14538348 0.8603257 -0.29191673 -0.33756757 0.15309018 0.42749262
-0.40630808 0.23484966 -0.30923513 0.6799812 0.15323491 -0.24503599 -0.1486924 0.08601058
0.2259893 0.024961375 0.11019761 -0.07115419 -0.067791164 -0.030329542 -0.30313542 -0.1312928
0.1845805 0.18971832 -0.31487057 0.19952281 -0.11480968 -0.23664321 0.1003727 0.33068854
0.4401901 -0.6895158 -0.2526728 0.46278837 -0.26667768 -0.0540262 -0.22960094 -0.32489944
-0.045094162 -0.30127993 0.043816604 0.5818506 -0.00073509477 -0.59017783 -0.39695892 -0.33807966
0.20349373 0.17506665 -0.14607412 -0.06670466 -0.27134478 -0.34041148 -0.25058332 0.08449346
0.12899196 -0.23956652 -0.15247174 0.4473718 0.11724364 -0.030481908 0.21844168 -0.03892375

fc.0.bias f4 [64]
00000000: 0a46 e0bc ebd7 783d 383a a4be 2cf6 a1be
00000010: 6108 fdbc fda0 93be 2f58 bfbe 5f6c ac3c
00000020: 0425 34be 55cc 62be 7750 a2bd 7db3 15bd
00000030: bdbf b3be 4aed d03e ed2b 653e 5ef5 873d
00000040: e3fa e63b 3904 b63e 9a02 28be 319f df3d
00000050: 6fa5 d5bc a1ab c6be 5dc9 3c3e 9922 e9ba
00000060: 451f d13d 3559 ed3b 1eb5 003d e69f ff3b
00000070: 692d 01bb 3324 b5be 179f 963e a559 26bd
00000080: 220c d03d 3018 9a3e 6137 b9be dad2 b2be
00000090: cc06 2fbe 0dad 80bd 2692 9abe 983d 803e
000000a0: 914c 71be bd65 4a3e fd77 5fbe 0db7 a3be
000000b0: 171c cc3d 50b7 98be f848 2cbd 624c 8ebe
000000c0: fc49 5dbe 149f 7c3e 6c6f 413e a985 edbd
000000d0: 3d15 8dbe 1ca2 9f3e 8afd c7bd c8e4 71be
000000e0: 34a1 1abd eb5b 86be 43b0 65be a38e 92be
000000f0: d718 38bb cdab 84be e911 813e 6b39 2ebd
-0.027377147 0.06075279 -0.32075667 -0.31633127 -0.030887784 -0.28833762 -0.37371966 0.02104777
-0.17592245 -0.22148259 -0.07925504 -0.036548126 -0.35107222 0.40806037 0.22380038 0.06638597
0.007048951 0.35550097 -0.16407242 0.10919035 -0.026079861 -0.38802817 0.18436189 -0.00177868
0.10211042 0.0072433003 0.031422727 0.007801044 -0.0019710904 -0.3537918 0.2941825 -0.040612835
0.10158564 0.3009658 -0.36175063 -0.34926492 -0.17092437 -0.06283007 -0.30189627 0.25046992
-0.23564364 0.19765373 -0.21823116 -0.31975594 0.09966295 -0.29827356 -0.042061776 -0.2779265
-0.21610254 0.24670058 0.1889016 -0.11597759 -0.27555266 0.31178367 -0.097651556 -0.2362243
-0.03775139 -0.26242003 -0.2243052 -0.28624448 -0.0028090978 -0.25912324 0.25208977 -0.042535227

fc.2.weight f4 [64, 64]
00000000: c4e9 233e 054f 873d 5968 e13d 5fef c33d
00000010: 5e81 093d 1c12 af3e ae18 0d3f 495b ef3a
00000020: b9b1 0e3e fc11 983d c32f 0d3e 00e7 ef3e
00000030: 3de7 14bd 6f1c 9b3e 5601 bf3d bcc3 c53d
00000040: 8b8b 933e 85bd 913d 2c30 22bf ee8e 933d
00000050: 919d 393d e3c2 b1bd 5a72 7f3e cffd 153d
00000060: d526 1dbe cefa 35bf 3586 74bd 8f3e ba3d
00000070: 0ebd a5be 6892 98bd 43f6 fc3b 2f10 93bc
00000080: d794 603e 1d13 84be 4cfc 94bc bb93 eebb
00000090: 755c 893c 64e1 743d 17cb 953c 50b8 bbbd
000000a0: 0164 6c3c 1307 c43d 2838 173e 655f 95bd
000000b0: 25f7 923e c126 c6bd 2d95 173e 7c6f b33c
000000c0: cb2e a03d 35f7 953d 8054 4f3e 4a43 cb3d
000000d0: c5d4 913e bcb6 163e 53da cfbd 47b7 0a3c
000000e0: 28f7 a6bd fd88 e03c 03ff a0bb 5773 413c
000000f0: 4658 4ebe 1abe 803c c4ca 553e 8bf9 81bd
00000100: bed8 be3d 1fe4 433d bd4c ba3d 8938 633d
00000110: 905c 9cbc 2321 da3d f7bd 0bbd 31b7 d8bd
00000120: b259 f7bc 9737 c73d 4682 f4bc 6aed c63d
00000130: b13e 973d 00f3 c33d ec19 dbbd 1fea cabc
00000140: 3417 85bd 2d84 5b3b 5dec aa3d f5e8 613d
00000150: 63ad a3bd 6aa3 10ba 3ff6 f2bc aed1 90bd
00000160: 42bb b6bd ce16 04bd 024f 3bbd 7f89 c03c
00000170: 834b 9f3d f6b6 72bd 5bd2 0cbd 156d 9e3b
00000180: ff9e f7bd 3a7d 21bd 5430 5b3d 3b12 b7bd
00000190: 4209 0f3d 0edb b7bb aa73 833d 2611 e93c
000001a0: 8bc0 e1bd f7fb a63d b64d 2e3d c979 febc
000001b0: 763d e73d ceee 323d 6991 90bc d20f d9bc
000001c0: e22f 75bc d3fc 133b 9b59 373b 2d25 8f3d
000001d0: 96a5 debd 92ca 45bd 88cb 26bd 5c4e a5bd
000001e0: 34ac 9c3d 9c3a b2bc 6c95 c43d 9eae 5e3c
000001f0: abda 503d 5fc6 c0bc 1394 f0bd b2bb 9dbc
00000200: a4ee 553c 4ed7 073d ce0f 11bd 24f6 a6bd
00000210: 3f31 ddbd 4165 e7bd 83c8 ad3d 12a9 7e3d
00000220: 0e4a b5bd 38c8 7b3d 76fd 04bd f46f 77bd
00000230: c1eb d7bd 258f b8bd e1c1 20be ef9a 77bd
00000240: 52fc f73b 26ad cb3c fd2a bcbc 5160 03be
00000250: 828b edbc f70c 54bb b8f4 ecbd ffd5 303d
00000260: c4a6 063d 4d57 0dbd 804e ebbd f077 e8bd
00000270: 264d 9ebd 9d0c 16bd aac4 97bd e9b0 33bd
00000280: 9991 2e3d f605 e4bd 1485 c8bd 673e babc
00000290: ebe6 f8bb 9a05 943c 4da5 533d eb1e c4bc
000002a0: 84cc 943c 3797 75bd caaa a1bd 83a3 493b
000002b0: b09f b7bd 8e6c d3bd 68dd 14bd 4d23 12bd
000002c0: 7acb cabb f12a 843c 497d 50bd ea46 73bc
000002d0: 311b 00bd b5db 4ebd 8bf8 8a3d f66d 863d
000002e0: 72de 2abd 03dd be3d 4c7a 0cbb 7baf 14bc
000002f0: 07aa 463d 5cce 73bc ab89 b13b b384 b3bb
00000300: 8863 6cbe aceb 7dbd 8c81 cbbc 7929 443d
00000310: da63 99bd 5569 ffbe 946a 10bf 529d cebd
00000320: d931 3ebd 3728 933c 9138 ecbc c14e 30bf
00000330: b7fe 9f39 f625 eb3e d0f9 9bbb 5f4f 1e3e
00000340: 60fb 8ebe 3734 793e f8ae 62bf 30f0 ca3a
00000350: eecf 66bf 8f37 dbbd e697 8f3d 6f75 463e
00000360: 2c53 2dbd bd8a 84c0 b860 863d 29a1 ee3c
00000370: 7701 6cbf 2306 d7bd ed70 25be befe 903d
00000380: 9c76 5ebe faec 193f 447c 153d fc6d 363d
00000390: d927 abbd 5919 51bf d3f3 50bc 88c5 6dbe
000003a0: 8007 b8bd c934 15bb c27b 91be 223a 043d
000003b0: 2d1f 1d3f 792f 1fbf 3b6a 70bc f77b 2b3c
000003c0: 7f51 97bc 22f2 823e 627d 883d e394 883d
000003d0: 84a0 68bf 7823 043e ca0b 1abd a94a 97bc
000003e0: 50c1 dbbd d8c5 a83d 2772 b63d 6751 57be
000003f0: 0a9e f1bf b4f4 183d 233d db3d 3fad 82bd
0.16007143 0.06606869 0.11006231 0.09567141 0.03357064 0.34193504 0.55115783 0.0018261458
0.13934983 0.07425305 0.13787751 0.46855927 -0.03635334 0.3029513 0.09326427 0.09656474
0.288174 0.07116226 -0.63354754 0.07204996 0.045316283 -0.0867975 0.24945965 0.036619004
-0.15346844 -0.7108582 -0.059698302 0.09093963 -0.323708 -0.074498 0.0077197864 -0.017952053
0.21931778 -0.25795832 -0.01818671 -0.0072807944 0.01676772 0.05978526 0.018285317 -0.09166014
0.01442814 0.09571662 0.14767516 -0.07293586 0.2870418 -0.096753605 0.14803 0.021903746
0.07821425 0.073225416 0.20247078 0.09924944 0.28482643 0.14718145 -0.10149064 0.008466548
-0.0815261 0.027409071 -0.0049132123 0.011807284 -0.20150861 0.015715647 0.2087813 -0.06346425
0.09318684 0.047824975 0.09096668 0.055473838 -0.019087106 0.106508516 -0.03411671 -0.10581816
-0.030194137 0.097274 -0.029847275 0.09713252 0.07385004 0.09567833 -0.106983036 -0.02476984
-0.06498566 0.003349553 0.08345864 0.055153806 -0.07992055 -0.00055175147 -0.029658435 -0.07071243
-0.08922435 -0.03224831 -0.045729645 0.023503063 0.077780746 -0.059256516 -0.034380298 0.004834781
-0.12090873 -0.039426066 0.053512886 -0.08939024 0.03492094 -0.00561083 0.064185455 0.02845056
-0.11023053 0.08153527 0.04255458 -0.031063931 0.112910196 0.043684773 -0.017647462 -0.026496802
-0.014965029 0.0022581115 0.0027976993 0.069895126 -0.10871427 -0.04828889 -0.040721446 -0.080715865
0.07650033 -0.021756463 0.095988125 0.013591437 0.050989788 -0.02353209 -0.11746993 -0.01925454
0.013057385 0.033164315 -0.035415463 -0.08152416 -0.108004086 -0.112986095 0.0848551 0.062172957
-0.088520154 0.06147024 -0.03246828 -0.0604095 -0.10543013 -0.09011678 -0.15698959 -0.06045049
0.0075679207 0.024862837 -0.022969717 -0.1282971 -0.028997187 -0.003235636 -0.11570114 0.043172833
0.032873884 -0.034507085 -0.11489582 -0.11351001 -0.07729559 -0.036633123 -0.074105576 -0.043869887
0.04261932 -0.111339495 -0.09791008 -0.022734834 -0.007595887 0.018069077 0.051671315 -0.023940524
0.018163927 -0.059958663 -0.078939036 0.0030767627 -0.08966005 -0.103234395 -0.036343962 -0.035678197
-0.006188807 0.016133757 -0.05090073 -0.01484845 -0.03127593 -0.050502498 0.06785687 0.06563942
-0.041716047 0.093194984 -0.00214352 -0.009075041 0.048501994 -0.014880743 0.0054180226 -0.0054784655
-0.23084843 -0.061992332 -0.024842046 0.047891114 -0.07489748 -0.4988505 -0.56412625 -0.100886
-0.046434257 0.017963512 -0.028835567 -0.6887017 0.0003051662 0.459274 -0.0047600046 0.15459965
-0.2792616 0.24336325 -0.8854823 0.0015482958 -0.90161026 -0.10703956 0.07011394 0.19380735
-0.042315647 -4.141936 0.065614164 0.029129582 -0.92189735 -0.10499217 -0.16156359 0.07079838
-0.21724933 0.6012722 0.036495462 0.044538483 -0.0835721 -0.816793 -0.012753445 -0.23219883
-0.089858055 -0.0022767058 -0.28414732 0.032282002 0.61375695 -0.6218181 -0.014673765 0.010466567
-0.018471478 0.25575358 0.0666454 0.06669023 -0.9086993 0.12904155 -0.0376089 -0.018468218
-0.10730231 0.08240861 0.089084916 -0.21027146 -1.8876355 0.037342742 0.1070502 -0.063807

fc.2.bias f4 [64]
00000000: 1d33 333e cfc3 78bd dfcb ca3c dd53 ba3d
00000010: a3d3 203c 1bbb abbd 8e81 69bb 14b8 d23d
00000020: e33d 14bd c7f2 0ebe b71a 9b3d e7e6 a6bd
00000030: fb7d 9a3d 415e febd e6e8 13bd faea d2bd
00000040: 3537 1f3e 48a4 1f3c 4405 cabd 3675 5dbd
00000050: 6059 90bc 1c28 05bd 5a6c 8d3c 7e94 663d
00000060: a4b4 15bd 8afd 123d 83df 8bbd 9b16 d0bd
00000070: bebc 91ba 954c 393d e47a cdbc b612 dfbc
00000080: afe6 98bc e4e5 1c3e 1857 71bc 1982 93bb
00000090: 6222 a53c 6fde 3a3d a43f b4bd a575 7abd
000000a0: ea21 a4bd 4759 a23d f17a 80bd 64e8 0d3e
000000b0: 1902 e4bd a76e 43bd d8e2 9c3d e888 12be
000000c0: 26d3 afbd e204 f33c dba3 d1bd 3be5 f0bd
000000d0: f9fd dd3b a5d5 2fbd 6a80 143d bd96 25bd
000000e0: 2572 61bd df04 933c 42ef 78bd 0658 273c
000000f0: 736f 903d 33b7 16bd 3441 ab3d 4448 c2bc
0.17499967 -0.060733613 0.024755416 0.09098027 0.009816083 -0.08385297 -0.00356302 0.10289016
-0.036191832 -0.139598 0.07573455 -0.0814951 0.0754356 -0.12420321 -0.03611078 -0.102987245
0.15548404 0.009743758 -0.098642856 -0.05406686 -0.017620742 -0.032508954 0.01726358 0.056293957
-0.036549225 0.035886325 -0.06829741 -0.10160562 -0.0011118872 0.04523905 -0.025083013 -0.027230602
-0.018664686 0.15322071 -0.014730237 -0.004501593 0.020157997 0.045622285 -0.08801201 -0.06114735
-0.08014281 0.079271846 -0.06273449 0.13858181 -0.111332126 -0.04771295 0.076604545 -0.14310038
-0.08585195 0.029665414 -0.10236331 -0.11762472 0.0067746607 -0.042928357 0.036255278 -0.04042696
-0.055040497 0.017946659 -0.06077505 0.0102138575 0.07052507 -0.036795806 0.08362046 -0.0237161

fc.4.weight f4 [8, 64]
00000000: 70e4 583e 94f2 c3bc a527 9bbd 3d00 133f
00000010: 05e3 5abc e473 b7bd 930b 193f dcea c83e
00000020: 4346 e8bc df62 8dbd 00f0 3f3e abcb d3bb
00000030: 66a7 a6bd 2d3f 4fbd bc68 c0bd dd5a 2dbd
00000040: 0d02 333e 9791 253e 01dd 9dbd 3fd4 d33d
00000050: 14ca f43e 21b1 743d 99b5 303d 819b ef3e
00000060: 2e84 a43d 4303 4e3e 216f 0abe c63a fdbc
00000070: 63ce f33c 2238 ab3d 3a56 763d 18fb a3bd
00000080: deb2 8f3c b2da 123e 7f72 74be bf4d 833e
00000090: 367c b03d d4b0 e03e dc8a 443d 3b29 943d
000000a0: 80a0 1c3d a683 123d 7c5b 55be 3399 533e
000000b0: f62f 583c b856 6bbc ff87 84bd 5989 93bd
000000c0: c5cb 88bd cc09 293d 1dec 2e3b 6fb2 823d
000000d0: aad8 1d3e ede9 e1bc 4541 1d3d 1162 3a3d
000000e0: d989 d33d 6495 e53d 7c69 7ebd 0849 243d
000000f0: aaa3 fe3e 22af a23d 0eef bd3d dfc1 f5bc
00000100: 4635 433e dcbc da3d 2fac c2bd 1735 203f
00000110: 9e6c 86bd dcf7 dabd 2f3d eb3e b489 8b3f
00000120: 68e9 72bd 37f2 92bd cc8a 45be 3d8c 8ebc
00000130: 3485 963c f312 a03d 432c 7abd f824 173d
00000140: deae 063e 9ea0 33bc 5443 d03d 5008 5c3d
00000150: dc75 593e 8b19 ebbc 8b2e bbbd 5d48 103f
00000160: c5cc a13d a95e 843e 8c10 f33c 7e7e 833d
00000170: 5401 77bc 9c07 60be 2713 0dbd 5ffc 92bd
00000180: c772 443d 6dca c8bd 179d 2bbf f52b 1a3e
00000190: 0a65 763d 0d65 8c3f c59f 703d 6b6c 5fbc
000001a0: f3b0 383d e25c 0abd 95d3 cebe 9938 403e
000001b0: 926e bd3c 437e a4bd b2dd bebe 8c71 50bf
000001c0: 24fd debd d244 c63d c724 3b3d 94ef 4cbd
000001d0: 0c0a 30be b18c 28bd ba38 1e3d 0622 403c
000001e0: aca6 59bd cc51 8e3d f053 9e3d de38 64bd
000001f0: 07f7 223f 6f50 8b3d af9c 263e d53a 10bd
00000200: 8d27 3f3e c185 a3bc 12db 0d3b 671d 223f
00000210: e796 9f3c fb83 2bbd 549a 2f3e 8939 223f
00000220: be15 273b 1fb8 d53d 4c24 a43d a29e 92bd
00000230: 80c4 63bd cfe4 f83c da1c 163c 9ddb 563d
00000240: 278d 283e 46f4 a43c cebf 05bd 1ad0 983d
00000250: 358a fc3d 2b16 473d 3c7f 8a3d e7e9 063f
00000260: 0379 efbc 53b5 343e 58ea 203d 2f81 63bd
00000270: 7e5c 86bd f6a9 d83c 5b6d e8bc 46dc 4ebd
00000280: f70d 2ebd e6a5 c53c 88b6 9cbe d8c4 76bb
00000290: fe5d 67bd c974 173f f4e1 d1bd 5fce d3bc
000002a0: 44e2 163d bc93 ba3a 82c2 abbd 91e5 1e3e
000002b0: 6ee6 f73d 75fa 3abd d42f d73d c7f4 ed3c
000002c0: 8237 77bd c8c9 053c 4483 5fbd 23f7 5e3d
000002d0: 340e f9bc f1cc 27bd 0ed9 043d 1543 2ebe
000002e0: d642 743c cdb9 1abd d19a 71bd 544f 433c
000002f0: 25dd 103f a8af 11bc a893 723e 43d9 78bd
00000300: 380b 213e dcdb 073a 59b8 64bc 45ac 1a3f
00000310: dc9f febc 24da 21bd 320f e73e 04b1 303f
00000320: 0dd1 abbc fa0f c03d c298 9b3d c0a6 9c3d
00000330: 43a0 42bd 1681 46bd aac5 7e3d 3ad1 353d
00000340: db98 2f3e 5764 d7bd dfd8 0f3d 44e1 fd3c
00000350: 447a 973e 5203 b83d da9f eabc c18d ec3e
00000360: 5a1a 79bd 4bdf 8a3e 80da 0dbd 6853 82bd
00000370: 16b5 063e 5c4e 363d 45d1 45bd 47c9 d5bd
00000380: 8d43 4fbd 9a74 443e aeb0 a8be 7d05 593d
00000390: e284 cabd ca48 103f 0023 91bc f106 9b3d
000003a0: fa17 60bd 4c74 b7bd 2e0d bdbe ef81 5a3e
000003b0: c702 2bbd 0943 823d e837 a83e 49d0 a1bd
000003c0: 1767 e33d dea8 a83c 6d01 703d 282f 363d
000003d0: a864 1ebd 3698 b53d ef1b 0c3e aba9 d33d
000003e0: 2c1b 77bd 7efc 603d 91fb 113d 3ac0 7bbd
000003f0: 3c28 1c3f bc86 a1bd 969c c43e 6db2 80bd
0.21180892 -0.023919381 -0.07575921 0.5742224 -0.01335979 -0.08957651 0.59783286 0.39241683
-0.028353816 -0.06903624 0.18743896 -0.006463488 -0.081373975 -0.05059736 -0.093949765 -0.042322982
0.17481251 0.1616882 -0.07708169 0.10343217 0.47810423 0.059739236 0.043141935 0.46798328
0.08033024 0.20118432 -0.13518955 -0.030911814 0.029761499 0.08360316 0.060140826 -0.08006877
0.017541345 0.14341238 -0.23871802 0.25645253 0.08617441 0.4388491 0.04798399 0.072344266
0.038239002 0.03577008 -0.2083568 0.2066391 0.0131950285 -0.014363937 -0.06471252 -0.07203931
-0.06679491 0.04126911 0.0026691027 0.0638169 0.15414682 -0.027577365 0.038392324 0.04550368
0.10329027 0.112101346 -0.062112316 0.04010871 0.4973424 0.0794356 0.09274112 -0.029999672
0.19063291 0.10680553 -0.09505498 0.6258101 -0.06563686 -0.10691807 0.45945117 1.0901399
-0.059304625 -0.07175105 -0.19291228 -0.017400855 0.018374063 0.07816114 -0.061077368 0.03690049
0.13152644 -0.010963587 0.10169092 0.053718865 0.21236366 -0.028698703 -0.09139737 0.5636042
0.07900385 0.2585347 0.029670976 0.06420611 -0.015076 -0.21877903 -0.034442093 -0.07177042
0.047961023 -0.09804235 -0.67036575 0.15055831 0.060154952 1.0968338 0.058746118 -0.013636689
0.045090627 -0.033779986 -0.403958 0.1877159 0.023124013 -0.08031895 -0.37278515 -0.8142326
-0.108881265 0.09681095 0.04568937 -0.050033167 -0.17191333 -0.0411498 0.038628317 0.011726862
-0.053137466 0.06949195 0.077308536 -0.055718295 0.63658184 0.06802451 0.16270708 -0.035212357
0.18667431 -0.01996124 0.0021645469 0.63326114 0.019481136 -0.041873913 0.17148715 0.6336904
0.0025495137 0.10435509 0.080147356 -0.07159163 -0.05560732 0.030382542 0.009162152 0.052455533
0.16460095 0.02013601 -0.032653622 0.07461567 0.123310484 0.048605125 0.06762549 0.52700657
-0.029232508 0.17647295 0.039285988 -0.05554312 -0.0656061 0.026448231 -0.028372457 -0.050503038
-0.042493787 0.024126958 -0.3060801 -0.003765395 -0.056486122 0.59162575 -0.10248175 -0.025855241
0.036836877 0.0014234702 -0.08386709 0.1551726 0.12104498 -0.04564901 0.10507169 0.029047383
-0.06035567 0.008165784 -0.054568544 0.054434907 -0.03040228 -0.04096693 0.032433562 -0.17017777
0.014908513 -0.03777485 -0.058985535 0.011920769 0.5658744 -0.008891977 0.23689139 -0.060754072
0.15726936 0.0005182603 -0.0139599675 0.6041911 -0.031082086 -0.039514676 0.4512878 0.69020104
-0.020973707 0.09378047 0.075974956 0.076489925 -0.04751612 -0.04846295 0.062200226 0.044388987
0.17148153 -0.10517185 0.035118934 0.030991204 0.2958547 0.08985008 -0.028640676 0.462019
-0.060816146 0.27123484 -0.034632206 -0.06363565 0.13155016 0.044508323 -0.048295278 -0.10438781
-0.05060153 0.19185105 -0.32947296 0.05298375 -0.09888627 0.5636107 -0.017716885 0.07569683
-0.054710366 -0.08957729 -0.36924118 0.21338628 -0.041750696 0.06360442 0.32855153 -0.07901055
0.11103647 0.020588335 0.05859511 0.044478565 -0.038670212 0.088669226 0.13682531 0.10335096
-0.060328647 0.054928295 0.035640303 -0.06146262 0.6099889 -0.07887027 0.38400716 -0.06284032

fc.4.bias f4 [8]
00000000: 201b bc3d 9626 393e a0e5 ea3d 97c5 d33d
00000010: 110f 213e 1380 bf3d 022c b93d 1a19 bb3d
0.09184861 0.18081126 0.11469579 0.10340422 0.15728404 0.093506 0.09041597 0.09135647
