policy_net.pth (torch, 23142 bytes, 6 tensors)

fc.0.weight f4 [64, 6]
00000000: 9e4c d23e cf91 993e 95d5 b53e 482b 1dba
00000010: 90d3 ab3d 8268 5bbe e8a1 ac3e 429a 77bc
00000020: ed2f abbe d411 6fbd 78b0 97be 3793 c4be
00000030: d4a3 3b3e 2cf9 203e 2d83 acbe e852 90be
00000040: ae4c b1be 20f5 223e 2b95 a7be 2c33 493e
00000050: bcf0 593e a8b6 093e 84eb ab3d 48ee 16be
00000060: f77f a73e db14 c03e af1b 913e f116 8fbe
00000070: 6b26 753e a10d e5bd ac3b 333e 45c3 993d
00000080: 882b 073d ffcf 8e3e cb72 143e 7cf2 cb3e
00000090: 3905 3ebe 0bff 6e3e 8373 9a3e 025e fe3d
000000a0: c843 d43d 528f a2be ac54 91be 9841 22be
000000b0: c06a a9be 981c 953e 9882 aebe 708d b03c
000000c0: 979b db3c 7e02 d5bd e196 123d 10fa d13d
000000d0: 96ba b73e e4f5 993e 4222 a5be 8923 39be
000000e0: 6483 d2bd 053f c1be ecec 0b3e 25ee 32be
000000f0: df23 ad3d 5229 57be c6e2 053d c678 153e
00000100: 8115 a53e ee34 683e 54fe b9be 4ac8 80be
00000110: ff50 9c3e 0bbb a43d 8e32 4e3e 556c 0bbe
00000120: 1d80 79be 34f4 993e 5443 6fbe 60b5 d03e
00000130: b0d3 563e 2cfc 9e3e bc27 cabe c327 663e
00000140: 4d79 bebe a152 08be bce4 bdbd 14ba a93d
00000150: c9ea bf3e cf56 14be 3fd2 5c3c ab26 ce3d
00000160: dcbe 95be f03a b43e 7c4a 833e 4c1f c6be
00000170: 5f24 623e f72b 44be 5553 c23e 4ae0 933e
00000180: 5055 3e3e 359b 6ebe 428c 813e 6b0c 15be
00000190: 8cf0 87be 4445 ea3d c941 7fbe f936 15be
000001a0: 7f52 4ebe 35ee ae3e 75e6 ba3e 480a 523d
000001b0: c202 963e e863 a2bc d370 b1be 21e8 993e
000001c0: 411a 8f3e 9f46 a5be e83b 8dbe 0052 7dbd
000001d0: 9f37 b33e 7f4b c03d c5e6 653e 7130 33be
000001e0: 335d 37bd 1dfd 0fbe 15aa e23d a92f 91bd
000001f0: 3d94 a3bd 6e07 a43e 39c7 833e d671 c53e
00000200: 9082 963e 386f 343d f254 99be 200a 8bbd
00000210: f121 983e e286 22bd c6b7 67bc 0bed c5be
00000220: 18c7 50be adc4 b9be bfc0 83bc fdf4 66be
00000230: 1be5 413e 66f6 a8be aeb2 a73e 6ed1 b13e
00000240: 404a 193e c365 1a3e f170 7b3e fdcd d0be
00000250: cbad aebe c050 72be 082b bebe 8a8f ccbe
00000260: 7e63 9f3e 1462 463e d89d 8cbd 9a01 20be
00000270: 7859 b43d c0a9 bdbe 1813 243e a087 3bbe
00000280: a0e2 64be 6526 97be c474 66bd 6133 a63e
00000290: 15fb 233e c625 68be 4276 743e ec4e 04be
000002a0: 14e1 4dbe c053 2e3e 510c c0be de7c 2ebe
000002b0: 102b 273d 84e1 1f3e d879 753e a53c 62be
000002c0: a0af 20be 8080 a03d 19d3 2ebe 4c77 eb3c
000002d0: fc6e abbe a001 513e 0c35 94be 85f4 a5be
000002e0: 7bc0 acbe c055 87be 5e8e 0fbe e0de ed3d
000002f0: 81fb b9be dd6b 5fbe b060 fdbd 5434 89be
00000300: c3bd 3a3e 2a92 f6bd b12d 94be 410a b33e
00000310: ca82 a8be 6b6c 2bbe 1118 f13d 5515 b83e
00000320: 78d0 afbe 0502 ed3c 7e85 a7be afe0 a33e
00000330: c53a 4c3e 7051 9bbe 634f 13be f5a4 ec3d
00000340: 0e4f 903e ee77 8d3b d0ac ff3d b816 a5bd
00000350: 0c49 9dbd b0bc 0cbd 41d4 afbe 564f 18be
00000360: 4820 563e 9816 5c3e 10a3 b6be 2876 673e
00000370: cc2f 05be 0a43 89be afbe 993e ee4c 873e
00000380: d6a7 bf3e c226 c2be e3f9 b0be 0de7 693e
00000390: c5ae 9abe 7cb2 7abd 122d 85be 1474 bcbe
000003a0: 1440 51bd e2c0 aebe dfcc efbc c5b3 c33e
000003b0: 4827 c6bc 2bfb c2be 392c a0be ea14 53bd
000003c0: 8c11 6c3e 4c17 4b3e f574 29be b4c3 9abd
000003d0: c763 9dbe 9673 c5be a05c 6abe 497f f83d
000003e0: f2a1 7e3e fb6b 4dbe 8368 eebd dc28 3e3e
000003f0: 717f 903e 26c1 58bc cb84 343e 51fe c7bd
0.4107408 0.29994056 0.35514513 -0.0005995524 0.08389962 -0.21426585 0.33717275 -0.0151124615
-0.33435002 -0.05836661 -0.29626822 -0.38393566 0.18324214 0.15720052 -0.3369383 -0.28188252
-0.34628814 0.1591382 -0.32730994 0.19648427 0.21283239 0.13448584 0.083945304 -0.14739335
0.32714817 0.3751591 0.28341433 -0.2794719 0.23940437 -0.1118424 0.17503232 0.07507948
0.0330005 0.27893063 0.14496915 0.39833438 -0.1855668 0.23339479 0.30166253 0.12420274
0.10364491 -0.3174997 -0.28384912 -0.15845335 -0.33089256 0.29123378 -0.3408401 0.021551818
0.02680759 -0.10400866 0.03578842 0.10252774 0.3588454 0.30070412 -0.322527 -0.18079962
-0.10278967 -0.37743393 0.13664597 -0.17473657 0.084541075 -0.21011856 0.03268697 0.14596853
0.3224297 0.22676441 -0.3632685 -0.25152808 0.30530545 0.08043488 0.20136473 -0.13615544
-0.24365278 0.30069125 -0.23365527 0.40763378 0.2097919 0.31051767 -0.3948344 0.22476105
-0.3720192 -0.1331277 -0.09272143 0.08287445 0.37483814 -0.1448624 0.013477861 0.10065969
-0.29247177 0.35201216 0.25642765 -0.38695753 0.22084187 -0.19157396 0.37954202 0.28882056
0.18587232 -0.23301394 0.2530232 -0.14555518 -0.2655071 0.114389926 -0.24927439 -0.14571752
-0.20148657 0.34166113 0.3650395 0.051279336 0.2929898 -0.01982303 -0.3465639 0.30059913
0.27949718 -0.32280442 -0.27584767 -0.06184578 0.35003373 0.093894 0.22451313 -0.17498948
-0.044766616 -0.14061399 0.11067597 -0.070891686 -0.079872586 0.32036918 0.25737932 0.38563412
0.29396486 0.04405138 -0.2994762 -0.067890406 0.29713395 -0.039679416 -0.014142936 -0.38657412
-0.20388448 -0.36282864 -0.01608312 -0.22554393 0.18935053 -0.33000487 0.3275351 0.34730095
0.1496973 0.15077882 0.24554802 -0.40782157 -0.3411697 -0.23663616 -0.37142205 -0.39953262
0.31130594 0.19373351 -0.06866044 -0.15625611 0.08806127 -0.3704357 0.16022909 -0.18313456
-0.22352076 -0.2952148 -0.0562637 0.32461074 0.16013749 -0.2267066 0.23873237 -0.12920731
-0.20105392 0.17024136 -0.37509397 -0.1703982 0.040812552 0.15613371 0.23972261 -0.22093447
-0.15691996 0.078370094 -0.17072715 0.028743409 -0.33483112 0.20410776 -0.28946722 -0.32413116
-0.337406 -0.2643261 -0.14019153 0.11614776 -0.36324695 -0.2181849 -0.12371957 -0.26797736
0.18236451 -0.12039597 -0.2894111 0.3496876 -0.32912284 -0.16740577 0.117721684 0.35953775
-0.34338737 0.028931627 -0.32719034 0.32007357 0.19944294 -0.3033557 -0.14385752 0.115549006
0.28185314 0.0043172752 0.12484133 -0.08060974 -0.07679948 -0.034359634 -0.34341624 -0.14874014
0.20910752 0.21492994 -0.35671282 0.22603667 -0.13006514 -0.2680896 0.30028293 0.2642588
0.37432736 -0.37920195 -0.34565648 0.22842045 -0.30211464 -0.061205372 -0.26010948 -0.3680731
-0.0510865 -0.34131533 -0.029272495 0.3822309 -0.024188653 -0.3808225 -0.3128374 -0.051533617
0.23053569 0.19833106 -0.16548522 -0.07556859 -0.30740187 -0.38564748 -0.22886896 0.12133653
0.24866465 -0.20060723 -0.11641028 0.18570274 0.2822223 -0.013229644 0.17628781 -0.09765304

fc.0.bias f4 [64]
00000000: 8726 783e 4216 1cbe 1e0d babe ce7b b7be
00000010: 3c77 6c3e 8d02 77be a78e b1be 0056 c33c
00000020: 6709 2bbe b36f 5cbe 0036 413d 6892 c03d
00000030: 67a2 cbbe 0782 ca3e 1550 d53e 80b6 7f3e
00000040: 8f7c 313e 0b92 ca3e 9bc8 4fbe 0d06 ab3e
00000050: e27a d0bc 58ad cabe 10eb 383e 5c74 5abd
00000060: 63d2 193e 1440 32be 76c7 62bd cb0a 233e
00000070: 60a0 b23d 4d36 cdbe dc3c bf3e 9074 3cbd
00000080: 8625 523e 4cec 823e 137f c4be 7596 cabe
00000090: 0449 46be dc4e 2d3c da1c afbe 562f a43e
000000a0: 82ae 88be 806c 8c3e 21ac a8bd 944f a9be
000000b0: 1a74 083e 07be 95be 826d 173d 7335 a1be
000000c0: f433 cbbd 807d 713e fd12 bc3e c48a 06be
000000d0: ba2b 21be e720 d83e 6866 a2bd e004 89be
000000e0: 58d5 27bc f262 81be bc1a 82be cbd8 41be
000000f0: 5599 f73d d34c 96be 193b c63e 41be 633e
0.24233447 -0.15242866 -0.36338133 -0.35836643 0.2309236 -0.24122067 -0.34679148 0.023844719
-0.16702805 -0.21526985 0.04717064 0.09402925 -0.3977234 0.39552328 0.4166266 0.24971962
0.17332672 0.39564547 -0.20291369 0.33403054 -0.02544922 -0.39585376 0.18058419 -0.053333625
0.15021662 -0.17407256 -0.055366002 0.15922086 0.08721995 -0.4008049 0.3735112 -0.0460096
0.20522127 0.25570905 -0.383782 -0.39567915 -0.19363791 0.010577884 -0.342017 0.32067364
-0.2669564 0.2742653 -0.08235956 -0.33068526 0.13325539 -0.29246542 0.03696967 -0.3148609
-0.09922019 0.2358303 0.36733237 -0.13138872 -0.15739337 0.42212602 -0.07929689 -0.26761532
-0.010243736 -0.25270802 -0.25411022 -0.18930356 0.12089793 -0.29355487 0.38716963 0.22240545

fc.2.weight f4 [64, 64]
00000000: fc79 e63d de4b 873d 4c5c ff3d 06f9 dd3d
00000010: fa8e 483c 0f2c 9a3d 31a7 a3bd f494 073b
00000020: fe4a 8bbd 926f c53d 3be8 f8bc ac3b 1a3e
00000030: c0b0 28bd 0102 013e 8d7e 2b3d 32fa d4bc
00000040: be59 633d 80bd d03c 8bd6 f9bd 3512 063d
00000050: 7c9d f7bc 205f f8bd 3bdd e43d 9941 a33c
00000060: 0234 ccbd 6c63 50bd 1336 bcbd 4716 1b3e
00000070: 2c00 b63b 6ed8 acbd e639 ebbc 6c9b a6bc
00000080: 364b dd3a 4b2e 23bc a2ee 13bd d423 07bc
00000090: 509d 9b3c 72d1 083d d4b2 a93c c0c3 de3d
000000a0: d8e6 853c 7fdc 123e 370f a43d f01f babd
000000b0: 33f9 8bbd 1af7 953d e717 443d 8c47 cb3c
000000c0: 107c da3c f636 bf3d 7dd3 db3d 5246 e63d
000000d0: 26e7 57bc 7180 053e c467 d6bc 2c26 1d3c
000000e0: c4de d6bd e747 053c 0064 b6bb 33f0 d33d
000000f0: 9607 7e3d 30da 913c aac4 033e fd82 28bd
00000100: be95 f13d 4cec 5d3d 3a0e d33d b1b4 803d
00000110: 24bc 26bc ae1d f73d e812 d8bc b283 f5bd
00000120: 2c1c 0cbd dab0 e13d 2414 afbc 689f fd3d
00000130: a457 ab3d de2a f03d 0809 debd b423 8ebc
00000140: 88dd 79bd 50d1 823c 06a3 c13d 3c9e 993d
00000150: b06d b9bd 70db 23ba a03d f9bc 4eb0 acbd
00000160: 40cb bdbd 5018 09bd f432 54bd 04b0 1b3d
00000170: ae76 b43d d87b 89bd 887f 5abd 787a b33b
00000180: 62eb fbbd e4f2 36bd f450 783d 2066 cfbd
00000190: fc0a 223d b449 d0bb 7eeb 943d f8d2 ff3c
000001a0: 68c0 ffbd 1314 d63d f083 6f3d 0025 10bd
000001b0: 4eaa ee3d 3cb6 4a3d be99 fabb 2ce8 f5bc
000001c0: 0caa d9bb a4e1 253c 648f 7b3c 782a a23d
000001d0: d611 e0bd 2c9b 34bd 0ce3 07bd 5646 bbbd
000001e0: b27d b13d 64e9 c9bc f6b4 de3d d845 7c3c
000001f0: 060a 913d a464 dabc 424c f6bd 3c94 23bc
00000200: 04c8 793d a0c7 873d a856 24bd 5026 bdbd
00000210: 0e0f 9dbd 72c7 fbbd f851 c73d e43f 903d
00000220: 3e61 cdbd 6e9e 8e3d d527 0dbd ef0b 8abd
00000230: 0c9d f4bd 2d67 d0bd 004d 0cbe 98db 78bd
00000240: 417f 0f3d eb31 3d3d cdc2 e33b 95a8 dbbd
00000250: 0e8e 06bd 983a 70bb ec69 cebd 6f55 483d
00000260: 6386 923d a81f 20bd 1241 d1bd f8b9 bcbd
00000270: 3c56 b3bd 40fd 29bd 78cc 62bd 9091 4bbd
00000280: 4804 b23d 83df c6bd d22a e3bd fefd d2bc
00000290: b4fc 0cbc 1fbc 483d 24c5 6f3d d61b 873b
000002a0: 7c92 a83c c81c 8bbd d904 59bd 386f 643b
000002b0: 7c06 d0bd 0c85 efbd e0e7 c4bb 848e 25bd
000002c0: 72f7 fb3c c158 603d 9fdb abbc 20cd 89bc
000002d0: 8112 f5bc b243 afbc 0a70 9d3d 2c4b 983d
000002e0: 3c93 41bd 143a d83d e024 1fbb 9c71 28bc
000002f0: 7b2b bf3d dc19 8abc b38c 413d 7a60 ef3c
00000300: e427 96bd 2e6b af3d d48c e6bc c83a 5e3d
00000310: 94e0 d3bd d4e8 2f3d b8ef 173d 3412 eabd
00000320: d25b 9cbd 2cae 4a3d 147a a7bd 8cf9 38bd
00000330: 8c41 b539 0e5e b93d 9243 9bbd 3674 b93d
00000340: bcaf d8bd ac91 b53c fcdc c03c 3cdb 6b3d
00000350: 687e 113d 2259 f8bd 4487 f2bc 62e6 9f3d
00000360: fc60 fa3d ae66 b8bd f807 6f3d 6266 a5bd
00000370: 6a15 c0bd 0899 f3bd 4e5f 913d 4443 a43d
00000380: e471 953d bee1 96bd 9059 293d fcab 4e3d
00000390: 7ae6 c1bd 70fc 1ebc 0cb8 6cbc 6261 a9bd
000003a0: 067c d0bd 842c 61bd a6d3 dabd 40cc 153d
000003b0: ecf2 c43d 9e29 d7bd 0886 4bbd b645 423c
000003c0: d68a 8cbd a464 a23c 38f9 453d 22bb 9a3d
000003d0: 4cfe 413d bc13 7e3c c8fe 293d 2f65 abbc
000003e0: 10f5 f8bd 6239 cb3d b6b0 ce3d e844 6a3d
000003f0: ac39 afbd 3c48 2d3d a053 c33d ac81 23bd
0.112537354 0.066062674 0.12468776 0.10838513 0.0122411195 0.07527935 -0.079908736 0.0020688148
-0.06801413 0.09640421 -0.030384174 0.15061826 -0.041184187 0.1259842 0.041868735 -0.025998209
0.055505507 0.025480986 -0.12199124 0.032732207 -0.030226462 -0.12127519 0.11175009 0.01992874
-0.09970857 -0.050876066 -0.09190001 0.15145217 0.0055542197 -0.08439718 -0.028714132 -0.020337783
0.0016883377 -0.009959768 -0.03611625 -0.008248288 0.01899591 0.033402868 0.020715155 0.1087718
0.016345426 0.14341925 0.080107145 -0.09088123 -0.0683464 0.073225215 0.047874358 0.02481439
0.026670486 0.09336655 0.107336976 0.11243881 -0.013177669 0.13037278 -0.026172526 0.00959162
-0.10491708 0.008134819 -0.00556612 0.10348549 0.062018953 0.017804235 0.1286799 -0.041140545
0.11796139 0.05418043 0.10305448 0.06284464 -0.010176692 0.12066208 -0.026376203 -0.119880095
-0.034206554 0.1102006 -0.021371908 0.1238392 0.083663255 0.11726926 -0.10841566 -0.017351009
-0.061002284 0.015968949 0.094549224 0.07500884 -0.09054124 -0.0006250655 -0.030424893 -0.08432065
-0.092672825 -0.03347045 -0.051806405 0.03800966 0.08811699 -0.067130744 -0.05334428 0.005477246
-0.12300755 -0.044665232 0.060624078 -0.10126901 0.039561257 -0.0063564423 0.07271479 0.031228527
-0.124878705 0.104530476 0.058475435 -0.035191536 0.11653577 0.0494902 -0.007647722 -0.030017935
-0.0066425856 0.010124598 0.015354011 0.079182565 -0.10940902 -0.044093296 -0.033175513 -0.09144275
0.086665526 -0.024647422 0.10874359 0.015397511 0.0708199 -0.026659317 -0.12026264 -0.009984072
0.060981765 0.06629872 -0.040121704 -0.09235823 -0.07668887 -0.122939005 0.09732431 0.07043436
-0.10028313 0.06963812 -0.034461815 -0.067405574 -0.11944017 -0.10175929 -0.13701248 -0.060756296
0.03503347 0.046190184 0.0069507123 -0.10725514 -0.032850318 -0.0036656018 -0.10078797 0.0489096
0.071545385 -0.03909269 -0.10217489 -0.09215158 -0.08756682 -0.041501284 -0.055370778 -0.049699366
0.08692223 -0.097106 -0.11092152 -0.025755879 -0.008605171 0.04900753 0.058537617 0.0041231913
0.020577662 -0.06792599 -0.05298314 0.003485633 -0.10157487 -0.116952986 -0.006009087 -0.040419117
0.03075764 0.054772142 -0.020978747 -0.016821444 -0.02991605 -0.021394584 0.076873854 0.07436213
-0.047259554 0.105579525 -0.0024283454 -0.010280993 0.09334465 -0.016858034 0.04725332 0.029220808
-0.07331827 0.08565365 -0.028143324 0.054255277 -0.10345569 0.04294665 0.037093848 -0.11429253
-0.07634701 0.04948251 -0.081775814 -0.04515986 0.00034571846 0.09051143 -0.075812474 0.090553686
-0.10580394 0.022164188 0.023542874 0.057582125 0.03552094 -0.12126376 -0.029605515 0.07807614
0.122255296 -0.090039596 0.05835721 -0.080761686 -0.093790844 -0.11894423 0.07098256 0.080206424
0.072971135 -0.07367276 0.04134518 0.050456986 -0.09467788 -0.0097037405 -0.014448177 -0.082705274
-0.101799056 -0.054974094 -0.106849 0.03657174 0.09616646 -0.10505985 -0.04968837 0.011857441
-0.06862418 0.01982338 0.048333377 0.07555224 0.047361657 0.015507635 0.041502744 -0.020922272
-0.12156117 0.09923054 0.10092299 0.05719462 -0.08555922 0.042305216 0.095374346 -0.039918587

fc.2.bias f4 [64]
00000000: 2410 8f3d b0bc 6abd ba9c 9f3d 4418 14bc
00000010: bc57 2f3d 74c3 82bd 3c7a 0f3d e352 0b3e
00000020: fcf0 27bd 10a0 cebd 356b f53d 2315 bdbd
00000030: 4e9b d93d 1366 f6bd e07f 4ebc 3017 8bbd
00000040: 1d83 9c3d 3c2c 803d 82c8 a3bd 9749 62bd
00000050: 494f 47bd 7437 943b 17ed b13d 5f09 783d
00000060: f5a2 e33b ab11 82bd 4e72 87bd 905d b8bd
00000070: 7c81 373d 8c90 b73c 14c9 e8bc 0850 b93a
00000080: 4038 adbc 6601 143e 997e 943d 1c6f 11bd
00000090: ee37 0c3d 5387 3d3d 104c 30bd fad2 29bd
000000a0: acf1 b9bd 1a0d e63d 107d 51bd e66c d83d
000000b0: 1055 d2bd 966a 41bc 7ded 4e3d ca8f bdbd
000000c0: aa3d 5abd ed62 a73d ed89 d7bd a8fb e0bd
000000d0: 4232 fe3b 598d 09bd b8fb 783d 6c46 c4bc
000000e0: 64c9 60bd 382b a73d 7867 2abd b865 0c3d
000000f0: 107c 4a3b 9c0d 913c 6641 933d ac48 113c
0.069855005 -0.057308853 0.07793565 -0.0090389885 0.04280828 -0.06384936 0.03502868 0.13605838
-0.041001305 -0.10089123 0.11983339 -0.09232547 0.10625325 -0.12031188 -0.01260373 -0.06791532
0.076421954 0.06258437 -0.07997228 -0.055245962 -0.048659597 0.004523212 0.086877994 0.060555812
0.006946916 -0.06351026 -0.06613599 -0.09002221 0.04480122 0.022407793 -0.028416194 0.0014138231
-0.021144986 0.14453658 0.07250709 -0.035506353 0.034233026 0.046271633 -0.04304129 -0.04146097
-0.090792984 0.11232968 -0.05114466 0.10567646 -0.10270131 -0.011805197 0.050519455 -0.09255941
-0.053281464 0.081731655 -0.10524354 -0.109854996 0.007757456 -0.033582065 0.060786933 -0.023959361
-0.05487956 0.0816254 -0.04160258 0.034276694 0.00308967 0.017706685 0.07190208 0.008867424

fc.4.weight f4 [8, 64]
00000000: f675 bc3d 1c56 16bc adc5 afbd 8ebf 85bd
00000010: 6cf9 77bc d0d4 cfbd 68d0 093d b14b e4bd
00000020: dc91 03bd 744e adbd e23a f8bd 78f0 efbb
00000030: 4c06 87bd 3b4e 55bd 66fa d9bd f22f 9fbd
00000040: ffe3 8c3d b683 fd3d 72d7 b2bd 2bfa ef3d
00000050: 72ee a23d e64d bb3d 42f2 a9bc a464 fb3d
00000060: 778d d23d 9c87 15bd 5207 c13d a070 0fbd
00000070: 0235 a13d 249d 6dbc d288 8b3d d2c5 b9bd
00000080: 74cb a23c 24aa 013e 1697 e4bb bc5e 833d
00000090: a7b0 cc3d 2eb4 a23d 03a9 5e3d 7de4 c93d
000000a0: 8470 313d 88e6 043d 9a00 aa3d f35f 41bd
000000b0: 9a27 c5bb 924e 14bd 0326 45bd a8b8 0b3d
000000c0: 50f8 e6bd 1f80 3f3d 1c39 75bd 74c8 2c3d
000000d0: ec4d 883d 620f 7fbd b61f 8e3d 2034 883d
000000e0: 21a6 ef3d 0764 d03d ba1b 90bd db1d 3a3d
000000f0: dbd4 043e d2d3 b93d e831 7f3c e434 0bbd
00000100: 42af dc3d 3ece f73d 00a7 dcbd 3066 c73d
00000110: a449 98bd c0b3 ffbd 76ad ae3d 4f87 943d
00000120: 6898 89bd 7868 ddbd 73a4 95bd 017e a1bc
00000130: 38c2 86bc e443 d03d 281b 9ebd 8c3e 97bd
00000140: 637a 1a3d 0f5c 913a 5cf0 eb3d 7bdb 883d
00000150: e668 cabc 34f6 c0bc 0979 c9bd a943 a53d
00000160: 1757 ed3d 2e4d 083e a65e c63d d4f7 943d
00000170: 3f67 2abd 4efc d6bd b8d2 1fbd fc84 a6bd
00000180: c08d 5e3d 73a7 7cbd ecb1 6cbd 9056 373c
00000190: 3a91 8b3d f479 093e d2d8 973d 0d40 6ebc
000001a0: e03b 513d a88f 92bd ce4c 44bd a409 cb3a
000001b0: cca0 2f3c 183a bfbd d417 8ebd 740b 2bbd
000001c0: 1c04 d4bd 3447 fd3d 7495 963c faf7 b6bd
000001d0: 2518 98bd c9af 99bd 7cc8 fe3d c061 b3bd
000001e0: 27c8 6abd f0e9 9c3d f05d b33d 5a46 81bd
000001f0: b4ea 8dbd ac94 7d3d 15fd 76bd 7cf5 27bd
00000200: bdbc 013e 8040 b9bc 6fb4 203b 9c0b bcbb
00000210: e4cb b43c c44e 42bd 2dc1 7ebd 5aa9 3c3d
00000220: f049 3d3b b41e f23d 8757 a23c 8d1a a6bd
00000230: 78b6 5cbd 6a40 3e3d c00f 2a3c 3491 7fbd
00000240: d463 1c3e b387 2c3d 8485 17bd f868 b93d
00000250: 424d 853d d0cb 31bd 776b db3d 7d4a 2fbd
00000260: 8dba f0bc 6e5c 003e 2aff e03d f8dd 80bd
00000270: 9cd3 b5bd 353b a73c f0a7 03bd 8059 6abd
00000280: f42e 45bd cfd2 10bd 7ca3 d63d 84e0 a73d
00000290: 720e 83bd e549 6c3d 0bc6 edbd fda5 86bc
000002a0: 14ef 2a3d 1c5f d33a d355 ec3d 0c18 e63d
000002b0: fc2d 163e d0a1 6ebd 3b6a 043e 732b 1f3d
000002c0: ffed e0bd f921 a33c fc5a c4bd c823 9e3c
000002d0: 03c6 44bd 2822 85bb 75ab fd3d d8f5 b6bd
000002e0: c8fc d0ba b056 76bd 9cad 8cbd 8d43 5d3c
000002f0: beb6 43bd 2678 bc3d d050 a53c eaf4 8cbd
00000300: 54cc 9c3c a4e9 193a 988e 81bc 700e 5abd
00000310: a83a 10bd 105c 37bd 32fb 193e 3c3d db3d
00000320: 10a6 c2bc ac95 d93d c358 da3d 8f77 b13d
00000330: 3e4f b9bc 9b76 3cbd 2a50 903d 5cae a6bc
00000340: 7439 82bd 6040 b9bd d986 773d c2ce 0f3d
00000350: 2c72 283d 9876 76bc 64bd 81bb 5165 d43d
00000360: 06d8 94bd 96ca 843d 34ad b73b 74a5 93bd
00000370: e092 1d3e ca89 a9bc dc1a 60bd 3432 f2bd
00000380: 70ce 6abd 244c cb3d 0185 c6bc 8c73 9b3d
00000390: 226e e5bd eefa eabc 7c6c a4bc 62de b83d
000003a0: 40df 7dbd 44d5 cfbd 19b7 b6bc 0d2d 0c3d
000003b0: 1f7e 52bd 5423 873d 345b bf3d 7c9c 91bd
000003c0: 15cf 003e 6f12 bf3c 6496 af3c d0fa 633d
000003d0: e122 fd3d 5c7c f73d fe4b 833d 7ec0 dd3d
000003e0: aaf8 8bbd b9a7 a33d 6861 253d e299 8ebd
000003f0: 7f76 0c3e 0407 8bbd 9355 5d3d d8cc 91bd
0.09202187 -0.0091758035 -0.085826255 -0.06530677 -0.01513515 -0.10148013 0.033646017 -0.111472495
-0.032121524 -0.08462229 -0.12120606 -0.0073223673 -0.06592998 -0.05207656 -0.10643463 -0.07772817
0.06879424 0.123786375 -0.08732499 0.11717638 0.07955636 0.09145717 -0.0207454 0.12275055
0.102808885 -0.03650628 0.09425224 -0.035019517 0.078714386 -0.014502797 0.06813206 -0.09070934
0.019872405 0.1266256 -0.0069760187 0.064145535 0.09994631 0.07944523 0.0543604 0.09858034
0.043320194 0.032446414 0.08300896 -0.047210645 -0.0060166838 -0.036207743 -0.048131954 0.03411165
-0.112778306 0.046753045 -0.059868917 0.042183354 0.066554874 -0.06227053 0.06939642 0.06650567
0.117016084 0.10175329 -0.070365384 0.04543863 0.12971823 0.09073605 0.015575863 -0.033985987
0.10775615 0.120998845 -0.1077404 0.097362876 -0.07435921 -0.124854565 0.08529179 0.072523706
-0.06718522 -0.108109415 -0.07306757 -0.019713404 -0.016450033 0.10169199 -0.077200234 -0.07384977
0.037714373 0.0011090058 0.11520454 0.066824876 -0.024708223 -0.023554899 -0.09837539 0.08069546
0.11588877 0.13310692 0.096860215 0.07273832 -0.04160237 -0.10497342 -0.039019316 -0.081308335
0.054334402 -0.06168313 -0.057786867 0.011190072 0.06814809 0.13425428 0.07414402 -0.014541638
0.051082492 -0.071563065 -0.04792481 0.0015490544 0.010719489 -0.093372524 -0.069381386 -0.04175897
-0.10352346 0.123670965 0.018381812 -0.089340165 -0.0742648 -0.075042315 0.12440583 -0.08758879
-0.057319786 0.076618075 0.087581515 -0.063122466 -0.06929532 0.061909363 -0.06029995 -0.041005597
0.12669654 -0.022613764 0.002452161 -0.0057386886 0.022069879 -0.047438398 -0.062195946 0.046059944
0.0028883182 0.118222624 0.019817127 -0.08110533 -0.053884953 0.04644815 0.010379732 -0.062394336
0.15272456 0.0421216 -0.036992565 0.09053224 0.065088764 -0.04340726 0.10713857 -0.042795647
-0.02938583 0.12535259 0.10986169 -0.06292337 -0.08878252 0.020413974 -0.03214258 -0.05721426
-0.04814048 -0.035357293 0.10480401 0.0819712 -0.063992396 0.05768766 -0.11610039 -0.016436571
0.04173191 0.0016126367 0.11539807 0.11235055 0.14665979 -0.058259785 0.12931149 0.038859796
-0.10982894 0.01991366 -0.095876664 0.019304171 -0.0480404 -0.0040629096 0.123862185 -0.0893361
-0.0015944475 -0.060141265 -0.06869051 0.013504875 -0.0477817 0.09202604 0.020180136 -0.06882651
0.0191404 0.0005871302 -0.015815064 -0.053236425 -0.03521219 -0.044765532 0.1503723 0.10705039
-0.023760825 0.10624251 0.10661461 0.08665382 -0.022620793 -0.04601155 0.0704654 -0.020346813
-0.063586146 -0.09045482 0.060431335 0.03510929 0.041124508 -0.015042923 -0.0039593447 0.10370887
-0.07267766 0.06483953 0.005605364 -0.07209292 0.1538806 -0.020695586 -0.054713115 -0.11825982
-0.05732578 0.09926632 -0.024233343 0.07590398 -0.11202647 -0.028684106 -0.02007126 0.09026791
-0.061980486 -0.10148099 -0.022304105 0.03422265 -0.05138981 0.06598535 0.093435675 -0.07109925
0.12578996 0.02332422 0.021434017 0.055659115 0.12360168 0.120842665 0.06410979 0.108277306
-0.06834538 0.07990975 0.040376097 -0.069629446 0.13717078 -0.067884475 0.054036688 -0.07119149

fc.4.bias f4 [8]
00000000: cab9 843a bcf9 0f3e 66f3 21bd 92fa 15bd
00000010: c349 033e 9aca 09bd 1592 80bd cc94 52bd
0.001012617 0.1406011 -0.039538763 -0.036615916 0.12821107 -0.03364048 -0.06277863 -0.051411435
