policy_net_10000.pth (torch, 23202 bytes, 6 tensors)

fc.0.weight f4 [64, 6]
00000000: 7916 033e fc30 87bb c61c bdbd 5189 213e
00000010: 3494 d6be 298d efbe e512 09bd c9c8 ebbd
00000020: d70d 7e3d 0fa8 c23f b512 803b 98bf f4bb
00000030: 0107 0fbe d0c1 3e3d 5691 d8bd b7e3 2b3e
00000040: be9b cbbe a8c1 97be 125b bf3d 4df0 77be
00000050: 8206 3bbd fadf 393e 1d73 243c d571 99bd
00000060: a94d 80bd 079c 793e 7178 79bc de7a fdbd
00000070: 8e47 32be 77a5 283e 0ad2 2dbf dc2a 16bd
00000080: 5508 3c3f 0a6f 923d 0c9f adba 4194 a6bc
00000090: 9026 393e 0363 f23e cc9b d8be 5a69 fc3d
000000a0: 5fcd ae3d 4bbc 843d 3df3 3e3e fef8 893e
000000b0: 33a5 dcbe 4759 2f3f cd4d cbbc fce0 0c3e
000000c0: 4e9c bfbd 3687 22be 1c89 c43d 85e3 113d
000000d0: dd3d 3ebe abef 593e 1e4f 833b b070 1e3e
000000e0: 0a56 59bb 3e55 1abd 0a13 07be 9768 073e
000000f0: b53e 43be 13ed 2b3e 17ce ecbe 233a c4bd
00000100: 4d81 f2bd acde 673e 3424 19bd 3a1b b53e
00000110: 2459 243f 591d b33d dc77 53bc 9880 003d
00000120: 35a4 873e be98 553e 5aec 83bc 110f 7e3f
00000130: b2e9 db3d 2322 92be 732d d1be 50b9 d1bd
00000140: 3610 f8be 9fc7 85bc b289 40be ddf9 e13d
00000150: d4ef ebbd c109 b73e d59e 9ebd 1632 2a3f
00000160: aeb4 edbe b11f 6a3e 80a2 ae3e 71b2 8d3f
00000170: 621c 84be 6957 98be a6ad d0bc f543 073e
00000180: 95d6 a3ba 26bf 093f 32e8 5dbe 73c2 893e
00000190: 9dd3 b3be 7f91 103f 384e 813e be58 263e
000001a0: 5ebe adbd 3f17 81be 8b92 bbbe 01c4 00bf
000001b0: 86d7 0cbe 0109 d23d daac 8dbe 68c3 4abf
000001c0: 08d9 e53d 4984 dcbe 175f 8c3d baa3 68bd
000001d0: 5d00 47bd ca2a 20bf babf 123e 604f 81be
000001e0: 5710 363e af0f 1ebf f225 c53e 01a9 1b3f
000001f0: 01dc 75ba 6b58 81bb 92a3 a4bc 10dc 0abf
00000200: 3912 50bd d85a 603e f4ef b7be be6f 02bf
00000210: 7c6e b7bc 7d1a c8bb d91c b7be 4dcb 1f3e
00000220: b07b 0dbf a4bb f4be 3ca0 ae3d 6084 9c3e
00000230: b65f 4abd 9c58 94be ee97 b73e b60b 78bd
00000240: 2996 d1bd 290b a33e 3fc4 ca3d cf16 813e
00000250: 89e4 24bb 7495 4fbc 0337 6e3c 8d3c 1e3f
00000260: 6d15 78be 28cb 35bd dd1c 07be 9e92 2bbd
00000270: 6014 93bd 0666 05bd 8e5d 0fbd d7a5 493d
00000280: 15bd 573c 23a7 a93d 7af5 55be 3b7c 2a3e
00000290: e326 16be bb9b bdbb 1223 333e 6f6d 973d
000002a0: c69c 123f 8bfd ac3c bc6b 9ebe 585d 133e
000002b0: caf1 933e bcac 083e 9cd8 323e c22a d1bd
000002c0: 53fa bdbd 9b9d 1f3e 32bc c9be feeb ffbe
000002d0: 5dc8 19bf 6acd cc3e decc 223f 2dcc cbbe
000002e0: 3a72 633b 22c4 883b f295 d4bd ea5d 6e3b
000002f0: e7f3 74be 29d7 12be bcb0 debd 1174 383e
00000300: 46f3 96be 68ac 24bf fc4f d33e f8ad b73e
00000310: 374c dc3c 4c55 f13d f58f cc3e 8568 423d
00000320: f6a8 96be df90 77be 5c89 f33b a6c0 f93d
00000330: 89d7 13bf 0248 afbe d82f 413e 4b76 14bd
00000340: c66f 393d 55ed 5dbc bcc2 68be 5705 b83d
00000350: 728b f5bd 0f96 dcbd 9812 64be e6f0 6abe
00000360: aea3 51bc 49f8 7fbe e048 5fba 3d02 7e3f
00000370: 9290 1d3d 4af2 04bd bc32 b93e c49c 00bf
00000380: 26c0 ae3e 8a52 00be 9ecd 21be a7be 193e
00000390: 4250 af3e a756 6e3e d8bb d53e 238d 203d
000003a0: 2984 a7bd 80a1 d93c d1ce 73bd a001 453e
000003b0: e678 453b 25e3 15be cd06 02be 6eaf 243e
000003c0: 17e7 3bbe 3b16 7abe 17d4 35be 808a af3d
000003d0: 0fac 563e 7efe bfbb b8d3 88bd 1c08 22be
000003e0: 1430 23be ae27 f3bd f5a2 923d 3205 42bd
000003f0: 54fe c1bd 39e3 a73e 048e d83e 0493 39bf
0.12801541 -0.0041257124 -0.09234004 0.15775038 -0.41909945 -0.46787384 -0.033465285 -0.11512906
0.062024917 1.5207537 0.00390848 -0.007469129 -0.13967516 0.046571553 -0.10574596 0.16786085
-0.3976726 -0.29639935 0.09343542 -0.24212761 -0.045660503 0.18151847 0.010037211 -0.07492415
-0.062648125 0.24375926 -0.015226469 -0.12376951 -0.17410108 0.1646937 -0.6789862 -0.036661968
0.73450214 0.07150085 -0.0013246252 -0.020334365 0.18081117 0.47341165 -0.42306364 0.12324782
0.08535265 0.064812265 0.18647476 0.26947778 -0.43094787 0.684956 -0.024817372 0.137577
-0.09355985 -0.15871891 0.09596464 0.03561737 -0.18578286 0.21282832 0.0040072342 0.15472674
-0.0033162856 -0.03767895 -0.13190857 0.13223492 -0.1906689 0.16789655 -0.46250984 -0.09581401
-0.118410684 0.22643536 -0.03738804 0.35372335 0.6419852 0.08745832 -0.012906995 0.031372637
0.26492468 0.20859048 -0.016103912 0.9924174 0.10737933 -0.2854167 -0.40854988 -0.10240424
-0.48449868 -0.016330538 -0.18802527 0.11033986 -0.11520353 0.3574963 -0.077451386 0.66482675
-0.4642691 0.22863652 0.34108353 1.1070081 -0.25802904 -0.2975419 -0.025473427 0.13209517
-0.0012499864 0.53807294 -0.21670607 0.26906165 -0.35122386 0.5647201 0.2525499 0.1624479
-0.08483575 -0.25213048 -0.3663524 -0.5029908 -0.1375409 0.102556236 -0.27670938 -0.79204416
0.11223036 -0.43069676 0.068540744 -0.056796767 -0.04858433 -0.6256529 0.1433095 -0.2525587
0.1777967 -0.6174268 0.38505512 0.60804754 -0.00093787914 -0.003947308 -0.020097528 -0.5424204
-0.05079863 0.21909654 -0.35925257 -0.50951755 -0.02239155 -0.0061066733 -0.35764197 0.15604897
-0.5526686 -0.47799408 0.08526656 0.30569744 -0.049407683 -0.28973854 0.358581 -0.060558043
-0.10233719 0.31844452 0.09900712 0.25212714 -0.0025160632 -0.01266991 0.014539483 0.61811143
-0.24226923 -0.044383198 -0.13194604 -0.041887872 -0.071816206 -0.032568 -0.03500133 0.049230423
0.013167639 0.08283832 -0.20894423 0.16648953 -0.14663272 -0.005786387 0.17493847 0.0739392
0.5727047 0.021116992 -0.3094157 0.14391077 0.28895408 0.13347143 0.17465442 -0.102132335
-0.09276261 0.15587465 -0.39401394 -0.49984735 -0.60071355 0.40000468 0.6359385 -0.3980421
0.0034705536 0.0041737715 -0.10380162 0.0036371895 -0.23921166 -0.1433989 -0.10873553 0.18013026
-0.29482478 -0.6432557 0.4127196 0.35874915 0.02689181 0.11783847 0.3995358 0.04746296
-0.29425782 -0.24176358 0.007432146 0.12194948 -0.57750756 -0.34234625 0.18865907 -0.036245625
0.04527261 -0.013545354 -0.22730535 0.089853935 -0.11989488 -0.10770809 -0.22272718 -0.22943458
-0.012795372 -0.24997057 -0.0008517634 0.99222165 0.03846795 -0.032457627 0.3617152 -0.50239205
0.34130973 -0.12531486 -0.15801093 0.15014134 0.3424092 0.23275243 0.41744876 0.0391971
-0.081795044 0.026566267 -0.059523407 0.19238901 0.0030131876 -0.1463743 -0.12697907 0.16082546
-0.18349873 -0.24422543 -0.17756687 0.08571339 0.20964073 -0.0058591953 -0.06681007 -0.15823406
-0.15936309 -0.11872803 0.07159988 -0.047368236 -0.09472337 0.32790545 0.4229585 -0.72489953

fc.0.bias f4 [64]
00000000: b6f2 dbbd e1db dcbe 460e cb3e 2411 7bbe
00000010: c054 69be 1c14 af3b 5d38 e23e 4a7e ad3d
00000020: 8398 72be 61a5 99bd 7088 aabc 43d4 95be
00000030: a293 8b3d 8a51 db3d b3bf a73e 456b 1c3e
00000040: 41f5 5b3d dd89 7abc c2ff c73d 975c 1cbd
00000050: 9425 11be 8c1d 383e 221f 4fbc 3b6f fe3e
00000060: 936d 163f d9ad b73e e92d 89bd 8187 02be
00000070: bca3 e33d 45b9 653d e2b5 efbb 6f40 c2bd
00000080: 14e8 96bd ec3f d73e a175 993e f074 b5bd
00000090: 1ed5 443e ea8d 7bbe 76f6 83be db61 5bbe
000000a0: 8f2e 39be 5833 67be 5060 98bd 6295 e6bc
000000b0: 49af 3f3e 137f 9b3e 2eee 9c3e d5dc 3bbe
000000c0: ff17 10bf c2af ba3c 07a0 37be 55b5 bbbd
000000d0: f1ec 0dbe 9036 ed3e 4475 e8bd 1738 853e
000000e0: 8e82 98be d7ce 533e c493 45be 97b7 68be
000000f0: 07f5 ecbd f89a 54be a7b2 3c3b b9f0 12be
-0.10739653 -0.43136504 0.39659327 -0.24518257 -0.22786236 0.0053429734 0.44183627 0.08471353
-0.23690991 -0.07502247 -0.020817012 -0.29263505 0.06815268 0.10708912 0.32763442 0.15275295
0.05370069 -0.015291658 0.09765579 -0.038174238 -0.14174491 0.17980021 -0.0126417 0.49694237
0.58760947 0.35874823 -0.0669821 -0.12747003 0.11115214 0.05608489 -0.0073153833 -0.09484946
-0.07368484 0.42040956 0.29972556 -0.08860195 0.19221923 -0.24565855 -0.25773972 -0.21424048
-0.18084167 -0.2257818 -0.07440245 -0.028147403 0.1871921 0.30370387 0.30650467 -0.1834596
-0.56286615 0.022788886 -0.1793214 -0.09165446 -0.13859917 0.4633069 -0.11350492 0.26019356
-0.29787105 0.20684372 -0.1929465 -0.22726284 -0.11570173 -0.20762241 0.0028793009 -0.14349641

fc.2.weight f4 [64, 64]
00000000: eacc a83e 7ac1 a6c0 42b9 213f 9d11 43bd
00000010: f0c3 823d 74d2 a3bf 93c1 d33e ac1f d63e
00000020: 89bb ebbc d02a b5bd 51c7 d93e 37c8 62bf
00000030: 9f7f 013e fdb9 b03d 5ed4 2c3f 42af ac3e
00000040: 765a 093f a619 313e 89d3 923c 781f c33e
00000050: f8d5 5bbf a024 d73e 9816 333f cb8c 0e3f
00000060: 5140 e63e 084e ea3e f889 903d 2d54 143d
00000070: fba8 083e 854d da3e 459e 5ac0 1fd2 49bd
00000080: 565e e63c f32b 603e 3eaf e53e 480c 6abc
00000090: 1231 32be d9eb dfbe e3a0 b4be 8e6f f9bc
000000a0: 06f2 99bd 2401 923d 4f28 0bbe 0d53 ec3d
000000b0: bef8 c8be 7990 24be ffcd c33d ec1e 98bd
000000c0: 6bd6 cbbf 2937 d63d 5513 bcbd 328d 98bd
000000d0: 8aff 3fbd 7f48 d43e 3d81 c7bc 101d fc3e
000000e0: a909 59bf 197d c8be 7f42 583d 159c 93bd
000000f0: 66e1 03bf 336b 0c3d d46b 67c0 d9f7 26be
00000100: 4692 aabe 87a1 fb3f 86bf dd3d fdf0 02bd
00000110: e9d6 79bd 6bf0 0e40 6e6f a4be 34b6 d2be
00000120: 5e4f 443d e7b6 693d 4193 fabd 7ea8 0e3f
00000130: d1e5 da3d 6999 503d d0fa 1f3d 6da1 a8bd
00000140: fc28 02bf c409 8cbe f0a8 bfbe 466e 5bbf
00000150: eee6 0e3f 47ff 12bf de12 7ebe b3eb 6d3d
00000160: 61eb 433e edf5 6cbd 1a32 e03c 2388 99bd
00000170: fcf2 a8bd b9e1 03bf 50aa 1e40 465d e13c
00000180: f681 99be b2b2 4dbd 9e83 16bf d6d1 be3c
00000190: 5e33 9dbe 8983 9f3e 4f4c 233f f4a4 d83c
000001a0: 9635 463d f872 20bd cb03 433e 9dbb 84bf
000001b0: 3f9e 0ec0 ff87 913e 0c70 d8be a0b5 573d
000001c0: ee0a b53f 0e47 0f3f 9145 b3be 9c96 f93c
000001d0: 15b2 223d dd36 3f3e eb13 083d 6244 c3be
000001e0: b78c e23e 3d9e a9be 03fb 88ba 4af6 4339
000001f0: 4c7f 0abe 7dd7 21bc 99e3 bfbf e3f9 623e
00000200: f0d4 2b3d 2a38 a0bd d84f 133d 5bda 3dbd
00000210: 30f7 883d e808 34bd 1db5 44bd bb65 cb3c
00000220: c27b e4ba 0f63 51bc 18c9 f53c 2ebc b3bb
00000230: 8909 afbd 60ce 77bd a8ba 3fbd c4e2 103d
00000240: 7cd5 02bd e0da 133c c2af 99bd fa1e 9ebd
00000250: 33c5 6abd 68b4 543d a77e b53b 572d 0bbc
00000260: c681 abbd e45b c83c c861 7f3d d583 953d
00000270: d481 51bd 5dab 77bd c812 f53d de43 71bd
00000280: 7a99 8c3d cd57 1abc d8b1 c8bd f101 943d
00000290: 1a81 4ebc aa20 55bd 6753 1d3d d2c9 36bb
000002a0: 1dbc 83bd ef16 59bd 391f c7bd 4a74 183d
000002b0: 24e9 993c e8ab 8ebd 59a5 9ebd 282a ffbc
000002c0: 4e2f 6cbd 3d7c aebd b2aa 443d 17d3 843d
000002d0: b23c 463d c977 163c f18b 87bd 4e6d a6bd
000002e0: 6559 07bc 6551 f43c 6b65 04bd b464 7fbd
000002f0: 4ea9 153d b2b1 693d 6651 d03c 1b47 e0bc
00000300: 1727 903e e141 94c0 1b01 1e3e 2f3a 003d
00000310: 03e2 923d 2a2f 2b3e 8fa7 693e c8e0 943e
00000320: c3b8 7a3d 42b6 5ebc 1645 bebd e748 4bbe
00000330: 4a64 1d3e 88d3 053e 7ba2 313f a479 acbe
00000340: cee7 2e3f 3ebd 10bf f641 9abf 8d23 e3bf
00000350: 5362 9cbe 201a 4a3d abad d53e 7ce5 1fbe
00000360: 2b6f ad3e 4371 153e 579c fabc e509 97bd
00000370: 73bb 59be bf9f e83d 0926 09c0 e09a 4bbd
00000380: f1ef 0a3f b257 00be 9918 183f b656 26bd
00000390: d5ce eb3e 1b28 1dbf 391d 54bd b247 7d3d
000003a0: f7b6 0ebd fe00 7abd fec2 0ac0 1df1 333e
000003b0: e33d b8bf 8b50 9c3e ec5b 7dbf c8c6 e8bc
000003c0: 0440 53be 84c8 4dbf ee87 12bc 2b74 6fbd
000003d0: c7f0 37bd 5303 7b3e 5e36 1dbd 5c47 083f
000003e0: 46d4 0dc0 edae bd3b 5cda 6cbc b481 683d
000003f0: 1f75 da3d 1d17 b7bc 42f1 d6c0 2d49 e63d
0.32968837 -5.2111177 0.63173306 -0.04762422 0.06385028 -1.27986 0.41358623 0.4182104
-0.028775947 -0.088460565 0.4253488 -0.88586754 0.1264634 0.086292244 0.67511547 0.3372746
0.5365366 0.1729494 0.017923133 0.38109946 -0.85873365 0.4202013 0.6995635 0.55683583
0.44970945 0.45762658 0.070575655 0.03621309 0.13345711 0.42637268 -3.41591 -0.049272653
0.028121155 0.21891765 0.44860262 -0.014285155 -0.17401531 -0.43734625 -0.35278997 -0.030448701
-0.075168654 0.07129124 -0.13589595 0.11539278 -0.39252275 -0.16070737 0.09560775 -0.07427773
-1.592481 0.1045974 -0.09183375 -0.07448806 -0.04687456 0.4146156 -0.024353618 0.49240923
-0.84780365 -0.39157942 0.05279779 -0.07207505 -0.51515806 0.03428192 -3.6159563 -0.16305484
-0.33314723 1.9658669 0.10827546 -0.031968106 -0.06099597 2.233424 -0.32116264 -0.41154635
0.047927253 0.057059195 -0.12235118 0.5572585 0.10688365 0.050927553 0.039057553 -0.082339145
-0.5084379 -0.273512 -0.37433577 -0.8571514 0.5582112 -0.5742077 -0.24811885 0.05808611
0.19132759 -0.05785172 0.02736764 -0.07496669 -0.082494706 -0.515163 2.479145 0.027510297
-0.29981965 -0.050219245 -0.5879458 0.023293417 -0.30703253 0.3115504 0.6378831 0.026445843
0.048390947 -0.039172143 0.19044416 -1.0369755 -2.2284086 0.2842407 -0.42272985 0.052663445
1.414396 0.55967796 -0.35014012 0.030467324 0.039720614 0.18673272 0.03322212 -0.3813811
0.44247982 -0.3312854 -0.0010450784 0.00018688399 -0.13525122 -0.009878037 -1.4991332 0.22165637
0.04195112 -0.078232124 0.035964817 -0.046350818 0.06687772 -0.043953806 -0.048024286 0.024828782
-0.0017431902 -0.012779965 0.030003116 -0.0054850793 -0.085467406 -0.06049955 -0.04680887 0.03537251
-0.031941876 0.009024352 -0.07504226 -0.07720752 -0.05731697 0.05192986 0.00553878 -0.008494697
-0.08374362 0.02445788 0.06234911 0.073005356 -0.051149204 -0.06046616 0.11966473 -0.058902614
0.06865211 -0.009420347 -0.09799546 0.07226933 -0.012604022 -0.052033104 0.038409617 -0.002789129
-0.06432364 -0.053000387 -0.09722752 0.037220277 0.018787928 -0.06966382 -0.07746381 -0.031148031
-0.0576623 -0.0851979 0.04801435 0.06485575 0.048397727 0.009183832 -0.066184886 -0.08126317
-0.008261059 0.029823968 -0.032323282 -0.062351897 0.036538415 0.05705423 0.025429439 -0.027377656
0.28154823 -4.633042 0.15430109 0.03130549 0.071720146 0.1671721 0.22817825 0.29077744
0.06121136 -0.013593258 -0.09290521 -0.19852029 0.15370288 0.13068974 0.6938855 -0.33686554
0.68322456 -0.5653876 -1.205138 -1.7745224 -0.30543765 0.04934132 0.4173406 -0.15614885
0.33873877 0.14593987 -0.030592127 -0.07374934 -0.21262912 0.11358594 -2.1429465 -0.049708247
0.5427237 -0.12533453 0.59412533 -0.040610038 0.46056238 -0.6138932 -0.05178568 0.061835952
-0.034842458 -0.061036102 -2.1681514 0.17572446 -1.4393886 0.305302 -0.98968387 -0.028415099
-0.20629889 -0.8038409 -0.008943541 -0.058460396 -0.044907358 0.24512987 -0.038381927 0.53233886
-2.2160811 0.005788675 -0.014456358 0.05676432 0.1066687 -0.022349888 -6.7169504 0.11244426

fc.2.bias f4 [64]
00000000: bbed f03e bfa6 443d b591 e4bb 9011 443e
00000010: b93d 1ebd 7ddb d13e e6e4 b1bc 670f db3e
00000020: 2cee f73e bca3 a1bd afee f53e 335b 96bd
00000030: 3457 38bc 3fc1 8abc 5444 99bd ef1d f63e
00000040: dd1b 073f e247 0d3f 45bf 7abd 5ce0 86bd
00000050: a86d 85bd 3a3b 20bd 47bc f93e 4b52 2e3b
00000060: 187e 133e 6905 b83e a4ef 07bd bdc7 a33e
00000070: 10ad b6bb e6c4 aabd 324e 73bd fe97 dc3c
00000080: 4869 cdbb 902d f13e e08b 12bd b732 64bd
00000090: 4fea 48bc 00f1 813c 986f 99bd 0aa1 ddbc
000000a0: 873a 18bd dcdb ad3e bec9 643e d816 22bd
000000b0: b0ff 12bc 20d1 7c3e f2b7 e23e 21fe d7bd
000000c0: 4fb5 9fbd 2c55 edbd 437b af3e 549b 9b3e
000000d0: a119 b5bd 2711 753e eb1d b2bd b47e 96ba
000000e0: aac4 9fbc 97ba 11bd 77b0 b2bd 4217 afbb
000000f0: 54fc 16be d27c 8cbd 0af0 ea3e f83b 48bd
0.47056374 0.048010584 -0.0069753774 0.19147325 -0.038633082 0.4098777 -0.021715593 0.4278519
0.48423898 -0.07892558 0.48033664 -0.073416136 -0.01125126 -0.01693785 -0.07483736 0.48069713
0.5277689 0.5518781 -0.061217565 -0.06585762 -0.06515056 -0.039118983 0.48776457 0.0026599343
0.1440357 0.35941628 -0.033187523 0.31988326 -0.00557483 -0.08338337 -0.059400745 0.026927944
-0.006268654 0.47105074 -0.035777926 -0.055712428 -0.012262895 0.015861988 -0.07491988 -0.027054328
-0.03716519 0.33956802 0.22342584 -0.039572567 -0.008972093 0.2468915 0.44280964 -0.10546518
-0.07798254 -0.11588511 0.3427373 0.30391943 -0.08842779 0.23932324 -0.08697113 -0.0011481852
-0.019502956 -0.035578337 -0.08725064 -0.0053433487 -0.14744693 -0.06859745 0.4588626 -0.048885316

fc.4.weight f4 [8, 64]
00000000: 6f3b 663f f356 6fbf 1e51 25bd fdfe 3d3f
00000010: 844a 983d 78de c23f 5baf 363c 3d8b 453f
00000020: c67f ac3f cc75 f43c 8273 f83e 9ae9 1c3d
00000030: c856 4bbd abaf 913d dc9d cdbc 4da0 043f
00000040: 985f e33e b8ff f83e f160 29bd 523c 363d
00000050: 23fa 22bd 33fd 40bb b9de 413f ffbe b4bc
00000060: 2ee5 133f 420a 723f d40a c3bc fc13 953f
00000070: 1301 8e3c dc49 8f3d 913e 37bc 5075 39bd
00000080: dea3 05bd 0a44 6f3f 0ca3 b23c a347 a9bd
00000090: 92c6 c4bc c29a 273d e8e4 c23d 6128 7fbd
000000a0: 73d5 ec3c 0c41 6b3f 7f60 c03f dcf3 ca3c
000000b0: 9f19 8ebf 822d 933f e687 b23f 51db 28bd
000000c0: b45f 063c 6419 54bd e75f a13e c7ff 193f
000000d0: c8fc 81bd 9ec4 a73f 9c01 0fbd e0f1 99ba
000000e0: 4789 173d 52a5 ce3c 5151 bd3c b256 1bbc
000000f0: 2bf6 e3bf c7a8 9d3c 9c67 173f 62ce d13c
00000100: 25b8 593f c474 94bf 0678 be3c afe6 903f
00000110: 063e 8839 b682 913f 5d96 b9bc 9596 493f
00000120: d8c3 993f 3709 403d d7c2 1c3f 8a79 6d3d
00000130: cdc6 373d 0dc3 373d d620 8e3d fee8 e43e
00000140: 38f2 eb3e 780f fe3e f9c6 87bc 94ad 7a3c
00000150: 71b8 493c 4bac 3abd 2f9d 453f fa44 30bd
00000160: 0012 ac3f 18b8 813f 7496 9a3d 2194 8e3f
00000170: a477 c73c 56d7 423d 192a 513d b600 1b3d
00000180: 14a2 963c f7f9 8c3f bd41 8e3d e033 463d
00000190: bf23 0f3d 4efe b93e 33bc 433d e7e9 883c
000001a0: 2005 55bc 75d5 8f3f 9e52 d03f 830b d2bc
000001b0: 6f69 09c0 d5bd 713f 3082 9b3f 11b8 44bd
000001c0: aa69 7fbc 6e6c 2f3c ec75 5a3f e1cb 303f
000001d0: 488e f13c fc52 c23f e0f6 8bbd e56a 693d
000001e0: c29c 433b 98d2 973c 077b 543d 375e 1cbd
000001f0: 282b cfbf 895d 60bd 2d97 143f 09f7 ad3c
00000200: ef5a 693f 6ca7 89bf 3b94 1c3d 1a5a 7c3f
00000210: 5d08 6abd 6a56 9d3f b88c 12bc 0a2a 753f
00000220: b0e3 883f 44f8 b9bc 7f68 013f a2aa 9039
00000230: 2296 193b d1ed 263d 1413 843d 5737 033f
00000240: b6b7 073f 8c5c fe3e f58d 743d 829e e7bc
00000250: 0b74 a6bc 38b3 053d 30f9 403f 0934 993c
00000260: b9f0 5dbd 8e81 853f 68ac ffbb 9510 f93e
00000270: c4a6 61bc 9ede b23c ca9a 92bd bad2 0abd
00000280: 20c7 02bd a5df 9e3f 2b9c 36bd 1439 133d
00000290: 1387 40bd f631 a7be 8fc1 5b3c b48b 86bc
000002a0: 685c 083b 30b0 8e3f caca a33f 8796 8f3c
000002b0: c1ad 573e 4c37 7e3f 3a63 b53f f655 873d
000002c0: ade1 e8ba 5a6d b2bc a80a 833f f925 9b3f
000002d0: c76d a73a 8430 593f bc59 803d 0abc 073c
000002e0: 095b 9f3d edba 6a3d 2bbc 95bc 0f47 32bc
000002f0: b0e9 71c0 51a9 67bc c074 c43e d0b3 0d3d
00000300: afdf 603f 298d 52bf e729 10bd 4930 043f
00000310: f030 52bd 830f 9e3f 843c 4bbd a795 573f
00000320: 05d2 973f eb7b e93c 850c cb3e d487 f4bc
00000330: 610f c4bb f3eb 5bbc b2e3 8f3d a576 f03e
00000340: 3201 ce3e 7005 c83e 269c 7fbb 63e2 383c
00000350: d357 6c3c 14f1 9abc 7c97 5e3f b609 82bc
00000360: 2ae1 a53d 075d 793f 6c6e 1a3d 890a abbd
00000370: 4629 5d3c ce12 27bc 9de6 42bd 900c 01bc
00000380: 8aa2 68bd d88a 9b3f 88de fcbc 790d 53bc
00000390: 40b5 963d 0e96 bebe fb8c 70bd cf48 4abd
000003a0: 7a32 c6bb b690 9a3f b81f cd3f 4883 833b
000003b0: f681 f1be fcf7 9f3f 6183 ce3f a99c fbbc
000003c0: 83ff 023d d30d 98bd f1d2 433f 4543 d83f
000003d0: 062e d73c 9ec7 403f 821a 1f3d 0f79 6f3c
000003e0: 7ef5 6abd d081 55bd 0399 a1ba 7189 33bd
000003f0: bffc 92bf 106a 353d e2fd e33e aaf1 01bd
0.8993444 -0.9349205 -0.040360563 0.74217206 0.07436088 1.5224142 0.011150206 0.77165586
1.3476493 0.029841326 0.48525625 0.038308717 -0.049643308 0.07113584 -0.025099687 0.518071
0.4440887 0.48632598 -0.041352216 0.04449112 -0.03978933 -0.0029447793 0.7573047 -0.02206373
0.57771575 0.945469 -0.023808874 1.1646724 0.017334497 0.069965094 -0.011184351 -0.045277894
-0.03262698 0.93463194 0.021806262 -0.08265617 -0.024020467 0.040919073 0.09516317 -0.062294368
0.028910374 0.9189613 1.5029448 0.024774484 -1.1101569 1.1498263 1.3947723 -0.04122478
0.008201528 -0.051782027 0.3151848 0.6015591 -0.06347042 1.3106878 -0.034913644 -0.0011745058
0.036996152 0.025225315 0.023110064 -0.009481119 -1.78095 0.019245518 0.5914247 0.025611106
0.8504661 -1.1598134 0.023250591 1.1320399 0.00025986152 1.1368015 -0.022654707 0.78745395
1.2012892 0.046883788 0.612348 0.057977237 0.044867326 0.04486375 0.06939857 0.4470901
0.46083236 0.49621177 -0.01657437 0.015300173 0.012312041 -0.045574468 0.7719297 -0.04303453
1.3442993 1.0134306 0.07548228 1.1138955 0.024349041 0.04756864 0.051065538 0.037842475
0.018387832 1.1013783 0.06946132 0.048389316 0.0349462 0.36326832 0.047786903 0.016713096
-0.01300171 1.1237017 1.6275213 -0.025640255 -2.1470602 0.94430286 1.2149105 -0.048027102
-0.015589157 0.010707004 0.85336185 0.69061095 0.02948679 1.5181575 -0.06834197 0.05698671
0.0029848074 0.018533036 0.05187514 -0.038175788 -1.6185045 -0.054776702 0.58043176 0.02123596
0.9115438 -1.0754218 0.0382273 0.98574984 -0.057136882 1.2291996 -0.008944683 0.9576727
1.0694485 -0.02270139 0.50550073 0.00027592952 0.0023435433 0.040754143 0.06448951 0.51256317
0.53014696 0.49679983 0.059705693 -0.028273825 -0.020319005 0.03264162 0.7538023 0.01870157
-0.05418465 1.0430162 -0.007802535 0.48645464 -0.01377267 0.021834668 -0.0715843 -0.03389237
-0.03192818 1.2412001 -0.044582527 0.035943106 -0.047003817 -0.32655305 0.013412847 -0.016424038
0.0020807032 1.1147518 1.2796261 0.017527832 0.21062376 0.99303126 1.4170907 0.066081926
-0.0017767452 -0.021780659 1.0237627 1.2120963 0.0012773805 0.84839654 0.062671155 0.008284578
0.077810355 0.057307173 -0.018278202 -0.0108811995 -3.7798882 -0.014139489 0.38370323 0.03459531
0.87841314 -0.82246643 -0.03519621 0.5163618 -0.0513162 1.2348484 -0.04961826 0.84212726
1.1860968 0.028501472 0.3965799 -0.029849924 -0.0059832786 -0.013422954 0.07025851 0.4696552
0.40235287 0.39066648 -0.0039002984 0.011284444 0.014425236 -0.018913783 0.86949897 -0.015873771
0.08099587 0.97407573 0.037702963 -0.08351619 0.01349861 -0.0101973545 -0.04758321 -0.00787653
-0.056795634 1.2151747 -0.03086783 -0.01288163 0.073587894 -0.37223858 -0.0587282 -0.049385842
-0.0060484977 1.2075412 1.6025305 0.0040134527 -0.47169465 1.2497554 1.6133844 -0.03071435
0.031981956 -0.07424512 0.76493746 1.6895529 0.026267063 0.7530459 0.03884364 0.014616265
-0.057363026 -0.052125752 -0.0012328926 -0.043832246 -1.1483382 0.044290602 0.44529635 -0.03172461

fc.4.bias f4 [8]
00000000: 47bb 583e 22ab 8a3e 6d3e d03e 0808 9e3e
00000010: 1e6f 473e b005 cc3e 8935 6b3e 2af1 753e
0.2116519 0.2708369 0.40672627 0.30865502 0.19475982 0.3984809 0.22969641 0.24017778
