policy_net_5000.pth (torch, 23192 bytes, 6 tensors)

fc.0.weight f4 [64, 6]
0	0x3e21edaf	0.15813325
1	0x3e75adc2	0.23992065
2	0xbda7bdc7	-0.08190494
3	0x3e4c6f9c	0.1996445
4	0x3e6650da	0.2249178
5	0x3e4ecd71	0.20195557
6	0x3e2a6f5b	0.16644041
7	0x3dd5a02a	0.104309395
8	0xbe920f84	-0.28527462
9	0x3e9273b1	0.2860389
10	0x3e572f7d	0.21014209
11	0x3ebb6705	0.36602035
12	0xbdf68b8c	-0.12038335
13	0xbdf11413	-0.11771407
14	0xbe1075a4	-0.14107376
15	0xbefced1a	-0.49399644
16	0x3c2ad80f	0.010427489
17	0xbc065585	-0.0081991
18	0xbdf50f8b	-0.11965855
19	0x3d3ba08d	0.04580741
20	0x3d73f44f	0.059559163
21	0xbb498cbd	-0.0030754053
22	0x3dc57880	0.09642124
23	0x3e0107f9	0.12600698
24	0x3e04b783	0.12960629
25	0x3eab28a9	0.3342946
26	0xbe9e27f5	-0.3088986
27	0xbe99766e	-0.29973167
28	0xbeca410a	-0.39502746
29	0x3ecb939a	0.3976105
30	0x3e3d19cb	0.1846687
31	0x3e966e37	0.29380962
32	0xbe9474d1	-0.28995374
33	0xbe4d565e	-0.20052478
34	0xbd923fd0	-0.071410775
35	0xbd9699e9	-0.07353575
36	0x3d90a92a	0.070635155
37	0x3e19d442	0.15022376
38	0x3ddfac0c	0.10921487
39	0x3ef4d80a	0.47821075
40	0x3e3d388a	0.18478599
41	0xbebe088a	-0.3711589
42	0xbe300355	-0.17188771
43	0x3dd0b647	0.10191017
44	0x3eaca8fc	0.33722675
45	0x3f4297ab	0.76012677
46	0xbacf25f4	-0.0015804158
47	0xbd36a498	-0.044590563
48	0x3e5fde96	0.21862254
49	0xbdc09a9b	-0.09404489
50	0xbe32c885	-0.17459305
51	0x3e8777bf	0.26458547
52	0x3eb06a56	0.34456128
53	0x3e3ef620	0.18648577
54	0x3dae9e48	0.085262835
55	0xbddad76e	-0.10685621
56	0xbe11c837	-0.14236532
57	0xbe1d78fb	-0.15378182
58	0xbe3450a9	-0.17608894
59	0x3e94264c	0.28935468
60	0x3c58828e	0.01321472
61	0x3e8e6da1	0.27818015
62	0xbdd79f40	-0.105284214
63	0x3ea1cd48	0.3160193
64	0xbe8c7d32	-0.27439266
65	0x3e5076b7	0.20357786
66	0xbe7757c8	-0.2415458
67	0x3e0908dc	0.13382286
68	0xbe6d3d10	-0.23167825
69	0xbd9548f2	-0.07289304
70	0xbdaf02e8	-0.08545476
71	0xbe84d02a	-0.25940067
72	0x3dc947a9	0.09828121
73	0xbd42ef4e	-0.0475915
74	0xbdf5e625	-0.12006787
75	0x3e8edda7	0.27903482
76	0xbe69fb47	-0.22849761
77	0xbe9925b5	-0.2991158
78	0xbd5e848c	-0.054325625
79	0xbd97b502	-0.074075714
80	0x3e8f641a	0.2800606
81	0x3f664412	0.8994762
82	0xbd20e1e6	-0.039277934
83	0xbe576c50	-0.21037412
84	0xbdad2ca9	-0.08455784
85	0x3e1c7755	0.15279897
86	0x3db1d97b	0.08684059
87	0x3f21f54d	0.63264924
88	0xbe904c60	-0.2818327
89	0xbeaba3f7	-0.33523533
90	0x3e81eba2	0.25375086
91	0x3f5b20a1	0.8559666
92	0xbbeced98	-0.007230472
93	0xbf5be5a3	-0.8589727
94	0x3d049f43	0.032378446
95	0x3c9dcc1b	0.019262364
96	0xbd7158f3	-0.05892272
97	0x3eb2f4af	0.34952304
98	0x3f00e764	0.50353074
99	0xbe2fe9be	-0.1717901
100	0x3ebc23e7	0.3674614
101	0xbeb4e8c3	-0.35333833
102	0xbe26e9e0	-0.16300154
103	0xbf379f51	-0.7172747
104	0x3ec15483	0.3775979
105	0x3f17e324	0.59330964
106	0x3e919d75	0.28440443
107	0x3edcb2a2	0.43105036
108	0xbe55f19a	-0.20892945
109	0xbe36553a	-0.17805949
110	0xbed12126	-0.40845603
111	0x3e357aaa	0.17722574
112	0x3e338949	0.17532839
113	0x3eca9b16	0.39571446
114	0xbe6aeb35	-0.22941287
115	0x3e79f1e6	0.24408683
116	0xbeca2a80	-0.3948555
117	0x3f076e1f	0.52902406
118	0x3e454109	0.1926309
119	0xbd58d2d2	-0.05293543
120	0xbe9b2854	-0.30304205
121	0x3e921279	0.2852972
122	0x3a9835e8	0.0011612745
123	0x3e8e882c	0.27838266
124	0xbb28e627	-0.0025771947
125	0x3e0ac228	0.13550627
126	0xbcb9d5d6	-0.022684973
127	0x3cc37ab6	0.023862224
128	0xbd41fd31	-0.047360603
129	0xbd6c2dc8	-0.057660848
130	0xbf0bb508	-0.54573107
131	0xbe92ced7	-0.2867343
132	0x3e1dd86f	0.15414594
133	0xbe237594	-0.15962821
134	0xbef5467a	-0.47905332
135	0xbd228ee4	-0.039687052
136	0x3e593cee	0.21214649
137	0x3ea17228	0.31532407
138	0xbf14eb2a	-0.5817133
139	0x3e94887e	0.29010385
140	0x3ebd3812	0.3695684
141	0xbf2ac9eb	-0.6671435
142	0xba6a4eb0	-0.0008938117
143	0xbbb7a0a9	-0.005603869
144	0xbe189730	-0.14901423
145	0xbe6fdf53	-0.23425035
146	0x3bf73776	0.0075444533
147	0xbe9cca4e	-0.30623096
148	0xbc9d5084	-0.019203432
149	0x3d26a291	0.04068238
150	0x3e238382	0.15968135
151	0xbf8b8b5b	-1.0901903
152	0x3dda9a6f	0.10673987
153	0x3f2f97a2	0.6859075
154	0xbd78cf17	-0.06074437
155	0x3d3a0f23	0.04542459
156	0x3e3aa4fc	0.18226999
157	0x3e1ccc57	0.15312324
158	0xbe3c10cc	-0.18365782
159	0x3f63eafe	0.89030445
160	0xbe8f9424	-0.2804271
161	0xbe2e22eb	-0.17005508
162	0x3d693702	0.056937225
163	0xbd4670a3	-0.048447262
164	0x3e8ee256	0.27907056
165	0xbf0de022	-0.55420125
166	0x3f06d7e0	0.5267315
167	0x3e667605	0.22505958
168	0xbe1f50ec	-0.15558213
169	0xbd1e938f	-0.03871494
170	0xbf003eb0	-0.50095654
171	0x3e2578bb	0.16159336
172	0x3ed47708	0.41497064
173	0x3f01304e	0.5046433
174	0x3f057c2b	0.5214259
175	0xbeeb24c8	-0.459265
176	0xbef12ce0	-0.4710455
177	0x3ef6c7c8	0.48199296
178	0x3e29099c	0.16507572
179	0xbbc86cc6	-0.0061164824
180	0xbcec4eb5	-0.028846124
181	0x3dd4c452	0.10389008
182	0xbed05279	-0.40687922
183	0x3ea12569	0.31473854
184	0xbd4dda0a	-0.050256766
185	0x3ea9c4a4	0.33157837
186	0xbdeb8a37	-0.11500972
187	0xbe56713d	-0.20941634
188	0x3e8b02b6	0.27150506
189	0x3f13081a	0.57434237
190	0x3eb78da6	0.35850257
191	0x3e553beb	0.20823638
192	0xba82529e	-0.0009942835
193	0x3ea4321c	0.3206948
194	0x3e5327fc	0.20620722
195	0x3f0de12d	0.55421716
196	0xbda485ab	-0.08033308
197	0xbda9079d	-0.08253405
198	0xbe8f4a37	-0.2798631
199	0x3dbb8d9e	0.09157871
200	0xbe1d5755	-0.15365346
201	0x3d774f55	0.06037839
202	0x3de453e2	0.11148812
203	0xbd4d6df0	-0.050153673
204	0x3e1e5d55	0.15465291
205	0x3d6f5000	0.058425903
206	0xbc892985	-0.01674343
207	0x3da8b1d4	0.08237043
208	0xbe83e232	-0.2575851
209	0xbe9c4920	-0.3052454
210	0xbe64cebe	-0.22344491
211	0x3e97f384	0.29677975
212	0x3e3c69be	0.18399712
213	0x3dcbd440	0.09952593
214	0xbe76e9a4	-0.24112564
215	0x3da4f4c5	0.080544986
216	0xbd67cbcf	-0.05659085
217	0xbeaa2550	-0.33231592
218	0xbe3c6d9d	-0.18401189
219	0x3d87126b	0.0659531
220	0xbe4a273f	-0.19741534
221	0xbe64354c	-0.22285956
222	0xbe8fc1ff	-0.28077695
223	0x3d72f827	0.059318688
224	0xbe383e51	-0.17992522
225	0xbe8f5e17	-0.28001472
226	0xbdb3e7fa	-0.087844804
227	0x3ea0bcd6	0.3139407
228	0xbf144a48	-0.57925844
229	0xbea12e3b	-0.31480584
230	0x3f17e8a6	0.5933937
231	0x3ea6c7a0	0.32574177
232	0xbb856a91	-0.0040715416
233	0xbb24b55a	-0.0025132508
234	0xbde557a1	-0.111983545
235	0x3de52f07	0.111906104
236	0xbef5bbfb	-0.4799498
237	0x3d08bb85	0.033381958
238	0x3e8148e8	0.25250936
239	0x3f0e4c0e	0.555848
240	0xbd6e7e08	-0.05822566
241	0xbdba799c	-0.091052264
242	0xbeda8b0b	-0.42684206
243	0xbcc4e554	-0.024035133
244	0xbd2cb4c2	-0.04216457
245	0x3f2d54fa	0.6770779
246	0x3d600884	0.05469562
247	0xbd12eb38	-0.035868853
248	0xbdc4f352	-0.09616722
249	0x3e5acf07	0.21368037
250	0xbdb2783a	-0.08714338
251	0xbe886490	-0.26639223
252	0x3c058074	0.008148301
253	0x3e1d2adf	0.15348385
254	0xbe921cec	-0.2853769
255	0x3e62499f	0.22098397

fc.0.bias f4 [64]
0	0xbe79b71f	-0.24386261
1	0x3c8f17c6	0.01746739
2	0x3ea6642a	0.32498294
3	0xbe989206	-0.29798907
4	0x3e8c9587	0.2745783
5	0xbe55078e	-0.20803663
6	0xbc4c5cb4	-0.012473274
7	0xbe891ab3	-0.26778182
8	0xbe81d692	-0.25359017
9	0xbe9833a9	-0.29726914
10	0xbe9397e7	-0.2882683
11	0xbe501d8e	-0.20323774
12	0xbe76175a	-0.24032345
13	0xbe70f46e	-0.23530743
14	0x3e4be154	0.19910175
15	0xbdaef7c0	-0.08543348
16	0xbded3f17	-0.11584299
17	0xbe68c93f	-0.2273302
18	0x3eb66855	0.35626474
19	0x3e2a9ba3	0.16660933
20	0xbe56e234	-0.20984727
21	0x3d9828c0	0.074296474
22	0x3eb645af	0.3560004
23	0x3e2d5999	0.1692871
24	0xbe5ca02c	-0.21545476
25	0xbc9013ba	-0.017587531
26	0x3e098a54	0.13431674
27	0xbe3f780f	-0.18698142
28	0x3cfaa6d5	0.03059713
29	0xbddcd573	-0.107829
30	0x3e809fcc	0.25121915
31	0xbea418ed	-0.32050267
32	0x3dfd7838	0.123764455
33	0xbe10f1b2	-0.141547
34	0xbe28b1ab	-0.16474025
35	0xbe8a1052	-0.26965576
36	0x3f00e410	0.50347996
37	0xbd8f7eab	-0.07006582
38	0x3b3fc710	0.0029262938
39	0x3e8d9d81	0.27659228
40	0x3e840e03	0.2579194
41	0xbe988b0c	-0.29793584
42	0x3e966899	0.29376677
43	0x3ea8cbf6	0.3296811
44	0x3c4c9728	0.01248721
45	0xbddb7de0	-0.10717368
46	0xbe10e3e3	-0.14149432
47	0x3d921ed7	0.071347885
48	0x3e81f9f1	0.25386003
49	0x3e354d0a	0.1770517
50	0x3e248424	0.16066033
51	0x3ece53a2	0.40298182
52	0xbe4bd088	-0.19903767
53	0xbdb7baf4	-0.08971205
54	0xbdbfea68	-0.09370881
55	0xbea374f2	-0.3192516
56	0xbe0d65c9	-0.13808359
57	0xbd918f45	-0.071074046
58	0x3ca2188b	0.019787094
59	0x3e61c709	0.22048582
60	0xbda53497	-0.08066671
61	0x3e5635e3	0.20918994
62	0xbe55a6dd	-0.20864435
63	0x3e41def4	0.18932706

fc.2.weight f4 [64, 64]
0	0xbdc82330	-0.097723365
1	0xbd83e843	-0.06440785
2	0x3ded8add	0.11598752
3	0xbd9177d5	-0.07102934
4	0x3e8c1242	0.2735768
5	0xbda30dab	-0.07961591
6	0x3e0e75c4	0.13912112
7	0xbf82f3f1	-1.0230695
8	0xbd47a3b2	-0.048740096
9	0x3d95193f	0.07280206
10	0xbd54d5fa	-0.051961876
11	0xbd1638e5	-0.036675353
12	0xbdaccddb	-0.08437701
13	0x3ec6a6d4	0.38799155
14	0x3efc30ca	0.49255973
15	0xbe15f070	-0.14642501
16	0xbd458b33	-0.048228454
17	0xbdd0c166	-0.10193138
18	0x3ea29af4	0.31758845
19	0x3eb72778	0.357723
20	0x3daa9fe9	0.08331282
21	0x3e2f8e76	0.17144188
22	0x3e001d5f	0.12511204
23	0xbe4d05b0	-0.20021701
24	0x3d618419	0.05505762
25	0xbc62506f	-0.013813122
26	0x3f0cc288	0.5498433
27	0xbe7da63f	-0.24770449
28	0x3eabc507	0.33548757
29	0xbeae5120	-0.34046268
30	0x3efd7b91	0.49508336
31	0x3e01a7ea	0.1266171
32	0x3e2bd1b9	0.16779222
33	0x3d1a3374	0.037646726
34	0xbce930d3	-0.028465664
35	0xbd9607e8	-0.07325727
36	0x3e97abd8	0.29623294
37	0x3cf7df24	0.030257769
38	0xbfb11d7d	-1.3837124
39	0x3e3bcb05	0.18339165
40	0x3f068fdb	0.52563256
41	0xbdbdb228	-0.09262496
42	0x3e4fc15e	0.20288607
43	0x3ec53a49	0.3852103
44	0xbe8d561e	-0.27604765
45	0x3edbcbd3	0.42928943
46	0xbe248d1b	-0.16069452
47	0xbebc1dba	-0.3674143
48	0x3df54083	0.11975195
49	0xbe8bc60b	-0.27299532
50	0x3e2e85a3	0.17043166
51	0x3e8d787a	0.2763098
52	0xbe634618	-0.22194707
53	0xbec0f441	-0.3768635
54	0xbcfefcf2	-0.031126473
55	0xbf37705c	-0.7165582
56	0xbe9dd6b8	-0.3082788
57	0x3e81b061	0.2532988
58	0xbc14eb50	-0.009089306
59	0x3e4cb8c7	0.19992362
60	0xbdae55af	-0.085124366
61	0x3eedd8f5	0.46454588
62	0x3d3afd07	0.045651462
63	0x3e1138ed	0.14181872
64	0xbd0f948d	-0.03505378
65	0x3ac9668b	0.0015365643
66	0xbd06f08f	-0.03294426
67	0xbd9b0546	-0.07569365
68	0x3db700ca	0.089356974
69	0x3d214579	0.039372895
70	0x3c9bd7e7	0.019023849
71	0xbda5c2b0	-0.08093774
72	0x3cdbbb9f	0.026822863
73	0x3d622ba8	0.055217415
74	0x3b9998b6	0.004687394
75	0xbdb636e7	-0.088971905
76	0xbbf48e23	-0.007463233
77	0x3d380029	0.044922028
78	0x3d34111d	0.043961633
79	0xbd004aea	-0.031321444
80	0x3d0a9ed3	0.033842873
81	0xbd781c9d	-0.060574163
82	0xbbcf0cc4	-0.0063186605
83	0x3db50678	0.088391244
84	0xbc88891a	-0.016666938
85	0xbdbfb1b2	-0.093600646
86	0xbdaeb9e2	-0.08531548
87	0x3d85c6a6	0.0653203
88	0x3c913ccd	0.017729187
89	0xbda49905	-0.08036999
90	0x3d75b00f	0.059982356
91	0x3ca2944a	0.0198461
92	0x3d8af528	0.06785041
93	0x3d8a1b64	0.067435056
94	0xbce5cc55	-0.028051535
95	0xbac81e5e	-0.0015267839
96	0xbd924dc4	-0.07143739
97	0xbdb60701	-0.08888055
98	0x3d42d3ce	0.047565274
99	0xbcf688ef	-0.030094592
100	0xbdc3a02b	-0.09552034
101	0x3d08efca	0.033431806
102	0x3d160871	0.036629144
103	0xbdc6edfe	-0.09713362
104	0xbdbc0e3c	-0.091824025
105	0xbca5b266	-0.020226669
106	0x3a96e53e	0.0011512411
107	0xbdc69b3e	-0.09697579
108	0x3d9d20e8	0.07672292
109	0xbd8e26db	-0.06941005
110	0x3d5d22a8	0.05398813
111	0xbbb15f46	-0.005412969
112	0xbd87ba86	-0.066273734
113	0xbd8dcd7e	-0.0692396
114	0xbdda5d01	-0.1066227
115	0xbd9a2232	-0.075260535
116	0x3d6193a0	0.055072427
117	0xbcce9a7a	-0.025220145
118	0x3d97ffe3	0.074218534
119	0xbdb5a0af	-0.088685386
120	0xbb88ffc0	-0.0041808784
121	0xbcf9d53b	-0.030497184
122	0x3d9da623	0.07697704
123	0x3d847007	0.0646668
124	0x3d58b5fa	0.05290792
125	0x3dbbe228	0.09173995
126	0xbd9c81a7	-0.07641917
127	0xbc29525c	-0.010334577
128	0x3db6d33d	0.08927009
129	0xbc8ef816	-0.017452281
130	0xbca4f42c	-0.020135961
131	0xbb8029cb	-0.003911232
132	0xbd22b54d	-0.039723683
133	0xbd88d8a5	-0.06681947
134	0x3d6b4c50	0.057445824
135	0x3c8dee90	0.01732567
136	0xbcb2ee02	-0.021842007
137	0x3d9f5da1	0.0778153
138	0x3d4685ab	0.04846732
139	0x3d1a0e75	0.037611444
140	0xbda61bcf	-0.08110773
141	0x3d16d1ed	0.036821295
142	0x3ccdc2c2	0.025117282
143	0xbd302580	-0.043004513
144	0xbd8a2682	-0.06745626
145	0xbdc5bf39	-0.096556135
146	0xbd8297d2	-0.06376614
147	0x3d50ed09	0.051007304
148	0x3d9a60d0	0.07537997
149	0xbd760ad0	-0.060068905
150	0x3c1b57da	0.009481395
151	0x3d1942f4	0.037417367
152	0x3d610c7e	0.054943554
153	0xbd0b7ab2	-0.03405256
154	0xbd82ca02	-0.06386186
155	0xbdcadd36	-0.09905474
156	0x3d9d42e3	0.07678773
157	0xbd87c818	-0.06629962
158	0xbcb36864	-0.021900363
159	0x3ca1d175	0.019753197
160	0x3cad5b94	0.021161832
161	0x3d91fe41	0.07128573
162	0xbd9158f9	-0.07097048
163	0xbc39076c	-0.011293273
164	0xbd879133	-0.066194914
165	0x3c14b734	0.009076882
166	0x3dacf392	0.08444895
167	0xbd0b3a65	-0.033991236
168	0x3dbca77d	0.09211633
169	0x3d3c18bd	0.04592203
170	0x3d688996	0.056771837
171	0xbdb196f7	-0.086713724
172	0x3cf5eb61	0.030019464
173	0xbd9a9ebc	-0.075498074
174	0xbcd8d856	-0.026470345
175	0x3daf529f	0.085606806
176	0x3c23ca2a	0.00999693
177	0xbd87dde5	-0.0663412
178	0x3d9455aa	0.072429016
179	0xbd712263	-0.058870684
180	0xbdbfb1aa	-0.093600586
181	0x3bf1bcb3	0.007377231
182	0xbaeef0e7	-0.0018229753
183	0x3d72a07d	0.059235085
184	0x3da9a98b	0.08284291
185	0xbce4d810	-0.027935058
186	0x3cba4747	0.022739066
187	0x3d9d9dab	0.076960884
188	0xbdc5da62	-0.09660794
189	0xbdd3b6e2	-0.103376165
190	0x3d8d05b0	0.068858504
191	0x3d1ecefe	0.038771622
192	0x3ea9acfa	0.33139783
193	0x3d3455d3	0.04402716
194	0xbef901a6	-0.4863407
195	0x3d1237df	0.035697814
196	0xbeb85b56	-0.36007184
197	0x3d64a1f9	0.05581853
198	0xbd3c65a6	-0.045995377
199	0x3f9d4ed2	1.2289679
200	0x3f06fc04	0.52728295
201	0xbd41fcc6	-0.047360204
202	0xbcfe67b0	-0.031055301
203	0xbc6a009d	-0.014282373
204	0xbce42bdf	-0.02785295
205	0x3f282d28	0.656939
206	0x3e073105	0.13202293
207	0xbfcb0577	-1.5861043
208	0xbe924645	-0.28569236
209	0xbe87e61e	-0.26542753
210	0x3d8ee08e	0.06976424
211	0x3e7ed051	0.24884154
212	0xbb32682c	-0.0027222736
213	0xbe9ef5f9	-0.31047037
214	0xbdd72955	-0.1050593
215	0xbf9b7088	-1.2143717
216	0x3dbdcbec	0.09267411
217	0xbf57ade3	-0.84249705
218	0x3eac7749	0.33684757
219	0xbf0b3260	-0.5437374
220	0x3ec05611	0.37565663
221	0x3f1d26f5	0.6138757
222	0x3e35ab5f	0.17741154
223	0x3f799abd	0.97501737
224	0xbd1d025e	-0.038332336
225	0xbd9ef9c6	-0.07762484
226	0xbda4997d	-0.08037088
227	0x3d46990f	0.04848581
228	0xbe14072c	-0.14455861
229	0x3d9eeb39	0.07759709
230	0x3e5469c7	0.20743476
231	0xbd8d49a1	-0.06898809
232	0xbeef2b77	-0.4671285
233	0x3aeba812	0.0017979166
234	0x3d0b1fe4	0.03396596
235	0xbdb63171	-0.08896149
236	0x3f8fc4e4	1.1231961
237	0x3df7cfb4	0.12100163
238	0xbf32b894	-0.69812894
239	0xbfdaa9e5	-1.7083098
240	0xbe56f775	-0.20992835
241	0xbf3d98dc	-0.7406137
242	0x3dcc06d2	0.09962238
243	0x3de73801	0.11289979
244	0xbee11537	-0.43961498
245	0xbf82b114	-1.021029
246	0xbd44ba98	-0.048029512
247	0x3f09e020	0.5385761
248	0x3e2c9cc7	0.16856681
249	0x3e6b2eb7	0.22967039
250	0x3c004341	0.007828535
251	0xbcb476a0	-0.022029221
252	0x3db6e9d4	0.08931318
253	0x3e955367	0.29165193
254	0xbdcf4220	-0.10120034
255	0xbe2fa993	-0.17154531

fc.2.bias f4 [64]
0	0x3e730dbd	0.2373571
1	0xbde4ce90	-0.11172211
2	0xbd995443	-0.07486775
3	0xbe203871	-0.1564653
4	0x3e07b139	0.13251199
5	0xba9e4032	-0.0012073575
6	0xbdd4cfaf	-0.10391175
7	0xbda28212	-0.07934965
8	0xbdc9b17b	-0.09848305
9	0xbdd5dceb	-0.104425274
10	0x3d7384dd	0.05945288
11	0xbcdd6e72	-0.027030203
12	0xbd813ada	-0.06310053
13	0xbd5ccf6e	-0.053908758
14	0xbce0cbba	-0.027440894
15	0x3e40e321	0.18836643
16	0x3d830dee	0.06399141
17	0x3ca4953c	0.020090692
18	0x3cb028a2	0.02150375
19	0x3e170e8c	0.14751643
20	0x3c9dea01	0.01927662
21	0xbdbd2db5	-0.092372335
22	0xbd41ee8f	-0.047346648
23	0xbd9d330f	-0.07675754
24	0x3d9db644	0.0770078
25	0xbdda326c	-0.106541485
26	0xbd6a5f25	-0.057219643
27	0x3b0a7ac3	0.00211303
28	0x3e9602f8	0.2929914
29	0xbd9bf284	-0.076146156
30	0xbd19a1ee	-0.037507944
31	0x3e5babea	0.21452299
32	0xbd23445d	-0.03986012
33	0xbc00d8ec	-0.007864218
34	0xbd214053	-0.039367985
35	0xbd1890dc	-0.037247524
36	0xbccf2bec	-0.025289498
37	0x3d299de3	0.041410338
38	0x3e589a15	0.21152528
39	0x3e820efc	0.25402057
40	0xbdc26192	-0.09491266
41	0x3dd37e42	0.10326816
42	0x3e7c1f0f	0.24621223
43	0x3e2260fd	0.1585731
44	0x3dc75b6d	0.09734235
45	0x3d01d24e	0.031694703
46	0x3e802507	0.2502825
47	0x3d133fce	0.03594952
48	0x3d148248	0.03625706
49	0xbad66607	-0.0016357311
50	0xbd45bb6d	-0.048274446
51	0xbdb44114	-0.08801475
52	0x3c624627	0.013810671
53	0xbd865af1	-0.065603144
54	0xbdab08b6	-0.08351271
55	0xbd7c0882	-0.06153155
56	0x3dbd0023	0.09228542
57	0xbdb22950	-0.08699286
58	0xbd185b7b	-0.037196618
59	0xbd0b5f3d	-0.034026373
60	0x3d25ae13	0.040449213
61	0xbc0755a0	-0.008260161
62	0xbe6aa428	-0.22914183
63	0xbca9be4f	-0.020720629

fc.4.weight f4 [8, 64]
0	0x3e90e4cd	0.2829956
1	0x3dae8544	0.08521512
2	0x3da9200d	0.08258066
3	0xbef445b3	-0.47709426
4	0x3f84e777	1.0383137
5	0xbd2ff50a	-0.042958297
6	0x3d5055f3	0.050863218
7	0x3d7e505a	0.062088348
8	0xbf93884d	-1.1525971
9	0xbdaf84d9	-0.085702606
10	0x3db880c8	0.09008938
11	0xbf0d71dc	-0.5525186
12	0xbda092ce	-0.07840501
13	0xbdc65299	-0.09683723
14	0xbd8adbd9	-0.06780214
15	0x3f4e5abb	0.80607194
16	0x3e378bdf	0.1792445
17	0xbdb9daea	-0.09074958
18	0x3d421b6c	0.047389433
19	0x3e8a7688	0.27043557
20	0xbd52bfbe	-0.05145239
21	0xbcbedcf5	-0.02329872
22	0x3da44fc4	0.080230266
23	0xbdb81759	-0.08988828
24	0x3ef429e5	0.47688213
25	0x3d09e25a	0.03366313
26	0x3d8ae873	0.067826174
27	0x3d52a832	0.051429935
28	0x3f815f56	1.0107219
29	0xbd4f5944	-0.05062224
30	0x3d855033	0.065094374
31	0x3ec374ae	0.38174957
32	0xbda8f51a	-0.082498744
33	0xbd8b6c40	-0.068077564
34	0x3c623679	0.013806933
35	0xbe6f7c54	-0.23387271
36	0x3e4b2089	0.1983663
37	0xbd44502c	-0.04792802
38	0x3e93031e	0.28713316
39	0x3e916a4c	0.2840141
40	0xbda6db2d	-0.08147273
41	0x3e40a968	0.18814623
42	0x3e88e2d1	0.26735547
43	0x3e0f69cd	0.14005204
44	0xbe82284e	-0.25421375
45	0xbd7ac923	-0.061226975
46	0x3f6c74dd	0.9236582
47	0x3d5edaf1	0.054408018
48	0x3dce7b0b	0.10082062
49	0xbd193576	-0.0374045
50	0x3bb8b377	0.0056366283
51	0xbcbd130e	-0.023080375
52	0x3e808541	0.25101665
53	0xbd987720	-0.07444596
54	0x3d2e50a8	0.04255739
55	0xbdac0f10	-0.084013104
56	0x3f2fa66a	0.686133
57	0xbcfe2df7	-0.031027777
58	0x3d09deb0	0.033659637
59	0xbcea7ade	-0.02862304
60	0xbc14b096	-0.0090753045
61	0xbd2fddc7	-0.042936113
62	0xbf0d172c	-0.5511348
63	0x3e5c9561	0.21541359
64	0x3e82ac31	0.25521997
65	0x3d863e2f	0.06554829
66	0xbd4ad4b4	-0.049519256
67	0xbe312e6a	-0.17302862
68	0x3f8a0e31	1.0785581
69	0xb8689b78	-5.5457902e-05
70	0xbd9c3011	-0.076263554
71	0xbd7c5732	-0.061606593
72	0xbf57194c	-0.84022975
73	0x3ddeabd2	0.10872616
74	0xbde99f04	-0.11407283
75	0xbe31c85c	-0.17361587
76	0x3c9111e9	0.017708736
77	0xbd34add6	-0.044111095
78	0x3bc9bf3a	0.006156829
79	0x3f250e83	0.6447527
80	0x3e240662	0.1601806
81	0xbda2ffc3	-0.07958939
82	0xbd39463a	-0.04523299
83	0x3e8690ef	0.2628245
84	0x3a5375e0	0.0008066576
85	0xbd87ac7d	-0.066246964
86	0xbd002790	-0.03128773
87	0xbc5fcd7d	-0.013659832
88	0x3e80e3e6	0.25173873
89	0xbccc6973	-0.024952626
90	0x3cb570a5	0.02214844
91	0x3da9dea4	0.082944185
92	0x3f6f04a7	0.93366474
93	0x3d39015e	0.04516732
94	0xbc3baf4a	-0.011455366
95	0x3e880daf	0.2657294
96	0x3cf150f7	0.029457552
97	0x3da9b9ea	0.082874134
98	0x3d63d49d	0.055622686
99	0xbd8a89c9	-0.06764562
100	0x3e316247	0.17322646
101	0x3dcc6e93	0.09982028
102	0x3e8a333b	0.2699221
103	0x3ea2869d	0.31743327
104	0x3dae8dc7	0.08523136
105	0x3eb36971	0.35041383
106	0x3e9fb3ff	0.31192014
107	0x3ee10dc8	0.43955827
108	0xbe5394f0	-0.20662284
109	0x3d8ccf2b	0.06875452
110	0x3f80b576	1.0055377
111	0x3dd51525	0.104044236
112	0xbd0cf920	-0.03441727
113	0x3d24f628	0.040273815
114	0x3dafe07f	0.08587741
115	0xbc996013	-0.01872257
116	0x3eb44d6b	0.35215315
117	0xbcacad5f	-0.021078764
118	0xbd9f381f	-0.07774376
119	0xbc27f704	-0.010251764
120	0x3f2bb593	0.67073935
121	0xbccce59f	-0.025011836
122	0xbd0ff0d0	-0.035141766
123	0xbd8907b1	-0.0669092
124	0xbd1cb524	-0.038258687
125	0xbc682d15	-0.014170905
126	0xbf38c342	-0.7217294
127	0x3e82f3bc	0.2557658
128	0x3e9690af	0.2940726
129	0xbcb2393d	-0.021755809
130	0xbc9c9244	-0.019112714
131	0xbefdf5bc	-0.49601543
132	0x3f7f76de	0.9979075
133	0x3dba34ff	0.090921395
134	0xbd306cf5	-0.04307266
135	0xbd3c4ae4	-0.04596986
136	0xbf6083c3	-0.8770105
137	0xbc972170	-0.018448561
138	0xbdc8d5cf	-0.09806406
139	0xbe63ae37	-0.22234426
140	0xbb8ecb8d	-0.0043577612
141	0x3caa8c93	0.020818984
142	0x3d870c59	0.06594152
143	0x3f12b471	0.5730658
144	0x3e5c9724	0.2154203
145	0x3db4b1e0	0.088229895
146	0xbdc5c9e3	-0.096576475
147	0x3e91bfed	0.2846674
148	0x3dd0dd85	0.101985015
149	0xbd3d5a39	-0.04622862
150	0x3d6a2c73	0.057171296
151	0xbc9f3c9c	-0.01943808
152	0x3e604779	0.21902265
153	0x3d9bfe8c	0.0761691
154	0x3d8358e6	0.064134404
155	0xbd433b32	-0.047663875
156	0x3f6bb95c	0.9207971
157	0x3da296d0	0.079389215
158	0x3bd48cc6	0.006486508
159	0x3eda052b	0.42582068
160	0x3d3fbf33	0.0468132
161	0xbd4d4078	-0.05011031
162	0x3d7aeb50	0.061259568
163	0x3cc0a8b3	0.023517942
164	0x3e5a1e1e	0.21300551
165	0x3da60067	0.081055455
166	0x3e602395	0.21888573
167	0x3e8c86af	0.27446505
168	0x3d7d339c	0.061816797
169	0x3e7082e0	0.23487425
170	0x3eaad314	0.33364165
171	0x3f0ebf89	0.5576101
172	0xbe8ba616	-0.2727515
173	0x3d58ac9b	0.052898984
174	0x3f7f15f9	0.996429
175	0x3e582210	0.21106744
176	0xbd589249	-0.052873883
177	0x3d5ee050	0.05441314
178	0x3d9f4754	0.07777277
179	0xbda70dc9	-0.08156926
180	0x3e612d3b	0.2198991
181	0xbda1ec8e	-0.07906447
182	0x3d327a9f	0.04357397
183	0xbc288c9e	-0.010287432
184	0x3f0d7941	0.55263144
185	0x3d554fb8	0.05207798
186	0xbd14558d	-0.0362144
187	0x3c96b244	0.01839555
188	0xbc6267d2	-0.013818698
189	0x3badc4d4	0.0053030048
190	0xbf1e627f	-0.61869043
191	0x3e63c6b7	0.22243772
192	0x3e98c883	0.29840478
193	0x3db2f72a	0.08738549
194	0xbca5f330	-0.020257562
195	0xbfafe154	-1.374064
196	0x3fa94841	1.3225175
197	0x3d06967f	0.032858368
198	0x3bd8eaf0	0.0066198036
199	0xbd74d73b	-0.059775572
200	0xbf998ec8	-1.1996698
201	0xbca7a6ea	-0.020465333
202	0x3d7588b6	0.05994483
203	0xbeb9d7ef	-0.36297557
204	0x3d8995d7	0.06718033
205	0x3b476e4f	0.003043074
206	0xbcf856f6	-0.030314904
207	0x3f134481	0.57526404
208	0x3eb0b020	0.34509373
209	0x3dbad643	0.091228984
210	0x3a734e6a	0.0009281399
211	0x3e1bfa87	0.15232287
212	0x3d8762b4	0.06610623
213	0xbd55a73c	-0.05216144
214	0xbd62d0c8	-0.05537489
215	0x3cb666e9	0.022265868
216	0xbd658048	-0.05603054
217	0x3c7562c8	0.014977165
218	0xbd1c05f9	-0.038091633
219	0x3d5de4c3	0.054173242
220	0x3f7eaf70	0.99486446
221	0xbdb86300	-0.09003258
222	0x3d8a03eb	0.067390285
223	0x3f043465	0.5164245
224	0x3db43c14	0.088005215
225	0xbd21f13b	-0.039536696
226	0x3d536a16	0.051614843
227	0x3f9fe072	1.249037
228	0x3e5630c5	0.20917042
229	0xbd8f7da2	-0.070063844
230	0x3e892c3b	0.26791558
231	0x3ea5789c	0.3231858
232	0x3da8ad97	0.08236235
233	0x3dc69b73	0.09697618
234	0x3e6a054e	0.22853586
235	0x3f08b7d1	0.5340548
236	0xbe99a2dc	-0.30007064
237	0xbd8f85c7	-0.07007938
238	0x3f7c6fa7	0.9860787
239	0x3b0a7f7b	0.0021133113
240	0xbe8549f4	-0.26032984
241	0x3daaed75	0.083460726
242	0xbc9384d2	-0.01800767
243	0x3d126a93	0.03574617
244	0xbdabb266	-0.08383636
245	0x3d9df7c0	0.0771327
246	0xbdc2d623	-0.095134996
247	0x3da1cade	0.07900022
248	0x3f85868e	1.0431688
249	0xbd0c9ea2	-0.03433097
250	0xbdbb2752	-0.09138359
251	0xbd933dd7	-0.071895294
252	0xbc55f20d	-0.013058198
253	0xbbc7e799	-0.0061006066
254	0xbf03b043	-0.5144083
255	0x3ac5f6ef	0.0015103499

fc.4.bias f4 [8]
0	0x3dba016a	0.09082301
1	0x3e028368	0.1274544
2	0x3e0cb0cd	0.13739319
3	0x3e7e4bf6	0.24833664
4	0x3e2bc632	0.16774824
5	0x3e3938df	0.18088101
6	0x3de17107	0.110078864
7	0x3e10b19d	0.14130254
