policy_net_2500.pth (torch, 23192 bytes, 6 tensors)

fc.0.weight f4 [64, 6]
0	0x3db35b38	0.08757633
1	0xbe3a32cf	-0.18183444
2	0x3efb2137	0.49048778
3	0x3eb32ca1	0.34994987
4	0xbeddb2ac	-0.43300378
5	0xbf0eccfc	-0.5578153
6	0x3c9bc4f6	0.019014817
7	0xbe172516	-0.14760241
8	0xbde32e61	-0.110928304
9	0x3f14496b	0.57924527
10	0x3e1efd58	0.1552633
11	0x3db90041	0.090332516
12	0x3dfc4cb0	0.123193145
13	0x3df88dc0	0.12136412
14	0x3f0210de	0.5080699
15	0x3e87c35b	0.26516232
16	0xbe364889	-0.17801107
17	0x3e8dd234	0.27699435
18	0x3e4f2a70	0.20231032
19	0xbe5b8e69	-0.21441044
20	0x3e22be86	0.15892991
21	0x3ebe9b4b	0.37227854
22	0xbe9b971e	-0.3038873
23	0x3f323aeb	0.6962115
24	0xbe0c2726	-0.13686809
25	0xbe31491e	-0.17313048
26	0x3e2f44da	0.17116109
27	0x3ecfa480	0.4055519
28	0xbeb6cc98	-0.35702968
29	0xbeee68d1	-0.46564344
30	0x3e9bc9f7	0.30427524
31	0xbf18ec63	-0.597357
32	0xbe64aea6	-0.22332248
33	0x3f0a70d7	0.5407843
34	0x3e00bf81	0.12573053
35	0x3df22078	0.11822599
36	0x3d521e89	0.05129865
37	0xbd0fc789	-0.0351024
38	0xbe66b582	-0.22530177
39	0x3f5c0318	0.8594222
40	0xbddecf45	-0.10879377
41	0xbceffaaf	-0.02929434
42	0x3d963f28	0.07336265
43	0xbeb2ce97	-0.3492324
44	0x3ef5c35a	0.48000604
45	0xbe9995f2	-0.29997212
46	0x3dd64d6c	0.10463986
47	0xbf00b678	-0.50278425
48	0xbed72bd7	-0.42025635
49	0x3cc3633b	0.023851028
50	0x3e900585	0.2812921
51	0xbe7b375b	-0.24532835
52	0x3e238dfa	0.15972129
53	0x3c3b1b00	0.0114200115
54	0xbc510547	-0.012757606
55	0xbe849327	-0.25893518
56	0x3d5be640	0.05368638
57	0x3de42d40	0.11141443
58	0xbe7a0952	-0.24417618
59	0x3ce42169	0.027847962
60	0xbe950fc9	-0.29113606
61	0x3e51618e	0.2044737
62	0x3e71e22a	0.23621431
63	0xbf7b71b8	-0.98220396
64	0x3e9e1707	0.30876943
65	0x3ea40862	0.32037646
66	0xbedee840	-0.43536568
67	0x3f36df16	0.7143415
68	0x3f12e927	0.5738701
69	0xbf3b9e37	-0.7328829
70	0x3dc35bbb	0.095389806
71	0x3e879d5d	0.26487246
72	0xbeeae648	-0.45878816
73	0x3d5c0142	0.053712137
74	0x3de142bd	0.109990574
75	0x3e1b175d	0.15145631
76	0x3eaab035	0.3333756
77	0x3e4a6822	0.19766286
78	0x3e4a5d5c	0.19762176
79	0x3bf524bd	0.007481186
80	0xbe5067ce	-0.20352098
81	0x3ebb1f66	0.36547393
82	0xbd91e9a1	-0.07124639
83	0xbf8a5b7d	-1.080917
84	0x3da9e9d2	0.08296551
85	0x3e1ee278	0.15516078
86	0xbed15270	-0.40883207
87	0x3f28e215	0.65969974
88	0xbe852514	-0.2600485
89	0xbd106b95	-0.03525885
90	0xbe441694	-0.19149238
91	0xbe27055d	-0.1631064
92	0x3f0dff5d	0.5546778
93	0x3f2a76be	0.66587436
94	0xbeb1e4c8	-0.3474486
95	0xbec1ec00	-0.37875366
96	0x3e550357	0.20802055
97	0xbc2c2d48	-0.010508843
98	0x3dec33c4	0.11533311
99	0xbf05daea	-0.5228716
100	0xbd027ea7	-0.031859066
101	0x3f21dc2f	0.632266
102	0xbd9b3aa1	-0.07579542
103	0xbe72da0c	-0.23715991
104	0x3ea6bd2a	0.32566196
105	0x3f259d1e	0.64692867
106	0x3e4cb2e0	0.1999011
107	0x3e5ed89c	0.21762317
108	0xbe90b994	-0.28266585
109	0x3d3801dc	0.04492365
110	0x3c6903cc	0.014222097
111	0xbeb1aea9	-0.34703568
112	0x3d88f259	0.06686849
113	0xbe9fc077	-0.31201527
114	0x3defe108	0.11712843
115	0x3d5cb74b	0.05388574
116	0xbd83ea2d	-0.0644115
117	0x3dc2ee77	0.0951814
118	0xbef0c216	-0.47023076
119	0xbeeb6db0	-0.45982122
120	0xbe915dc5	-0.28391853
121	0x3e870424	0.26370347
122	0x3d89588d	0.06706343
123	0xbe81d2ff	-0.2535629
124	0x3e9f2c02	0.31088263
125	0xbe22b93c	-0.15890974
126	0xbe8104f5	-0.25199094
127	0xbdd56e95	-0.104214825
128	0xbe824046	-0.25439662
129	0xbe2b975d	-0.1675696
130	0xbeb1c81d	-0.34722987
131	0xbe65b526	-0.22432384
132	0x3bc798de	0.0060912212
133	0xbc1fa2fe	-0.00974345
134	0xbecaf0cc	-0.39636838
135	0x3ed7e554	0.4216715
136	0x3e0a82ce	0.1352646
137	0x3db5935d	0.08865998
138	0xbd76d78f	-0.060264166
139	0x3f204ba8	0.6261544
140	0xbe86dcca	-0.26340324
141	0xbe44abec	-0.19206208
142	0x3ddfd844	0.10929921
143	0xbfa1625c	-1.2608142
144	0x3e5746ac	0.21023053
145	0xbe3992c4	-0.18122393
146	0xbeb5d07e	-0.3551063
147	0xbeb5e68d	-0.3552746
148	0x3edbf0b9	0.42957094
149	0x3e76a561	0.24086525
150	0x3e4fea3b	0.20304196
151	0x3c810b2b	0.015752396
152	0x3e3f502d	0.18682928
153	0xbed6d57c	-0.4195975
154	0xbee4cd0c	-0.44687688
155	0x3ebcd23a	0.3687914
156	0x3e551a48	0.20810807
157	0xbeacbec8	-0.33739305
158	0xbd27d104	-0.040970817
159	0x3eaf4006	0.34228534
160	0x3e953948	0.29145265
161	0x3ea65e0a	0.3249362
162	0xbe380f29	-0.17974533
163	0xbed4c9e1	-0.4156027
164	0xbe48f6ee	-0.19625446
165	0x3e9eed1d	0.31040278
166	0xbe425dca	-0.1898109
167	0x3e785dc7	0.24254523
168	0x3de65b28	0.112478554
169	0x3c83b5b9	0.016077863
170	0xbef32d7c	-0.4749564
171	0x3e58c5bb	0.21169178
172	0x3de9b769	0.11411936
173	0x3bf98098	0.0076142065
174	0x3db9990d	0.09062395
175	0x3d729a70	0.059229314
176	0xbc8c9ca0	-0.017164528
177	0x3edd3dc5	0.4321119
178	0x3e25cc5c	0.16191238
179	0x3ed2643c	0.41092098
180	0x3d77fed9	0.060545776
181	0xbeedf39d	-0.46474925
182	0xbebd9b07	-0.3703234
183	0x3ef8b6c2	0.48576933
184	0x3e952265	0.29127803
185	0xbf1c7760	-0.6111965
186	0xbe5c74a1	-0.21528865
187	0x3e8e3b5d	0.27779666
188	0xbf3c1f86	-0.734856
189	0x3f288cfd	0.6584013
190	0x3ed33f02	0.4125901
191	0x3f193218	0.5984206
192	0x3e2a72e4	0.1664539
193	0x3e94182f	0.289247
194	0xbf349566	-0.70540464
195	0x3f0964f3	0.5366966
196	0x3eacca61	0.33748153
197	0x3ee03241	0.4378834
198	0x3ddfb20c	0.109226316
199	0x3ce48562	0.027895633
200	0xbeb94ea3	-0.36192808
201	0x3f0c6cc8	0.54853487
202	0xbde1f67b	-0.110333405
203	0x3ed4c12d	0.4155363
204	0xbed319e1	-0.41230682
205	0xbe9a160b	-0.30094942
206	0x3e4fba0f	0.2028582
207	0x3e6a4cd3	0.22880869
208	0x3f114325	0.5674308
209	0xbef9e26d	-0.48805562
210	0x3d9e9eef	0.07745158
211	0x3eb70063	0.35742483
212	0xbe71c5a8	-0.23610556
213	0x3d3f3dd2	0.046689816
214	0x3ef3292d	0.47492352
215	0x3f030a7f	0.5118789
216	0xbeb7030f	-0.3574452
217	0x3e1bcd6d	0.15215082
218	0x3e2b817d	0.16748615
219	0x3ef02084	0.46899807
220	0x3eac9843	0.33709916
221	0xbd5644aa	-0.052311577
222	0x3b8c53d0	0.004282452
223	0x3d7b6758	0.061377853
224	0x3ee588b2	0.44830853
225	0xbeb23f4f	-0.34813926
226	0xbeeed790	-0.46648836
227	0x3ed8d4fd	0.42349997
228	0xbe604830	-0.21902537
229	0xbeb6376f	-0.35589167
230	0xbe55322c	-0.2081992
231	0xbea6f5a1	-0.32609275
232	0x3ea31731	0.3185363
233	0xbee7ca06	-0.4527132
234	0xbe54b7ee	-0.20773289
235	0x3eae40ca	0.34033805
236	0xbf0f5365	-0.55986625
237	0x3ece9482	0.40347677
238	0x3e3031f5	0.17206557
239	0x3e6363fe	0.22206113
240	0xbecf1a5e	-0.40449804
241	0x3ed944c9	0.4243529
242	0x3eb5a882	0.35480124
243	0xbf9901e4	-1.1953702
244	0x3b3c81da	0.002876392
245	0xbd1352bb	-0.03596757
246	0xbd2f1585	-0.042745132
247	0x3eecbdc3	0.46238527
248	0x3f1ee73e	0.620716
249	0x3bb7eabd	0.0056127
250	0xbebb5e50	-0.36595392
251	0x3f33ce7f	0.70236963
252	0xbec00cd5	-0.3750979
253	0xbda6bd4c	-0.08141574
254	0x3f04e5d5	0.51913196
255	0x3ec44738	0.38335586

fc.0.bias f4 [64]
0	0x3e263426	0.1623083
1	0x3e210c6e	0.15727398
2	0xbe459bee	-0.19297764
3	0xbd0c6539	-0.03427622
4	0x3e56b877	0.20968805
5	0xbe00a4ae	-0.1256282
6	0x3da670eb	0.08127006
7	0x3e2a6f68	0.1664406
8	0x3de882b1	0.113530524
9	0xbd67f328	-0.056628376
10	0x3c5fc742	0.013658347
11	0xbdfb9fd6	-0.12286346
12	0x3dd996df	0.106244795
13	0x3d603da5	0.05474629
14	0x3e8a5c9f	0.2702379
15	0x3cc6ba4d	0.024258757
16	0xbde23a8e	-0.11046325
17	0xbe2b34c2	-0.16719344
18	0xbeb3c33e	-0.35109895
19	0x3e93ce97	0.28868553
20	0xbebedd8d	-0.37278405
21	0xbdd4c6d2	-0.103894845
22	0xbc16356f	-0.009168013
23	0x3cb8ee70	0.022574633
24	0x3e4e1b8c	0.20127696
25	0x3e869e3e	0.26292604
26	0xbda1b1a4	-0.078952104
27	0x3d6366e2	0.05551804
28	0x3e3706fe	0.17873761
29	0x3d659fd7	0.05606064
30	0xbd264fd1	-0.040603463
31	0x3c5bf887	0.013425953
32	0xbe3b512d	-0.18292685
33	0x3e85549c	0.26041114
34	0xbe67f614	-0.22652465
35	0x3bb88045	0.0056305253
36	0x3e5d9e93	0.21642523
37	0x3e610c91	0.2197745
38	0xbe96b915	-0.2943808
39	0x3dc6071a	0.09669323
40	0x3e18fcdf	0.14940213
41	0xbe094724	-0.13406044
42	0x3e999f7e	0.30004495
43	0x3de4318c	0.11142263
44	0xbdf72548	-0.12067658
45	0xbe55af2e	-0.20867607
46	0x3e416ec4	0.1888991
47	0xbea8a9e9	-0.3294213
48	0x3d800b7c	0.062521905
49	0xbe6837d7	-0.22677551
50	0xbe90e2e5	-0.28298107
51	0x3d20fb2a	0.03930203
52	0x3d7a14d4	0.06105502
53	0x3bf37c7f	0.0074306126
54	0xbdb99d5e	-0.090632185
55	0xbe938e15	-0.28819337
56	0x3e68b79e	0.22726294
57	0xbe920249	-0.28517368
58	0xbec75eba	-0.38939458
59	0x3e1f3a52	0.15549591
60	0xbe367c49	-0.17820849
61	0x3c5fc615	0.013658066
62	0xbea4586a	-0.32098705
63	0xbebcd241	-0.3687916

fc.2.weight f4 [64, 64]
0	0x3e06d5b5	0.1316746
1	0x3dfbd6da	0.12296839
2	0x3e0d98f2	0.13827875
3	0xbd120fde	-0.035659663
4	0x3e0ca3f8	0.13734424
5	0xbd80e74c	-0.062941164
6	0x3e510e1e	0.20415542
7	0x3e2b6655	0.16738255
8	0x3dffa452	0.124825135
9	0xbb53cfe6	-0.0032319962
10	0xbc23133e	-0.009953318
11	0xbef10ef7	-0.4708173
12	0x3ca61be3	0.02027697
13	0xbd4277b2	-0.04747743
14	0xbd1d2842	-0.03836847
15	0x3efb4484	0.4907571
16	0xbca2b56a	-0.019861896
17	0x3ecd8dee	0.40147346
18	0xbc53f1cf	-0.01293607
19	0xbdd5483d	-0.10414169
20	0x3cd6495a	0.026158024
21	0x3da49cd3	0.08037724
22	0x3ef9a1de	0.48756307
23	0xbe0e41c6	-0.13892278
24	0x3d4cedc9	0.050031457
25	0x3cfbe2f4	0.030747868
26	0x3d4af716	0.049552046
27	0xbde1bb81	-0.11022092
28	0x3cfc5b2f	0.030805198
29	0x3caf680a	0.021411914
30	0xbb1b2f08	-0.0023679156
31	0x3f640da7	0.8908333
32	0x3f342e33	0.70382994
33	0x3e1a2bb3	0.15055732
34	0xbeaee23e	-0.34156984
35	0x3db80018	0.08984393
36	0x3e5d6e9c	0.21624225
37	0xbd632f35	-0.055464942
38	0xbdfeefda	-0.12448092
39	0x3e8a1d02	0.26975256
40	0xbca8730b	-0.02056267
41	0x3d34ab77	0.044108834
42	0x3e070e34	0.13189012
43	0xbf883c5e	-1.0643423
44	0x3eb607ec	0.3555292
45	0x3dae1324	0.084997445
46	0x3d8e096d	0.069353916
47	0xbf2244e3	-0.6338636
48	0xbe04b5fd	-0.12960048
49	0xbd8ab224	-0.06772259
50	0xbc3d3fe4	-0.011550877
51	0x3f1c8ea8	0.61155176
52	0x3eec29fc	0.46125782
53	0x3dfe3ffc	0.12414548
54	0x3daed939	0.08537526
55	0xbdb4e771	-0.088332064
56	0xbe8b457b	-0.27201447
57	0x3e8a5f37	0.27025768
58	0x3ee24801	0.4419556
59	0xbc97bc61	-0.018522443
60	0xbd940444	-0.07227376
61	0xbe3fb49f	-0.18721245
62	0x3d58e5fe	0.052953713
63	0x3d809345	0.062780894
64	0xbe7c12ea	-0.2461659
65	0xbe4c998b	-0.19980447
66	0xbf08051c	-0.53132796
67	0xbf474ef5	-0.77854854
68	0xbe9d7a1d	-0.30757228
69	0xbf0a2b3c	-0.5397222
70	0x3e0209b8	0.1269902
71	0x3d9b6245	0.07587103
72	0x3da6609c	0.081238955
73	0xbd87fc31	-0.066398986
74	0x3e5d3002	0.21600345
75	0x3d8b8106	0.06811719
76	0xbe0bedda	-0.13664952
77	0x3e389946	0.18027219
78	0x3e29e043	0.16589455
79	0xbf04a37c	-0.5181196
80	0xbba1b423	-0.004934804
81	0xbf439e30	-0.7641325
82	0xbdacf354	-0.08444849
83	0x3e41f5a7	0.18941365
84	0x3ddced2f	0.10787427
85	0xbdae25c6	-0.085032985
86	0xbe17c440	-0.14820957
87	0x3e580976	0.21097359
88	0x3e814305	0.25246444
89	0x3e734c26	0.23759517
90	0xbe34ed18	-0.17668569
91	0x3dfe93e6	0.12430553
92	0x3e1a3d23	0.15062384
93	0xbe15ad04	-0.14616781
94	0x3d19e376	0.03757044
95	0x3d6db432	0.058033176
96	0xbdce9e8a	-0.10088833
97	0xbdc64625	-0.09681348
98	0x3b3049b8	0.0026899409
99	0xbc1b78de	-0.009489266
100	0xbe35e84f	-0.177644
101	0x3b585198	0.0033007618
102	0xbe08e6e3	-0.13369326
103	0xbdba79e5	-0.09105281
104	0x3eb439d5	0.35200372
105	0x3c834090	0.016021997
106	0xbeca6eac	-0.3953756
107	0xbfb28de5	-1.3949553
108	0xbe134c50	-0.1438458
109	0xbc4ee8a2	-0.012628706
110	0x3e9cc246	0.3061697
111	0x3ebf593e	0.37372774
112	0x3dba3405	0.09091953
113	0xbdb77797	-0.08958357
114	0x3c8b3fd8	0.016998217
115	0xbdfc52af	-0.12320458
116	0x3d6ed72e	0.05831068
117	0xbe24974f	-0.16073345
118	0x3e73f214	0.23822814
119	0xbd239b77	-0.039943185
120	0xbe98a68d	-0.29814568
121	0xbe236501	-0.15956499
122	0xbe8f994e	-0.2804665
123	0x3e679cd7	0.22618423
124	0x3d990eda	0.07473536
125	0x3ea36a73	0.31917152
126	0xbc9053e5	-0.017618129
127	0x3dd61be5	0.10454539
128	0xbcffec50	-0.031240612
129	0xbc9841fc	-0.018586151
130	0xbd8170ae	-0.0632032
131	0x3d2f141e	0.042743795
132	0xbdba8949	-0.09108216
133	0xbd7deea2	-0.061995156
134	0x3cc4ae90	0.02400902
135	0x3ba3b8a8	0.004996378
136	0x3d5ced39	0.05393717
137	0x3d26e08d	0.040741492
138	0xbd85eec6	-0.06539683
139	0xbbb5cad3	-0.00554786
140	0xbd30ec19	-0.04319391
141	0xbdb7b9a1	-0.08970953
142	0x3d487f81	0.048949722
143	0x3dc3e520	0.095651865
144	0x3c7773fb	0.0151033355
145	0xbd5d9e98	-0.054106325
146	0xbd0b0802	-0.033943184
147	0xbc3b5775	-0.011434426
148	0x3d171692	0.03688676
149	0xbadbde28	-0.0016774582
150	0xbd75cc53	-0.060009312
151	0xbd836884	-0.06416419
152	0xbda447a7	-0.08021479
153	0x3ce48a9f	0.027898131
154	0x3d998828	0.07496673
155	0xbdbd8cb4	-0.092553526
156	0x3d9e321d	0.07724402
157	0x3a8cc2a8	0.0010739164
158	0xbd453e7a	-0.048155285
159	0x3cea5b38	0.02860795
160	0xbdc1d1b0	-0.09463823
161	0xbd5dcd1d	-0.05415069
162	0x3d68f6c6	0.056875966
163	0xbbbafe27	-0.005706567
164	0xbdbcc08e	-0.092164144
165	0xbcd5dabe	-0.026105281
166	0x3d378914	0.044808462
167	0xbc523f22	-0.012832435
168	0xbdd5541d	-0.10416434
169	0xbd85f41a	-0.06540699
170	0xbd22b05d	-0.039718974
171	0x3c9afc51	0.018919142
172	0xbd51a0c9	-0.051178727
173	0xbdcb3f9d	-0.09924243
174	0x3d7f36ab	0.062307995
175	0xbd87c0bf	-0.0662856
176	0xbd551949	-0.052026067
177	0x3d197fb9	0.03747532
178	0x3dad120e	0.08450709
179	0xbdc4b3e6	-0.096046254
180	0xbd748adb	-0.059702735
181	0xbdc77b07	-0.097402625
182	0x3d83db50	0.06438315
183	0xbd8326d0	-0.06403887
184	0xbdd7169d	-0.1050236
185	0x3d831cc1	0.06401969
186	0xbe02a92a	-0.12759843
187	0xbdc140e8	-0.09436208
188	0x3d01e523	0.031712662
189	0x3d280ee1	0.041029815
190	0xbc0c2ea1	-0.008556039
191	0x3dc34e69	0.0953644
192	0x3ce37aa4	0.02776844
193	0x3d5730ef	0.0525369
194	0xbd49aacf	-0.04923516
195	0xbc8af6ab	-0.016963324
196	0x3c876b0b	0.016530534
197	0xbbf39d26	-0.007434505
198	0x3d96f143	0.07370236
199	0xbd8ae3ba	-0.06781717
200	0xbcddf7f5	-0.027095774
201	0xbd606d65	-0.054791827
202	0xbc742791	-0.0149020115
203	0x3d045848	0.032310754
204	0xbd8d0985	-0.06886581
205	0xbccb37f0	-0.024806947
206	0xbdb5daa6	-0.088795945
207	0x3d69b596	0.05705794
208	0x3d5efa28	0.054437786
209	0xbdafd8fd	-0.08586309
210	0x3dd2bd8e	0.10290061
211	0xbd3f6f36	-0.04673692
212	0x3db0e91e	0.086382136
213	0xbd9439d7	-0.072375946
214	0x3de12847	0.109940104
215	0xbd06a30d	-0.03287034
216	0x3d18b438	0.037281245
217	0x3db6d64a	0.08927591
218	0xbd9383d8	-0.072028816
219	0xbda99568	-0.0828045
220	0x3cf05a25	0.02933986
221	0xbd25025b	-0.04028545
222	0x3d549faf	0.0519101
223	0xbcdf13fe	-0.027231213
224	0xbdd162a0	-0.10223889
225	0xbc2e55a5	-0.010640536
226	0xbddf4f2b	-0.10903772
227	0xbad539f2	-0.0016267879
228	0xbacabba8	-0.0015467303
229	0xbdcc6d13	-0.09981742
230	0xbd86dfcf	-0.06585657
231	0xbcfa7031	-0.030571075
232	0xbd1f409a	-0.03887997
233	0xbdc5b291	-0.096531995
234	0x3d649e8e	0.055815272
235	0x3d451c8a	0.04812292
236	0xbdb70346	-0.08936171
237	0x3d862758	0.06550473
238	0xbd8b1c7b	-0.067925416
239	0x3ca4ff6e	0.02014133
240	0xbdc46fe6	-0.095916554
241	0xbd61ceb5	-0.05512877
242	0xbd8ea70c	-0.069654554
243	0x3b24dc5d	0.002515576
244	0xbdce50fd	-0.10074041
245	0x3d600e28	0.054701
246	0x3dad85f3	0.084728144
247	0xbd56fdaf	-0.052488025
248	0x3cd1fc11	0.02563289
249	0x3bcca58d	0.006245321
250	0xbdcc2905	-0.09968761
251	0xbdb8b287	-0.090184264
252	0xbd774f4b	-0.060378354
253	0xbd474e91	-0.04865891
254	0x3d5092d1	0.050921265
255	0xbd619b1c	-0.055079564

fc.2.bias f4 [64]
0	0x3d8d5a18	0.0690195
1	0x3dcaa246	0.098942325
2	0x3b693121	0.0035582262
3	0xbc9e2f57	-0.019309683
4	0x3ce44433	0.027864551
5	0xbd000fd7	-0.031265106
6	0x3de89d41	0.11358119
7	0xbdfd02dc	-0.12354061
8	0xbd59118f	-0.05299526
9	0x3c76846e	0.015046222
10	0xbde8213a	-0.113344625
11	0xbd26353a	-0.040578105
12	0xbc00826b	-0.007843594
13	0x3dcd8bbb	0.10036417
14	0xbd985a41	-0.074390896
15	0xbd979eb8	-0.0740332
16	0x3ba7273a	0.0051011117
17	0x3beaebbc	0.007169215
18	0x3e0b3bb2	0.1359699
19	0x3d94e5da	0.07270403
20	0xbdf3a399	-0.11896438
21	0x3d5e3c75	0.054256875
22	0xbc4870c5	-0.012233918
23	0xbd504c4c	-0.050854012
24	0xbd3c03f0	-0.045902193
25	0xbd6ade33	-0.057340812
26	0xbd47049e	-0.048588388
27	0xbce4fac1	-0.0279516
28	0x3e30c2c4	0.17261797
29	0xbd85e77a	-0.06538291
30	0x3da4a63e	0.08039521
31	0x3e003417	0.1251987
32	0xbd22e996	-0.039773546
33	0xbd87c73a	-0.06629796
34	0xbd163243	-0.036669027
35	0xbcfc51be	-0.030800696
36	0x3d1c0687	0.038092162
37	0x3d9ce14b	0.07660159
38	0x3e0fb735	0.14034732
39	0x3d287d93	0.041135382
40	0x3daab763	0.083357595
41	0x3c4c15da	0.012456382
42	0xbdbbb49c	-0.09165308
43	0xbd61b5d9	-0.055105064
44	0xbdf6886f	-0.120377414
45	0x3d7e4ac8	0.062083036
46	0x3d12e3cd	0.03586178
47	0xbc39dce5	-0.011344169
48	0xbd4edadc	-0.05050169
49	0xbe25837d	-0.1616344
50	0xbc9e9d20	-0.019362032
51	0xbd851d7d	-0.06499765
52	0x3dc41ab8	0.09575409
53	0xbd783e7e	-0.060606472
54	0xbbf213d8	-0.0073876195
55	0x3cf09bcb	0.029371163
56	0x3d6acfc0	0.057327032
57	0x3cc11ce5	0.023573348
58	0xbd86f2cd	-0.06589279
59	0x3cfd8ca2	0.030950848
60	0xbd0108d1	-0.03150255
61	0xbc9db107	-0.019249452
62	0x3e02728f	0.12739013
63	0x3c77469a	0.015092516

fc.4.weight f4 [8, 64]
0	0x3e8cc59e	0.2749452
1	0x3e6d007b	0.23144715
2	0xbda3a0bf	-0.07989644
3	0x3db95fb3	0.09051456
4	0x3c9fc61b	0.019503644
5	0x3d5e7373	0.05430932
6	0x3f6c029c	0.9219148
7	0xbcd41376	-0.025888186
8	0xbd84e3f5	-0.06488792
9	0xbd4ec5ba	-0.050481535
10	0x3d0370bf	0.032089945
11	0x3dfd8a18	0.12379855
12	0x3d8ce47b	0.06879517
13	0x3ed34a5d	0.41267672
14	0xbd8572a4	-0.065160066
15	0xbecd1ed4	-0.40062582
16	0xbc4eecaa	-0.012629667
17	0xbca78bc4	-0.020452388
18	0x3f60a28c	0.87748027
19	0xbc65a61c	-0.014016654
20	0xbd83164c	-0.06400737
21	0x3ee8337e	0.45351785
22	0x3f42e37d	0.7612837
23	0x3c4a9d83	0.012366655
24	0x3d84197c	0.06450173
25	0xbce7c410	-0.028291732
26	0xbd39d27b	-0.045366745
27	0x3d88e0ac	0.06683478
28	0x3e32a59d	0.17445989
29	0xbda398e9	-0.0798815
30	0xbe8f14a3	-0.27945432
31	0x3e055e7f	0.13024329
32	0xbd08286b	-0.03324167
33	0xbd115b84	-0.035487667
34	0xbd5322d1	-0.051546875
35	0xbd08defa	-0.033415772
36	0x3ed9d81f	0.425477
37	0x3e8bbab2	0.27290875
38	0x3e60b354	0.21943408
39	0x3eccefcc	0.400267
40	0x3d5d6aa3	0.054056775
41	0x3b9dfe5f	0.004821583
42	0xbcf25385	-0.02958084
43	0xbcd2d0dc	-0.025734358
44	0x3eb839ff	0.35981748
45	0x3f454acc	0.77067256
46	0x3f4ee6c5	0.80820876
47	0xbb7ff3f3	-0.0039055317
48	0x3ccf0942	0.02527297
49	0x3f5af28e	0.8552636
50	0x3dd0052e	0.10157238
51	0xbd97e51a	-0.074167445
52	0x3f23155b	0.6370446
53	0xbd42a2b2	-0.04751844
54	0x3f2b2315	0.66850406
55	0x3f31f1bf	0.695095
56	0x3f1eee4b	0.62082356
57	0xbd82bbb5	-0.063834585
58	0x3d82a0e4	0.06378344
59	0xbc6f5ff4	-0.014610279
60	0x3dd54f10	0.104154706
61	0x3d19c925	0.037545342
62	0x3e80a032	0.2512222
63	0xbd5d182c	-0.05397813
64	0x3e6812e3	0.22663455
65	0x3ea2586c	0.31708086
66	0xbd76f5e0	-0.06029308
67	0xbcf41787	-0.029796375
68	0x3d32cffd	0.043655384
69	0x3c8fe13e	0.017563459
70	0x3f4cd888	0.800179
71	0x3d9d7047	0.07687431
72	0x3d2ed72d	0.042685676
73	0x3da80838	0.082046926
74	0x3b6f96e0	0.0036558434
75	0xbd64f26d	-0.055895258
76	0x3cc3d24d	0.02390399
77	0x3ec0299e	0.3753175
78	0x3dd0a598	0.101878345
79	0xbe937403	-0.28799447
80	0x3d393f2f	0.045226272
81	0xbd92141a	-0.0713274
82	0x3f3752c8	0.7161069
83	0xbdbd82d5	-0.0925347
84	0x3b6c9923	0.0036102019
85	0x3ed9d3bf	0.42544362
86	0x3f3f8b9e	0.74822414
87	0xbc909066	-0.01764698
88	0x3d7afb65	0.061274905
89	0xbd20ae9a	-0.039229013
90	0x3c3835b1	0.01124327
91	0x3d213053	0.039352726
92	0x3e87ce8f	0.2652478
93	0xbb7bbd57	-0.0038412416
94	0xbefc790e	-0.49311107
95	0x3e5bc471	0.21461655
96	0xbdcec8d6	-0.100969
97	0xbd745414	-0.059650496
98	0xbd6b2cd9	-0.057415817
99	0x3d1f997f	0.038964745
100	0x3f072a44	0.5279887
101	0x3e80acd3	0.25131854
102	0x3e647e85	0.22313888
103	0x3f0ab283	0.5417864
104	0xbcbfd3f0	-0.02341649
105	0x3c791b95	0.01520433
106	0x3cdcd521	0.026957097
107	0x3bbbdc58	0.005733054
108	0x3f1e2b75	0.6178506
109	0x3ee58626	0.4482891
110	0x3f2c7084	0.67359185
111	0x3d827986	0.06370835
112	0xbda58d0c	-0.08083543
113	0x3f5d961d	0.8655718
114	0x3cae6cac	0.021292053
115	0x3dbd3e88	0.092404425
116	0x3f5fcf84	0.8742602
117	0x3c81ac47	0.015829219
118	0x3f2d1fb0	0.67626476
119	0x3f50f4cc	0.8162353
120	0xbbdc9c38	-0.00673249
121	0x3da2ae53	0.07943406
122	0x3dffe3ba	0.12494607
123	0xbcb513ad	-0.022104109
124	0x3dd2480d	0.10267649
125	0x3cc03b25	0.023465702
126	0x3e72912e	0.23688194
127	0xbdc9d641	-0.09855319
128	0x3e8b2eb1	0.2718406
129	0x3e9af0e8	0.30261922
130	0x3ae6b17e	0.0017600504
131	0x3c565296	0.013081213
132	0x3c0bb5c7	0.008527226
133	0xbd8d7219	-0.06906528
134	0x3f56f070	0.8396063
135	0xbd64a58f	-0.05582195
136	0x3dadb2e0	0.08481383
137	0xbd944ce4	-0.07241228
138	0x3d4569e9	0.048196707
139	0x3c0484b5	0.00808828
140	0xbc42e8db	-0.011896337
141	0x3ee171a0	0.44032001
142	0xbda73d46	-0.08165984
143	0xbe059856	-0.13046393
144	0x3c6e8412	0.014557855
145	0xbd8f5eda	-0.070005134
146	0x3f3a600f	0.72802824
147	0x3c9524df	0.018206058
148	0xbcdf348e	-0.02724674
149	0x3ebb07e4	0.36529458
150	0x3f82783c	1.0192943
151	0xbd392199	-0.045198057
152	0x3d88068f	0.06641876
153	0x3d03b7b7	0.032157626
154	0xbd2e703f	-0.042587515
155	0xbb2c9d52	-0.0026338887
156	0x3e81faaa	0.25386554
157	0xbda7408a	-0.08166607
158	0xbea1bd87	-0.3158991
159	0x3e4ec95d	0.20194001
160	0x3d7ff68c	0.062490985
161	0xbd642c2e	-0.055706196
162	0x3ddb051b	0.10694333
163	0x3d51625a	0.051119186
164	0x3edee12e	0.43531173
165	0x3e4586be	0.19289681
166	0x3e80466d	0.2505373
167	0x3eb387a0	0.3506441
168	0xbdc423fb	-0.09577175
169	0xbd7641af	-0.060121235
170	0xbdbd08a6	-0.09230165
171	0xbcfd827c	-0.030946009
172	0x3f0d8d87	0.5529408
173	0x3ecb5d69	0.39719704
174	0x3f5f10c6	0.8713497
175	0x3d04ccec	0.03242199
176	0xbc9fcb9a	-0.019506264
177	0x3ee914d3	0.455237
178	0xbd692f68	-0.056929976
179	0xbb9cd425	-0.004786032
180	0x3f699bd2	0.9125339
181	0xbd808dbf	-0.06277036
182	0x3f1c1943	0.60976046
183	0x3f6d5528	0.92708063
184	0x3db5e0d7	0.088807754
185	0x3d1fe14e	0.039033227
186	0xbd20b3c1	-0.039233927
187	0xbda9fa1e	-0.08299659
188	0xbce6c4a0	-0.02816993
189	0xba0e6b3c	-0.0005432849
190	0x3e0a941d	0.13533063
191	0x3c38e535	0.011285116
192	0x3e7e2cb6	0.24821743
193	0x3e93146c	0.28726518
194	0xbcdef1de	-0.02721494
195	0xbdb81fb2	-0.089904204
196	0xbd2ca51b	-0.042149644
197	0xbc1ee227	-0.009697474
198	0x3f6c3058	0.92261267
199	0xbc75feb0	-0.0150143355
200	0xbd3a2b7b	-0.045451622
201	0x3c925923	0.01786477
202	0x3db58467	0.08863144
203	0xbb2a8649	-0.0026019982
204	0x3d98b885	0.07457069
205	0x3ec545b9	0.38529757
206	0xbd13f922	-0.036126263
207	0xbe8de2f1	-0.27712205
208	0x3d6a569c	0.057211503
209	0xbc27a808	-0.010232933
210	0x3f77b416	0.96759164
211	0xbd4e050d	-0.050297786
212	0x3d7adeba	0.061247565
213	0x3ebb843f	0.36624333
214	0x3f8cdb8a	1.1004498
215	0xbdffc094	-0.12487903
216	0xbd3d4485	-0.046207923
217	0x3d2ac5b4	0.04169245
218	0x3912dcac	0.00014005852
219	0xbdeeeb97	-0.11666029
220	0x3e740160	0.2382865
221	0x3ca5d9a2	0.020245377
222	0xbe16aa90	-0.14713502
223	0x3e9f8618	0.31156993
224	0xbc02dc34	-0.007987071
225	0xbc2fb196	-0.010723492
226	0xbd70b2b8	-0.05876419
227	0x3cf05a49	0.029339926
228	0x3ecccf06	0.40001696
229	0x3e794261	0.24341728
230	0x3e370058	0.17871225
231	0x3ed7d21e	0.42152494
232	0x3db1a14c	0.08673343
233	0xbd865c7b	-0.06560608
234	0x3da6a075	0.081360735
235	0x3daefd7f	0.08544444
236	0x3f0d7e47	0.5527081
237	0x3e684872	0.22683886
238	0x3f93b9d3	1.1541084
239	0x3de3bae5	0.11119632
240	0xbc9c5bd4	-0.019086756
241	0x3f1bfecd	0.6093567
242	0xbddac804	-0.10682681
243	0xbd6d87c5	-0.057990808
244	0x3f814449	1.0098964
245	0x3d8123e2	0.06305672
246	0x3efa2eb3	0.48863754
247	0x3f393a53	0.7235462
248	0xbbc05f51	-0.0058707376
249	0xbd0a2fa2	-0.033736832
250	0xbd587e85	-0.052855033
251	0x3ce7cfca	0.028297324
252	0x3da95ae0	0.08269286
253	0x3ce419f9	0.027844416
254	0x3e358c33	0.17729263
255	0xbc6845a4	-0.01417676

fc.4.bias f4 [8]
0	0x3e1c9951	0.1529286
1	0x3dbd8eed	0.092557766
2	0x3def07fd	0.116714455
3	0x3de54ee9	0.111966915
4	0x3e1187b9	0.1421193
5	0x3e1dc4ed	0.15407152
6	0x3e27252c	0.16322774
7	0x3e05ca59	0.13065471
