target_net_2500-5000.pth (torch, 23192 bytes, 6 tensors)

fc.0.weight f4 [64, 6]
000000 62 26 39 3e ea 97 23 3e 26 f2 a0 3e b6 82 23 3e
       0.18081048 0.1597592 0.31434745 0.15967831
000010 30 0f 3b bd b9 b9 b2 bd 71 9c e6 3e 45 08 5d 3e
       -0.04566878 -0.0872683 0.4504123 0.21585186
000020 c2 2a b4 be 46 85 69 be 6d 38 3e be 1b ce 3d bf
       -0.35188872 -0.22804746 -0.18576212 -0.74142617
000030 ce 46 27 3e 3a 81 0f 3e 8e ca 99 be 17 a9 80 be
       0.16335604 0.1401414 -0.3003735 -0.25129005
000040 0c 0f 9e be ae 45 11 3e 71 65 95 be 57 5d 33 3e
       -0.30870855 0.14186737 -0.29178956 0.17516075
000050 93 49 42 3e 02 8a f5 3d fd 42 99 3d ff 8c 06 be
       0.18973379 0.119892135 0.0748348 -0.13139723
000060 6e 91 c1 3d 77 40 2c 3e 09 6e 07 3e 22 22 59 be
       0.09451567 0.16821466 0.13225569 -0.21204427
000070 83 9b 4c 3d 1b 67 d6 3b b1 fa e7 3d 92 6e 23 3c
       0.049952995 0.006543053 0.113271125 0.0099750925
000080 5e 08 31 3e 01 7c 26 3f e1 a4 6d 3e 39 d4 0d 3f
       0.17288348 0.65032965 0.23207428 0.5540195
000090 b7 c4 2f be ee 0f 80 3e 0a 65 da 3e 18 f8 ee 3e
       -0.17164885 0.25012153 0.42655212 0.46673656
0000a0 47 b3 5a 3e 74 63 35 be 6a 8f 81 be 3a a6 10 be
       0.21357451 -0.1771372 -0.2530473 -0.1412591
0000b0 18 08 97 be f5 ed 84 3e bc 92 9b be 62 64 9d 3c
       -0.29498363 0.25962797 -0.30385387 0.019212905
0000c0 8c c7 8f bc d9 3c aa bd 33 12 bf 3d 4a 91 2c 3e
       -0.017551206 -0.08312387 0.09329643 0.16852298
0000d0 13 a1 db 3e 67 7a fa 3e 7a 36 93 be 3d 0c 25 be
       0.42896327 0.4892151 -0.287525 -0.1611795
0000e0 f1 aa bb bd 58 46 ac be 2d 7b f9 3d 3b 83 1f be
       -0.09163464 -0.33647418 0.12181697 -0.15577404
0000f0 8f 71 b5 bc d0 aa 8f be 2a 6a 2f 3d 64 80 99 3e
       -0.022148876 -0.28060007 0.042825855 0.29980767
000100 b5 9c 94 3e 43 49 f7 3e ab 48 ca be 5e 66 8c be
       0.29025808 0.48298082 -0.39508566 -0.2742185
000110 38 25 bd 3e 12 66 f9 3e 1d 53 3a 3e 6f b3 8c bd
       0.36942458 0.48710686 0.18195768 -0.06870162
000120 98 6c 5e be 1d 3f 89 3e 26 4c 55 be 10 0f ba 3e
       -0.21721113 0.26805964 -0.2082983 0.36339617
000130 40 83 3f 3e 7f bb 8d 3e 34 59 ad be dd f8 ed 3c
       0.18702412 0.2768211 -0.3385712 0.029049331
000140 30 10 23 bf d9 16 c7 be 53 e9 18 bd 12 84 e5 bc
       -0.63696575 -0.3888462 -0.03733189 -0.028017078
000150 69 52 34 3e b7 80 99 be 93 64 a4 bd 4e d8 a9 3e
       0.17609562 -0.29981014 -0.080269955 0.3317284
000160 17 cb cb be 66 67 58 3e 13 6e 82 3d b1 e5 cd be
       -0.39803383 0.21133193 0.06368651 -0.40214303
000170 ea cc cb bc ed a1 80 be f2 dd 9b 3e 97 f4 ba 3e
       -0.024877984 -0.2512354 0.30442768 0.36514732
000180 cc 12 9e 3d af 63 d4 be 77 91 83 3e 43 0c 85 3e
       0.07718429 -0.41482303 0.25696918 0.25985917
000190 5a 79 a6 be e7 9c 46 3d f0 a8 80 be 6d 55 29 be
       -0.3251446 0.048489477 -0.2512889 -0.16536494
0001a0 33 9c fd be 68 bd af 3e 68 09 4c 3e f1 7d d5 3d
       -0.49533233 0.34324193 0.19925463 0.10424412
0001b0 63 33 80 3e b2 5b 44 be 97 f9 fb be 55 93 cb 3e
       0.25039205 -0.19175604 -0.4921386 0.39760843
0001c0 75 9d 8e 3e 77 6e 3b bf 1e 16 dc be 0e 91 92 3c
       0.27854505 -0.7321543 -0.42985624 0.017891433
0001d0 3e 2a 79 3e 33 c5 14 3e 49 79 1c 3e 23 e4 97 3d
       0.2433252 0.1452835 0.15280642 0.074165605
0001e0 60 2a f3 bd 4e bc ed be a6 4d 12 3e 99 02 c9 3e
       -0.11873317 -0.46432728 0.14287433 0.39259794
0001f0 e6 30 0d 3c cd 05 38 3f e2 29 42 3e ad 63 9b 3e
       0.008617615 0.7188385 0.1896129 0.30349484
000200 04 e8 63 3e 6c 08 b9 bb 56 30 9d be d2 82 b8 bc
       0.22256476 -0.005646756 -0.3070094 -0.022523317
000210 af 7c 72 3e e8 d6 d9 bd d9 29 1b be 03 b3 18 bf
       0.23680376 -0.10636693 -0.15152682 -0.5964815
000220 8d b4 7c be c3 43 8a be 67 35 80 bc a8 bd 1e bd
       -0.2467825 -0.27004823 -0.015650464 -0.03875509
000230 06 d3 58 3d c5 b8 36 bf b0 bd 83 3e ba ef 7c 3f
       0.052935623 -0.71375686 0.25730658 0.98803294
000240 c3 30 d2 3d 34 11 84 3e 97 92 57 3e 40 21 06 bf
       0.10263207 0.25794375 0.21052013 -0.52394485
000250 68 a5 cd be 1e 29 0c bf 34 83 f0 be c0 da 20 bf
       -0.40165257 -0.5475024 -0.469751 -0.62833786
000260 9d bc e5 3e 6c cf 22 3f be 2a 09 bc 95 02 0a 3c
       0.44870463 0.6359775 -0.008372007 0.008423467
000270 3c 44 1b 3e 5f 69 c2 be 2c bc 50 3e 62 7e 9f be
       0.15162748 -0.37971017 0.20384282 -0.3115111
000280 9a 38 1b be 62 50 67 bf 48 39 26 be 63 8b 26 3e
       -0.1515831 -0.9035703 -0.16232789 0.1626411
000290 73 7a 79 3d a2 46 8c be df 4f 74 3d 90 eb b3 bd
       0.060907792 -0.2739764 0.059646484 -0.08785164
0002a0 6b 77 b2 3d ef cd 30 3f ea 17 d2 bd 66 7e 31 bf
       0.087141834 0.6906423 -0.102584675 -0.69333494
0002b0 d6 fb e5 bb a5 ac a9 3c dd d5 5a 3e 70 af 49 be
       -0.0070185466 0.020712206 0.21370645 -0.1969583
0002c0 d9 3f 0f be a8 15 8f 3d 25 da 1b be c8 e9 d1 3c
       -0.139892 0.069865525 -0.15219934 0.02562417
0002d0 df 52 84 be 85 a4 32 3f 40 db 47 be ad 75 85 be
       -0.25844476 0.69782287 -0.19517231 -0.26066342
0002e0 10 f6 85 be a9 eb f0 be 7a f4 ff bd 5c 0e d4 3d
       -0.26164293 -0.47054794 -0.12497802 0.10354301
0002f0 87 cc a5 be da 2c 47 be 64 e1 e1 bd e1 a0 74 be
       -0.32382604 -0.19450703 -0.11029318 -0.23889495
000300 2d 7d fc 3d 56 c2 27 bd 6c ab 16 be 53 c2 53 3f
       0.12328563 -0.040956818 -0.1471383 0.8271839
000310 8f b3 84 be 2f 9b b1 be d3 3a 1a 3e 4d 77 d7 3e
       -0.25918242 -0.34688708 0.15061502 0.42083207
000320 38 fe ce be 74 c9 66 3e 79 53 a0 be e4 c8 2d 3f
       -0.4042833 0.22537786 -0.31313685 0.6788466
000330 ff 78 1e 3e 66 69 7d be 5d c6 19 be d5 e6 b1 3d
       0.15475844 -0.24747238 -0.15017076 0.08686606
000340 98 b6 69 3e fe 83 ce 3c 7f ed e3 3d 1f 2c 93 bd
       0.2282356 0.025209423 0.11129283 -0.0718615
000350 7e 37 8c bd f0 ed fa bc 9d bf 9c be e8 c7 07 be
       -0.06846522 -0.030631036 -0.3061494 -0.13259852
000360 a5 e3 3e 3e 47 34 44 3e 15 d1 a2 be 80 57 4e 3e
       0.18641527 0.19160567 -0.31800142 0.20150566
000370 e5 77 ed bd 31 bb 74 be 0e 39 0c 3e 93 a7 ad 3e
       -0.11595134 -0.23899533 0.1369364 0.3391691
000380 4e 7c da 3e 43 2c 27 bf 6a 25 83 be 4d 73 f9 3e
       0.42672962 -0.65301913 -0.25614482 0.4872078
000390 52 e5 89 be be 7d 5f bd 01 73 6d be 8f 00 a8 be
       -0.2693277 -0.054563276 -0.23188402 -0.32812926
0003a0 94 8a 3a bd fb c9 9b be c5 3a 18 3d 53 28 13 3f
       -0.045542315 -0.30427536 0.037165422 0.57483405
0003b0 69 b4 49 bc 7e f7 15 bf 5d 91 cd be 8f df ac be
       -0.01231108 -0.5858077 -0.40149966 -0.33764312
0003c0 1d 73 52 3e 1d 0d 35 3e 30 11 17 be fb f7 89 bd
       0.20551725 0.17680784 -0.1475265 -0.06736752
0003d0 5c 4f 8c be e1 05 b0 be 21 a9 82 be 2c 7f 14 3d
       -0.27404296 -0.34379485 -0.2551966 0.036254093
0003e0 ed 44 ef 3d f0 bc 88 be 56 78 32 be 37 5f f0 3e
       0.116830684 -0.26706648 -0.17428717 0.46947643
0003f0 ac 42 01 3e 66 2c 19 bc e7 4f 53 3e f9 f1 8d bc
       0.1262309 -0.009348964 0.20635949 -0.017327296

fc.0.bias f4 [64]
000000 38 39 ca bc 51 82 72 3d 45 dc a5 be 58 92 a3 be
       -0.024685487 0.05920631 -0.32394615 -0.3194759
000010 bb 15 8d bc 2f a8 93 be 1b 66 c1 be 25 23 ae 3c
       -0.017222276 -0.2883925 -0.37773213 0.021256993
000020 78 8c 34 be b7 83 44 be 75 fc a0 bd c8 ac 22 bd
       -0.1763171 -0.1919087 -0.07860652 -0.03971556
000030 39 89 b5 be b2 91 cb 3e 81 26 62 3e 73 43 80 3d
       -0.35456255 0.39759594 0.22085 0.06262865
000040 56 86 04 3d b9 d7 b2 3e b9 0f 29 be b8 cd e9 3d
       0.032354675 0.34930208 -0.16509904 0.11416191
000050 a3 4c bd bc 5b a5 c8 be a8 15 28 3e 97 79 a6 ba
       -0.023107832 -0.39188656 0.16414511 -0.0012701032
000060 5d b8 cf 3d f7 45 7b 3c f6 95 c2 3c 87 e3 ba 3c
       0.101425864 0.015336505 0.023753148 0.022813572
000070 d6 1f 0d 3c 46 f1 b6 be 4d 2b 9f 3e fd 00 28 bd
       0.008613547 -0.35730952 0.31087723 -0.041016567
000080 8f 27 e8 3d aa 29 9a 3e 0a 0f bb be d6 99 b4 be
       0.1133567 0.30109912 -0.3653491 -0.35273618
000090 52 c4 30 be 73 8f 4b bd 90 1b 9c be 60 73 80 3e
       -0.1726239 -0.04969735 -0.3048978 0.25088024
0000a0 e3 b2 73 be 64 40 4c 3e fc 9c 5b be aa 57 a5 be
       -0.23798709 0.19946438 -0.21446604 -0.32293445
0000b0 98 c6 bf 3d f3 b8 97 be b6 ef 0e bd ad b6 8f be
       0.093640506 -0.29633293 -0.034896575 -0.28069058
0000c0 70 7f 5c be 27 d4 75 3e be bf 43 3e 05 e2 ef bd
       -0.21532989 0.24006711 0.19116113 -0.11713032
0000d0 39 39 8d be 04 75 9f 3e c2 22 bb bd 6d 4c 74 be
       -0.2758272 0.31143963 -0.09137489 -0.23857279
0000e0 c5 2a 1c bd f5 b1 87 be e8 f8 67 be b1 03 94 be
       -0.038126726 -0.26502958 -0.22653544 -0.28909066
0000f0 a5 a7 13 bc 7b fd 85 be ed 28 80 3e b8 29 02 bd
       -0.009012138 -0.26169953 0.25031224 -0.031778067

fc.2.weight f4 [64, 64]
000000 ba aa 2b 3e b4 62 82 3d e1 a5 e3 3d 51 e2 c5 3d
       0.16764346 0.063664824 0.11115623 0.09662307
000010 8c fe 3d 3d 0f 5d b4 3e 30 cc 08 3f 5d bc f1 3a
       0.046385333 0.35227248 0.53436565 0.0018442977
000020 ac 9b 19 3e 4c 02 b0 3d b7 ae 07 3e 54 0f e3 3e
       0.1500079 0.08594188 0.13250242 0.44347632
000030 34 62 16 bd d6 62 87 3e d0 e1 a0 3d 14 24 8f 3d
       -0.036714748 0.26442593 0.0785557 0.06989303
000040 8e 72 79 3e d2 ff 2f 3d 87 6f 20 bf b7 6a a7 3d
       0.24360105 0.04296858 -0.6267018 0.08174651
000050 97 32 42 3c 7b 87 b3 bd b5 62 52 3e a5 14 ed 3c
       0.011852882 -0.08766075 0.20545466 0.028940508
000060 12 23 27 be ac e6 2d bf dc ec a8 bd 32 c0 9a 3d
       -0.16321972 -0.679301 -0.08248302 0.075561896
000070 c7 39 66 be be 16 9a bd 5d 1a 7d bc 8b 86 94 bc
       -0.22482978 -0.07523869 -0.01544818 -0.018130561
000080 41 eb 4a 3e a6 51 71 be 7a 77 96 bc 32 f3 f0 bb
       0.19816305 -0.23566303 -0.018367518 -0.00735321
000090 1e ba 8a 3c 16 27 6b 3d 62 48 97 3c bc b5 cd bd
       0.01693445 0.057410322 0.018467132 -0.10044429
0000a0 93 bd 6e 3c b9 64 e1 3d 16 66 13 3e 96 db 96 bd
       0.014571565 0.110055394 0.14394411 -0.073661014
0000b0 e9 d7 88 3e 0b 04 b4 bd b7 b1 2a 3e 4a 38 b5 3c
       0.26727226 -0.08789834 0.16669355 0.022121567
0000c0 41 ac 8f 3d ae 09 6d 3d 8e e5 43 3e c3 48 cd 3d
       0.07015277 0.05787056 0.19130537 0.10023644
0000d0 cf 32 8e 3e 92 4b 09 3e a6 11 a8 bd 56 18 0c 3c
       0.2777314 0.13407734 -0.08206491 0.008550724
0000e0 41 a0 a8 bd 9d c4 e2 3c da 98 a2 bb a9 5f 43 3c
       -0.08233691 0.027681643 -0.004962069 0.011924663
0000f0 64 35 ec bd 17 06 82 3c a4 56 59 3e f7 b4 00 bd
       -0.11533621 0.015872044 0.21224457 -0.03142258
000100 39 be c0 3d fb d6 45 3d ac 26 bc 3d af 7a 65 3d
       0.09411282 0.048300724 0.091870636 0.056025203
000110 94 ea 9d bc 1e 4c dc 3d 85 21 0d bd ad de da bd
       -0.019276895 0.10756706 -0.034455795 -0.10687003
000120 65 cf f9 bc c1 32 c9 3d e0 f0 f6 bc 03 e8 c8 3d
       -0.030494401 0.09824134 -0.030144155 0.09809878
000130 aa bf 98 3d f9 e5 c5 3d 99 47 dd bd 4a ee cc bc
       0.07458432 0.096630044 -0.10804672 -0.025015969
000140 1e 6a 86 bd 97 b2 5d 3b 52 9f ac 3d f3 27 64 3d
       -0.06563209 0.0033828372 0.084288254 0.05570216
000150 e3 4d a5 bd 88 13 12 ba e5 60 f5 bc 48 42 92 bd
       -0.08071496 -0.00055723684 -0.02995343 -0.071415484
000160 5a 8c b8 bd c5 66 05 bd bd 2b 3d bd 84 73 c2 3c
       -0.09011145 -0.03256871 -0.04618429 0.023736723
000170 08 e1 a0 3d d0 20 75 bd ea 38 0e bd 52 00 a0 3b
       0.07855421 -0.059845746 -0.034722246 0.0048828507
000180 8c 15 fa bd 42 18 23 bd 29 5e 5d 3d 0c e4 b8 bd
       -0.12211141 -0.039818056 0.054044876 -0.090278715
000190 47 75 10 3d 2d af b9 bb 5e c2 84 3d 18 62 eb 3c
       0.035268094 -0.0056666345 0.06482385 0.028733298
0001a0 fd fe e3 bd 1b a5 a8 3d 3c 09 30 3d 7f 80 00 bd
       -0.111326195 0.08234616 0.042977557 -0.031372543
0001b0 07 8a e9 3d 44 b6 34 3d 56 01 92 bc 8e 38 db bc
       0.1140328 0.044119135 -0.017822903 -0.026760366
0001c0 ab 9f 77 bc 81 75 15 3b 15 2c 39 3b 7e 91 90 3d
       -0.015113751 0.0022805633 0.0028255035 0.070590004
0001d0 0d dc e0 bd 0d c2 47 bd 16 74 28 bd 30 f3 a6 bd
       -0.10979471 -0.048769046 -0.041126333 -0.08151853
0001e0 fe 3a 9e 3d 3a 00 b4 bc a8 89 c6 3d 35 e5 60 3c
       0.077260956 -0.021972764 0.096942246 0.013726522
0001f0 03 ee 52 3d 54 b1 c2 bc 2f f8 f2 bd 3a 4d 9f bc
       0.051496517 -0.023766197 -0.118637435 -0.019446004
000200 50 0f 58 3c 19 31 09 3d 10 81 12 bd 3b 9f a8 bd
       0.013187245 0.03349409 -0.035767615 -0.08233496
000210 11 64 df bd 15 b2 e9 bd c9 82 af 3d 48 98 80 3d
       -0.10907758 -0.114109196 0.08569867 0.06279045
000220 73 17 b7 bd 1f 49 7e 3d 14 50 06 bd ed e5 79 bd
       -0.089400195 0.062081452 -0.032791212 -0.06101029
000230 72 11 da bd c1 64 ba bd 23 5b 22 be 70 11 7a bd
       -0.10647859 -0.091012485 -0.15855078 -0.061051786
000240 71 73 fa 3b ba b3 cd 3c 2c 0a be bc cb ae 04 be
       0.007643156 0.025110114 -0.02319821 -0.12957303
000250 e7 e7 ef bc 70 28 56 bb 26 50 ef bd 07 98 32 3d
       -0.029285384 -0.0032677911 -0.11685209 0.043602016
000260 a7 fd 07 3d f6 be 0e bd a5 a5 ed bd e1 c7 ea bd
       0.033200886 -0.034850083 -0.1160386 -0.11463905
000270 14 e0 9f bd 93 8a 17 bd f2 46 99 bd 45 7a 35 bd
       -0.078064114 -0.03699739 -0.07484235 -0.04430606
000280 1a 4e 30 3d 7e 4a e6 bd b1 83 ca bd 38 18 bc bc
       0.043043233 -0.11244677 -0.098883994 -0.022960767
000290 96 60 fb bb 5f 7e 95 3c e9 bf 55 3d 3b 12 c6 bc
       -0.007671426 0.018248735 0.052184973 -0.024178615
0002a0 36 47 96 3c 49 08 78 bd 40 46 a3 bd b5 a4 4b 3b
       0.018344503 -0.060554776 -0.079723835 0.0031073515
0002b0 52 73 b9 bd c2 86 d5 bd 46 58 16 bd 3c 97 13 bd
       -0.09055199 -0.10426094 -0.036705278 -0.0360329
0002c0 6a cf cc bb 23 7b 85 3c f3 8f 52 bd 34 b2 75 bc
       -0.0062503116 0.016294068 -0.051406812 -0.0149961
0002d0 3e 61 01 bd 4b ea 50 bd 52 5a 8c 3d 34 c4 87 3d
       -0.031586878 -0.05100469 0.06853165 0.0662922
0002e0 47 91 2c bd 87 c2 c0 3d e6 df 0d bb e1 29 16 bc
       -0.042130735 0.09412103 -0.0021648346 -0.009165258
0002f0 bb a3 48 3d b6 3a 76 bc c6 4d b3 3b af 4d b5 bb
       0.04898427 -0.015028646 0.005471918 -0.0055329422
000300 e7 83 4d be 35 62 c1 bd cd 87 cd bc de 1c 46 3d
       -0.20069848 -0.0944256 -0.025089169 0.048367374
000310 cc 2a 87 bd ea 50 0b bf bc 03 ee be 73 ab d0 bd
       -0.0659996 -0.5442034 -0.46487224 -0.10188951
000320 70 c0 22 bd 0d af 34 3d 27 c1 00 bd a5 f1 18 bf
       -0.039734304 0.044112254 -0.031434204 -0.5974372
000330 f1 95 a1 39 4a 95 de 3e c2 7e 42 bd 98 4a 19 3e
       0.00030820028 0.43473274 -0.047484167 0.14969862
000340 65 22 8c be 66 38 5e 3e b0 ce 74 bf 31 ce eb 3c
       -0.2736999 0.21701202 -0.9562788 0.028784843
000350 73 37 6e bf 70 65 dd bd 06 57 66 3d 3b f5 44 3e
       -0.9305336 -0.10810363 0.056235336 0.19234173
000360 7a 28 07 bd 0d ea 6e c0 d9 5d 61 3d af 33 42 3d
       -0.032997586 -3.7330353 0.05502114 0.04741257
000370 d7 d3 41 bf 20 29 d9 bd fc 5e 1f be d2 6f 92 3d
       -0.75713867 -0.10603547 -0.15563577 0.07150234
000380 1d 9b 7a be eb f1 0b 3f c1 f8 16 3d 6f 3e 38 3d
       -0.24473234 0.5466601 0.036858324 0.044981416
000390 56 db ac bd 94 04 4b bf 5a 07 53 bc a9 1c 64 be
       -0.084402725 -0.7930386 -0.012880171 -0.22276558
0003a0 fd db b9 bd 17 44 71 3a d5 39 8c be 81 8a 05 3d
       -0.090751626 0.00092035666 -0.27387872 0.03260279
0003b0 dc 16 16 3f 8b de 19 bf 81 23 fd 3b 9c 30 2d 3c
       0.5862863 -0.601052 0.0077251797 0.010570671
0003c0 d6 e2 d2 bb 89 ba 76 3e 48 66 94 3d 54 f0 89 3d
       -0.0064357324 0.24094595 0.07246071 0.06735292
0003d0 6d df 61 bf 82 a5 f7 3d 23 91 66 bd c1 cb 98 bc
       -0.88231546 0.12092115 -0.056290757 -0.018651845
0003e0 8c f0 dd bd 7c 73 aa 3d a3 42 b8 3d 75 75 59 be
       -0.10836896 0.08322808 0.08997085 -0.21236213
0003f0 18 9d c6 bf 06 7a 1a 3d 47 f7 de 3d 2d 61 64 bd
       -1.5516691 0.037714027 0.10887008 -0.055756737

fc.2.bias f4 [64]
000000 6b 7c 2c 3e 0c 3d 7b bd d0 cf cc 3c 01 8d a9 3d
       0.16844337 -0.061337516 0.025001436 0.082788475
000010 11 6d 22 3c 4f 70 ad bd 6d d1 47 bb bc b2 ce 3d
       0.009913699 -0.08468687 -0.0030489818 0.100926846
000020 3d b7 15 bd ee e4 df bd 82 63 82 3d da 8f a8 bd
       -0.036551703 -0.10932337 0.06366636 -0.082305625
000030 32 07 9c 3d a6 72 00 be 5f 61 15 bd 19 a5 bd bd
       0.0761856 -0.12543735 -0.036469813 -0.092600055
000040 7e 84 1b 3e a5 3a 21 3c b7 07 cc bd f8 a8 5f bd
       0.1518726 0.009840642 -0.09962409 -0.0546045
000050 b2 49 06 bd 37 7b 06 bd 25 d3 8e 3c 34 70 40 3d
       -0.032785125 -0.03283235 0.017434666 0.046982005
000060 b4 31 17 bd 8e 37 9b 3c 27 6c 7f bd 85 28 d2 bd
       -0.036912635 0.018947389 -0.062359 -0.10261635
000070 9c 2f 93 ba da cf 3c 3d e1 85 cf bc ab 4a e1 bc
       -0.0011229399 0.04609666 -0.025332393 -0.027501425
000080 dd 6b 9a bc 2e 03 13 3e 78 6c 91 bb 38 cb c5 bb
       -0.018850261 0.14356682 -0.0044379793 -0.0060361885
000090 96 c6 a6 3c a0 45 d1 3c 35 0a b6 bd 4c f3 7c bd
       0.020358365 0.025545895 -0.088886656 -0.061755463
0000a0 be c3 a5 bd 99 f6 a3 3d 81 df 8e bd 8a b5 06 3e
       -0.080939755 0.08006019 -0.06976224 0.13155189
0000b0 9b 46 e6 bd d7 5f 45 bd 46 31 8d 3d d7 05 07 be
       -0.11243936 -0.048187103 0.06894164 -0.13185821
0000c0 8f 92 b1 bd b8 6f f5 3c b3 b9 d3 bd 71 2f f1 bd
       -0.08670532 0.029960498 -0.10338154 -0.11776627
0000d0 54 c0 85 3a 18 95 31 bd 73 fa 15 3d 4b 3c 27 bd
       0.0010204413 -0.043355078 0.0366158 -0.040828984
0000e0 be af 63 bd 28 7b 94 3c 07 69 7b bd 01 02 29 3c
       -0.055587523 0.018125132 -0.06137946 0.010315419
0000f0 7f 71 6c 3d 96 a6 3f bb 67 bc 8e 3d 12 37 c4 bc
       0.057725426 -0.002924358 0.06969529 -0.02395204

fc.4.weight f4 [8, 64]
000000 98 d6 4e 3e 8c e5 c5 bc 90 b2 9c bd 1b d7 04 3f
       0.20199049 -0.024157308 -0.076512456 0.51890725
000010 50 10 5d bc ce 46 b9 bd 82 8a e2 3e 88 59 b0 3e
       -0.013492659 -0.09046708 0.44246298 0.34443307
000020 b4 95 ea bc 78 54 9e bd 98 b3 3a 3e 8e e6 d5 bb
       -0.028635837 -0.07730955 0.18232572 -0.0065277284
000030 74 4f a8 bd 7f 4e 51 bd 3c 52 c2 bd 8b af b8 bd
       -0.082182795 -0.05110025 -0.09488341 -0.09017857
000040 6b 70 31 3e 19 37 27 3e db 6e 9f bd 32 ef d5 3d
       0.1732804 0.16329612 -0.07784816 0.104460135
000050 09 6f b8 3e 1e 20 77 3d 59 77 32 3d 61 3b d5 3e
       0.36022213 0.060333364 0.04357085 0.41646865
000060 eb 26 a6 3d d2 2d 36 3e 93 57 34 bd 52 bf ff bc
       0.08112892 0.17790917 -0.04402883 -0.031219158
000070 bd 3a f6 3c 9b 3c a3 3d 48 c9 78 3d 90 9c a5 bd
       0.030057305 0.07970544 0.06073883 -0.080865026
000080 b0 20 91 3c b6 1f 04 3e 64 b9 5a be 34 af 10 3e
       0.017715782 0.12902722 -0.21359783 0.14129335
000090 78 3d b2 3d 02 af c6 3e 03 7f 46 3d 5e a2 95 3d
       0.087031305 0.38805395 0.04846097 0.0730636
0000a0 2d 2f 1e 3d 96 f8 13 3d 5e 33 4c be 56 7a 20 3e
       0.03861921 0.036125742 -0.1994147 0.15671667
0000b0 22 56 5a 3c f8 ad 6d bc 0a 9c b7 bc 4e ef 01 bb
       0.0133262 -0.014506809 -0.022413272 -0.0019826475
0000c0 d2 27 8a bd 0d b8 2a 3d 67 a9 30 3b 51 01 84 3d
       -0.06745876 0.04167943 0.002695644 0.064455636
0000d0 a3 46 09 3e ef 28 e4 bc 81 d1 1e 3d 45 3c 3c 3d
       0.13405852 -0.02785155 0.038774017 0.045955915
0000e0 42 a4 d5 3d dc dd e7 3d 4c 78 80 bd 39 eb 25 3d
       0.1043172 0.11321613 -0.06272945 0.04050753
0000f0 64 83 ef 3e 12 a9 a5 3d a9 48 27 3d 79 33 f8 bc
       0.4677993 0.08088888 0.04084078 -0.030297982
000100 84 4e 43 3e e3 e9 dc 3d c5 9b c4 bd 1e 18 13 3f
       0.1907292 0.10786798 -0.09600023 0.57458675
000110 d8 c2 87 bd 4c 25 dd bd d3 b8 d0 3e 3d c8 7f 3f
       -0.0662896 -0.107981294 0.4076601 0.99914914
000120 e4 53 75 bd 4e 68 94 bd 7c 8d 47 be 05 f7 8f bc
       -0.059894457 -0.07246457 -0.19487566 -0.017573843
000130 4d 04 98 3c 5e aa a1 3d 04 a9 7c bd 10 c4 be bc
       0.018556738 0.07893823 -0.061684623 -0.02328685
000140 00 48 03 3e d6 69 35 bc 91 55 d2 3d 89 38 5e 3d
       0.12820435 -0.011072597 0.10270227 0.054253135
000150 c5 e2 1b 3e 00 70 ed bc 02 0b bd bd a8 7b 03 3f
       0.15223224 -0.02898407 -0.09230615 0.5136056
000160 8d 68 a3 3d a3 af 78 3e be dc 58 3d 52 cd 84 3d
       0.07978926 0.2428575 0.05294489 0.06484474
000170 f0 75 79 bc 0b 73 4f be 14 7a 0e bd 91 72 94 bd
       -0.015225872 -0.20258729 -0.03478439 -0.07248414
000180 be 66 46 3d ca eb ee bd b4 c0 1c bf 0f 7c bf 3d
       0.048437826 -0.11666067 -0.6123154 0.09349834
000190 2f d8 78 3d 5e 6c 81 3f f4 03 73 3d 47 a5 61 bc
       0.060753044 1.0111196 0.059329942 -0.013772315
0001a0 d7 86 3a 3d f3 bc 0b bd 9c 2b bb be f8 eb 2d 3e
       0.04553875 -0.034115743 -0.3655671 0.16984546
0001b0 91 50 bf 3c f2 20 a6 bd 67 0b bb be 6e 15 2c bf
       0.023353847 -0.081117526 -0.36532137 -0.672202
0001c0 ce 34 e1 bd 3e 3d c8 3d 2a 01 3d 3d 81 f9 4e bd
       -0.109964 0.09777306 0.04614369 -0.050530914
0001d0 4d 3d 23 be d1 39 2a bd 76 cb 1f 3d e3 0a 42 3c
       -0.15941353 -0.041559044 0.039012395 0.011843416
0001e0 9b d0 5b bd 26 bc 8f 3d ef e6 9f 3d bd 7d 66 bd
       -0.05366574 0.07018308 0.07807719 -0.056272257
0001f0 ac a7 15 3f bd 0f 62 3d e9 2f c8 3c d9 a9 11 bd
       0.5845897 0.05519079 0.024436908 -0.03556237
000200 a9 e9 2c 3e e2 25 a5 bc 25 44 0f 3b 39 a5 08 3f
       0.1688601 -0.020159665 0.0021860686 0.5337711
000210 24 2d a1 3c b2 38 2d bd 01 0a 06 3e df 80 24 3f
       0.019674845 -0.042290397 0.13089754 0.6425914
000220 1e bf 28 3b 03 d8 d7 3d 03 ba 7f 3d da 13 94 bd
       0.002574868 0.10539248 0.062433254 -0.07230349
000230 86 08 66 bd 72 5e fb 3c ee 9a 17 3c 3e 64 6e 3c
       -0.056160472 0.030684683 0.009253247 0.014550267
000240 d9 f3 1c 3e 0c 98 a6 3c 11 14 07 bd 0e 55 9a 3d
       0.15327395 0.020336173 -0.03297812 0.07535754
000250 8e 9f 6f 3d 14 11 49 3d ae df 8b 3d b8 31 01 3f
       0.058501773 0.049088553 0.06829773 0.5046649
000260 77 da f1 bc f6 49 2c 3e c1 82 cd 3c 4e c4 65 bd
       -0.029523117 0.16825089 0.025086762 -0.056095414
000270 89 b2 87 bd dd 7a c1 3c 3b bd ea bc dd ea 50 bd
       -0.0662585 0.023618156 -0.028654685 -0.051005233
000280 d9 c8 2f bd 88 5c 57 3d 8d 7f 76 be cd c9 6d bc
       -0.042916153 0.05257848 -0.24072094 -0.014513445
000290 c5 aa 69 bd 71 20 1a 3f 3f f8 d3 bd 47 e9 d5 bc
       -0.057047624 0.6020575 -0.103500836 -0.026112212
0002a0 4e 62 18 3d c0 6e bc 3a 3f de 74 bd 1e 6b 0f 3e
       0.037203126 0.0014376268 -0.059782263 0.14005706
0002b0 6b 5d fa 3d 80 d6 3c bd 82 8e 75 3d 12 ee 28 3d
       0.12224849 -0.046103 0.05995036 0.041242667
0002c0 c9 ac 79 bd 28 1e 07 3c 48 bc 61 bd b8 2e 61 3d
       -0.060955796 0.008246936 -0.0551112 0.054976195
0002d0 87 6f bc bc fc 77 29 bd 41 2b 06 3d 6e fe 2f be
       -0.0230024 -0.04137419 0.032756094 -0.17186901
0002e0 a4 b0 76 3c a4 43 1c bd ff 01 74 bd 31 40 45 3c
       0.015056763 -0.038150445 -0.059572216 0.01203923
0002f0 96 34 f1 3e 2a 04 a8 3d 70 34 28 3e c2 52 7b bd
       0.47110432 0.08203919 0.16426253 -0.06135822
000300 03 af 16 3e b4 35 09 3a 4d fe 66 bc f6 86 10 3f
       0.14715199 0.00052341376 -0.014098716 0.56455934
000310 a6 93 00 bd 0c 76 23 bd 36 dc be 3e 81 ba 1c 3f
       -0.03139081 -0.0399075 0.37277383 0.6122208
000320 73 86 ad bc b3 f8 c1 3d 60 78 d7 3d 7c 35 9e 3d
       -0.021182274 0.09471264 0.105210066 0.07725045
000330 c2 8f 44 bd 29 7a 48 bd aa a6 80 3d b8 4e f0 3c
       -0.04798866 -0.048944626 0.06281789 0.029334411
000340 de 3d 25 3e aa 88 d9 bd 19 47 11 3d c8 33 00 3d
       0.16136882 -0.1062177 0.035468195 0.031299382
000350 5f e5 73 3e c7 d7 b9 3d ba f4 ec bc e4 7d e5 3e
       0.23817967 0.090743594 -0.028925288 0.4482261
000360 a6 94 7b bd ae 42 6f 3e da e1 fd 3c 50 9f 83 bd
       -0.06142106 0.2336528 0.030991483 -0.06426871
000370 23 0c 08 3e 5a 00 38 3d cd c8 47 bd 6b e9 d7 bd
       0.1328588 0.04492221 -0.048775483 -0.10542568
000380 e7 52 51 bd 7a a1 21 3e 11 a1 70 be db 99 ac bb
       -0.051104452 0.15784255 -0.23498942 -0.0052673644
000390 4a 88 cc bd c0 f6 f3 3e 75 94 92 bc 8a 91 9c 3d
       -0.099869326 0.47649193 -0.017893055 0.07644947
0003a0 11 52 62 bd 38 47 b9 bd e9 b8 87 be 2a d0 37 3e
       -0.055254046 -0.09046787 -0.26508263 0.17950502
0003b0 ef b5 2c bd df 8e 83 3d 6b f1 79 3e ad c0 ff 3c
       -0.042165693 0.06423735 0.244085 0.031219805
0003c0 dd a9 e5 3d 3f 56 aa 3c 9c 64 72 3d 15 ff 37 3d
       0.112140395 0.020793078 0.05917798 0.044921
0003d0 ed 32 3e 3c 43 66 b7 3d 83 80 0d 3e 4f c4 d5 3d
       0.011608821 0.08955052 0.13818555 0.104378335
0003e0 19 90 79 bd 4b 39 63 3d 17 6f 13 3d 08 41 7e bd
       -0.060928438 0.05547456 0.035994615 -0.062073737
0003f0 99 19 0c 3f 4e e1 77 bd bd c8 7e 3e 47 fa 81 bd
       0.5472656 -0.0605176 0.24881263 -0.06346565

fc.4.bias f4 [8]
000000 0f 40 94 3d 48 96 38 3e 5b 9c da 3d 7c 57 c3 3d
       0.07238781 0.18026078 0.10674354 0.09538171
000010 fa dd 17 3e 34 c7 b6 3d 6e aa b2 3d 41 75 b0 3d
       0.14830771 0.08924714 0.08723913 0.086161144
