target_net_5000.pth (torch, 23192 bytes, 6 tensors)

fc.0.weight f4 [64, 6]
00000000: 0087 293e 80d2 773e a744 9fbd 50c6 4c3e
00000010: d8d0 693e f31c 4b3e ea82 2b3e 9336 c73d
00000020: b6b4 91be e994 903e 922f 5c3e 283f bc3e
00000030: 92e9 f8bd 86f3 edbd 6cff 0fbe c6e4 f9be
00000040: cc1b 243c 0f9d 1ebc a0a9 f5bd 4416 3c3d
00000050: 6f8d 743d 560b 4abb eaf4 c53d 5259 013e
00000060: 0daa fa3d 0b83 a83e aa3a 9ebe ad44 96be
00000070: 75fb cabe 0a13 c83e 7790 3d3e f6cc 963e
00000080: 4ed2 94be 91d7 4dbe b09b 92bd a8f8 96bd
00000090: 2659 903d 3353 183e 9a45 e23d f16d f43e
000000a0: 82de 3f3e d8c3 c2be 93ec 31be f13b cb3d
000000b0: c2b4 aa3e a26a 413f 10e1 a2bb 0b27 2dbd
000000c0: 1723 683e a1ed b2bd c163 2cbe b59b 8b3e
000000d0: ab90 b13e 077e 413e 570c af3d 3e61 dbbd
000000e0: 1724 12be eadb 1dbe fec1 34be 2183 943e
000000f0: 740a 593c 76c7 8e3e 2627 d8bd ba32 a23e
00000100: 3ed5 8cbe d4f9 503e 58f3 77be fe5e 093e
00000110: 5cd2 6dbe bca6 95bd f770 afbd 6d23 85be
00000120: fdc5 c93d ce69 43bd e080 f6bd 9d37 8f3e
00000130: a98e 6abe 5e86 99be 4862 58bd faef a6bd
00000140: 95ba 8f3e 5472 643f 82e4 28bd e5d0 56be
00000150: bddd afbd c9d9 1a3e bc0d af3d b5c0 213f
00000160: 022e 90be 901c aebe db0b 853e 83b4 5a3f
00000170: 58ba 43bb ca9b 5cbf a5c9 d33c 72f0 903c
00000180: 23a9 71bd 9c27 b53e 8e6b 013f 4d1c 31be
00000190: cfb5 ba3e 4e57 b5be 48d2 2cbe 1bac 35bf
000001a0: f0ef bf3e 3e9d 183f b7de 923e 0f65 d73e
000001b0: 3f89 56be 31f7 36be f08e d1be f005 383e
000001c0: 1561 363e 486e c83e dbf3 6abe 411f 783e
000001d0: d0e0 c9be 70b7 063f 78bd 473e da3c 84bd
000001e0: f289 9bbe 596e 923e 9c95 983a 22e2 8e3e
000001f0: 6250 29bb 3f19 0b3e 2dda aebc f614 ab3c
00000200: 96ff 3abd 2561 77bd e087 0bbf e9e8 94be
00000210: e722 1b3e 7c77 23be 535f f6be bfbc 12bd
00000220: cef9 5a3e a765 a03e e394 15bf 6b94 953e
00000230: 95b2 bd3e 85d8 2abf aeae a4ba a133 0fbb
00000240: e4f6 18be 5476 70be d3d2 f73b e12c 9dbe
00000250: 17b3 9dbc 520b 273d d357 1e3e 2f60 8cbf
00000260: 4801 cb3d 6d3f 2c3f cb54 76bd 72e8 353d
00000270: 1204 3a3e e046 183e 9d44 3dbe 3869 633f
00000280: d16f 8ebe cd31 3cbe 0d3e 713d 5a59 27bd
00000290: 9d94 923e 7837 0cbf 8fc0 073f 7091 5e3e
000002a0: e081 1fbe d230 20bd e17c 00bf 52bc 263e
000002b0: 6877 d63e 8bbd 003f 6872 053f b340 eebe
000002c0: cbff f0be 7615 f43e 1f97 283e 67d2 0dbc
000002d0: ccab eabc cde5 d13d 2a68 cfbe 4035 a23e
000002e0: d0ad 42bd 3d5a a83e df76 e3bd 60ad 58be
000002f0: 79b2 8c3e a324 123f 72c3 b93e 87f1 4c3e
00000300: 5611 52bb e438 a43e 5120 513e 89eb 0d3f
00000310: de83 a1bd 7364 bfbd 2da4 8fbe 5503 bc3d
00000320: f0b9 1dbe d7ea 773d 70e3 e43d 23ef 4dbd
00000330: ddc0 1e3e 41e6 6f3d a77f 89bc 0f1c a93d
00000340: 7535 84be b3ab 9cbe 5c5e 65be 3853 983e
00000350: 6ae0 3c3e 7e54 cc3d ae84 77be 325c a53d
00000360: 75ba 72bd 97d2 aabe f56f 3ebe 47d4 8b3d
00000370: 7061 49be bc67 68be 421c 90be 2791 733d
00000380: 1eb2 38be 0db8 8fbe e858 b4bd 3922 a13e
00000390: 84d1 14bf bf08 a2be c7a5 163f eb62 a63e
000003a0: 2998 aebb 4004 9236 66ff e9bd a8ad e73d
000003b0: b192 f6be 097b 183d a467 823e fe1f 0d3f
000003c0: 66d7 7cbd 65c3 c5bd ab58 dcbe 2b8b cbbc
000003d0: 0d9c 35bd ad7e 2e3f 3395 603d b647 13bd
000003e0: fa6e c5bd d758 5b3e 33e8 b2bd b2ba 88be
000003f0: 7b7a c63b d407 1d3e 55f2 92be 69da 653e
0.16555405 0.24201393 -0.07776766 0.19997525 0.22833574 0.19835262 0.16749159 0.09727206
-0.28458184 0.2823861 0.21502522 0.36766934 -0.12153925 -0.11618714 -0.1406228 -0.48807353
0.010016393 -0.009681 -0.11995244 0.04591967 0.059705194 -0.003082951 0.09665854 0.12631729
0.12239466 0.32912478 -0.30904132 -0.2934927 -0.3964497 0.39077026 0.1851214 0.29453248
-0.290667 -0.20101763 -0.07158601 -0.07371646 0.07048254 0.14875488 0.11048432 0.4774013
0.18737224 -0.38040042 -0.17375402 0.09923542 0.33341032 0.75553334 -0.004970677 -0.042273562
0.22669636 -0.0873673 -0.16834928 0.27267233 0.34680685 0.18895732 0.085472755 -0.10711907
-0.1427158 -0.15415922 -0.17652127 0.29006293 0.013247121 0.27886552 -0.10554342 0.31679326
-0.2750644 0.20407802 -0.24213922 0.13415143 -0.23224777 -0.07307193 -0.08566468 -0.2600359
0.098522164 -0.047708325 -0.120363 0.27972117 -0.22905983 -0.29985327 -0.052828103 -0.08151241
0.28072038 0.8923695 -0.041233547 -0.20978124 -0.08587215 0.15122141 0.085475415 0.6318467
-0.281601 -0.34006166 0.25985608 0.8543169 -0.0029865708 -0.86175215 0.025852988 0.017692778
-0.058999192 0.35381782 0.5055474 -0.17295952 0.36466834 -0.3541817 -0.16877091 -0.7096574
0.37487745 0.5961493 0.28685543 0.4206929 -0.20950793 -0.17867734 -0.40929365 0.17971015
0.17810471 0.39146638 -0.22944586 0.24230672 -0.3942933 0.52623653 0.1950587 -0.06456919
-0.3037868 0.28599814 0.0011641267 0.279069 -0.0025835265 0.1358385 -0.021344269 0.020884018
-0.045653902 -0.06039538 -0.54504204 -0.29083946 0.15150033 -0.15963548 -0.48119602 -0.035824534
0.21384355 0.31327555 -0.5843031 0.29214796 0.3705031 -0.6673663 -0.0012564266 -0.0021850842
-0.14937931 -0.23482639 0.007562974 -0.30698302 -0.019250436 0.04078228 0.1546319 -1.0966853
0.09912354 0.6728428 -0.06013946 0.04441113 0.18165615 0.14870787 -0.18483205 0.88832426
-0.27819684 -0.18378372 0.058897067 -0.040856697 0.28629008 -0.5477214 0.53028196 0.21735168
-0.15576887 -0.03910906 -0.5019055 0.16282776 0.41887975 0.5028922 0.52127695 -0.46533737
-0.47070155 0.47672623 0.16463898 -0.008656121 -0.028646372 0.10248909 -0.40509158 0.31681252
-0.04752904 0.32881346 -0.11106657 -0.21159887 0.27479914 0.57087153 0.36281925 0.2001401
-0.003205379 0.32074654 0.20422484 0.55437523 -0.0788648 -0.09345331 -0.28054944 0.09180323
-0.15402961 0.060526695 0.11176193 -0.050276887 0.15503259 0.058569197 -0.016784502 0.08257305
-0.25822034 -0.30599746 -0.22399276 0.2975099 0.18444982 0.09977053 -0.24171707 0.080742255
-0.05925985 -0.33363792 -0.18597396 0.06827598 -0.19666076 -0.22695822 -0.2814656 0.0594646
-0.18036696 -0.28070107 -0.0880602 0.31471422 -0.58132195 -0.31647298 0.58846706 0.32497343
-0.0053281975 4.351634e-06 -0.114256665 0.11312419 -0.48158792 0.03722671 0.25469697 0.5512694
-0.061728857 -0.09656409 -0.43036398 -0.024846634 -0.044338275 0.6816204 0.054829787 -0.03595706
-0.09640308 0.21420608 -0.08735695 -0.26704937 0.0060570813 0.15335017 -0.2870051 0.22446598

fc.0.bias f4 [64]
00000000: 8ee1 76be 9a9f 9c3c 40be a53e baf1 98be
00000010: 4bb6 8a3e 8a8d 55be 4f33 39bc 099a 8bbe
00000020: bc75 7dbe 5d93 98be bcf4 93be aba0 50be
00000030: 63b2 76be 8b6f 77be 21a5 4b3e 5a86 afbd
00000040: 73e8 edbd d9b5 6abe 260b b63e ebef 2b3e
00000050: 2569 57be c3a7 9d3d 809e b53e 56e9 2d3e
00000060: f12a 5dbe 0113 afbc 88f6 0a3e 16e4 3bbe
00000070: a9df ea3c 0c68 e8bd e3b8 803e 9316 a4be
00000080: 9f34 fa3d 9d4c 11be e61b 29be 6967 8abe
00000090: 9ba9 003f a1d8 8fbd a594 af3b 63df 8c3e
000000a0: 7821 813e c0ea 98be fdd9 953e 1659 a83e
000000b0: bfc5 833c d163 d8bd f82f 0ebe 42f9 933d
000000c0: 884f 803e b996 373e ccf8 223e 0ab4 cd3e
000000d0: 83f6 49be 2c90 bcbd fe62 c0bd 316e a1be
000000e0: 960a 0abe d778 9abd 229c 303c 1d2c 5f3e
000000f0: 9b9c a5bd e34d 573e 1682 51be f20f 413e
-0.2410948 0.019119073 0.32371712 -0.29871923 0.27092203 -0.20854774 -0.011303737 -0.27265957
-0.24751943 -0.2979993 -0.28897655 -0.2037379 -0.24091487 -0.24163644 0.1988721 -0.085705474
-0.11616602 -0.22920932 0.3555538 0.1679074 -0.21036203 0.07698014 0.35472488 0.16983542
-0.21598412 -0.021371366 0.13570607 -0.18348727 0.028671103 -0.1134797 0.25141057 -0.32048473
0.12217068 -0.14189382 -0.16514549 -0.2703202 0.502588 -0.070237406 0.005358296 0.2751418
0.25220847 -0.298666 0.29267874 0.32880467 0.016085504 -0.105659135 -0.13885486 0.072252765
0.25060678 0.1792859 0.15915221 0.4017642 -0.19722943 -0.09207186 -0.09393881 -0.31529382
-0.134806 -0.075425796 0.010779412 0.21794172 -0.08086511 0.21025805 -0.2045978 0.18853739

fc.2.weight f4 [64, 64]
00000000: ee15 c9bd 3aa0 86bd 0f17 e23d 8fd3 91bd
00000010: 7591 813e 1274 a3bd 27b5 0d3e da48 82bf
00000020: 6a43 33bd 0977 953d f65b 55bd a497 16bd
00000030: a03a adbd d683 c93e 1876 fa3e 1e32 17be
00000040: 2bf0 3dbd 2a13 b8bd bcaa a03e 2714 b73e
00000050: 190b ab3d 3647 303e 9d49 f73d aebb 51be
00000060: bd11 623d 5da3 52bc d3df 0b3f ad03 7bbe
00000070: 8689 ad3e 5854 afbe a5ce fb3e 3ca4 063e
00000080: c0c0 283e 1d94 1a3d 40c3 e9bc 7c66 96bd
00000090: c194 943e 237b f83c 2da1 aebf f2a3 383e
000000a0: 4da4 043f c029 bebd 53d4 4c3e fb5f c33e
000000b0: d9d0 8abe d081 e33e c31c 25be 27a9 bfbe
000000c0: e6f6 ef3d ad5c 8dbe e2dc 2c3e 6bc3 8a3e
000000d0: 9015 5dbe b00e b8be 589d ffbc 31a8 37bf
000000e0: cf71 9abe 8268 803e ff47 bbbc e7e6 473e
000000f0: 6dc3 aebd 5252 f13e 3ff0 433d b45b 0c3e
00000100: 83ee 0fbd dfe4 c93a bc45 07bd e466 9bbd
00000110: a273 b73d ebaa 213d 9b39 9c3c 012b a6bd
00000120: 9445 dc3c 0fba 623d 5ff9 993b bfa9 b6bd
00000130: 3228 f5bb f673 383d 0b82 343d 4e9b 00bd
00000140: eaf5 0a3d 9cb8 78bd ec8e cfbb 5b78 b53d
00000150: 3cdf 88bc 482a c0bd f127 afbd de1a 863d
00000160: e897 913c 6100 a5bd 744a 763d b1fa a23c
00000170: 3f4c 8b3d 7b72 8a3d d85c e6bc 2f9c c8ba
00000180: a4a9 92bd b479 b6bd 4e4e 433d f923 f7bc
00000190: 421b c4bd ec45 093d 0767 163d 5d6b c7bd
000001a0: a184 bcbd b71a a6bc fd43 973a 1f18 c7bd
000001b0: 7b83 9d3d ed7f 8ebd 6dad 5d3d eace b1bb
000001c0: b30f 88bd 7f26 8ebd 46e6 dabd db82 9abd
000001d0: 4421 623d a21c cfbc 975f 983d 9212 b6bd
000001e0: e255 89bb 2f72 fabc 8209 9e3d 4ac3 843d
000001f0: 0e3e 593d 3158 bc3d 3ae4 9cbd 97bc 29bc
00000200: 1546 b73d 0c52 8fbc 975b a5bc 2f7a 80bb
00000210: b41b 23bd c72e 89bd 70e0 6b3d 9147 8e3c
00000220: ae5e b3bc 1ec2 9f3d 6202 473d 1e6f 1a3d
00000230: 2084 a6bd ac30 173d f543 ce3c 8494 30bd
00000240: 997d 8abd a33b c6bd 20ea 82bd 2670 513d
00000250: b3c1 9a3d c5a5 76bd 78b9 1b3c 9da3 193d
00000260: 229a 613d bed2 0bbd 501c 83bd 7f5c cbbd
00000270: 76a5 9d3d 451d 88bd 52d9 b3bc e736 a23c
00000280: aec8 ad3c 215a 923d 60b4 91bd f17b 39bc
00000290: 60e6 87bd fe14 153c ac60 ad3d e191 0bbd
000002a0: 291e bd3d 378f 3c3d 031c 693d f006 b2bd
000002b0: 2486 f63c 3c00 9bbd a860 d9bc aec0 af3d
000002c0: 7a31 243c 1233 88bd d5b2 943d edb9 71bd
000002d0: 402a c0bd de54 f23b 2887 efba f038 733d
000002e0: 2c14 aa3d be67 e5bc 2ebc ba3c f500 9e3d
000002f0: cc56 c6bd e93b d4bd b15e 8d3d 8632 1f3d
00000300: cc0f ae3e d9d6 2d3d 954a fbbe bf93 123d
00000310: ee9c bebe 8731 653d 1820 4bbd 0c39 9c3f
00000320: 0e54 093f ad76 42bd 8307 ffbc ff93 6abc
00000330: 6dbb e4bc 9daa 263f 76e2 003e abc3 c6bf
00000340: 217c 92be d923 81be e03e 863d 0731 793e
00000350: 25d8 32bb c859 9fbe 15ed dbbd 513f 9bbf
00000360: 8d43 be3d 2d65 55bf 7511 aa3e 00b1 08bf
00000370: 9641 c03e af72 213f 281e 313e 8954 7b3f
00000380: 5b4a 2dbd 9e5d 9fbd d900 a5bd ec15 473d
00000390: 14fe 19be ed4e 9f3d ac3b 543e 0624 94bd
000003a0: 5298 f2be 693c ec3a 4126 fd3c b939 c1bd
000003b0: 9709 8e3f b954 e13d 7de7 30bf 6aed d8bf
000003c0: b2ce 5dbe a617 3bbf fc13 c63d b803 e03d
000003d0: 5d7a dcbe 92e0 81bf 0d36 45bd c35b 0b3f
000003e0: a6ba 373e c027 683e a593 003c 8864 d1bc
000003f0: ac5c b73d c2df 903e 04c3 d2bd 2f36 31be
-0.09818636 -0.065735295 0.11039554 -0.0712043 0.25306287 -0.07981123 0.13838635 -1.0178483
-0.043765463 0.07298095 -0.052089654 -0.03676571 -0.084584475 0.39358395 0.48918223 -0.14765212
-0.04637162 -0.0898803 0.3138026 0.35757563 0.08351726 0.17214665 0.120745875 -0.2048175
0.055192698 -0.012856332 0.54638404 -0.24513121 0.33893985 -0.34244037 0.49181095 0.13148588
0.16479778 0.037738908 -0.028535485 -0.07343766 0.2901974 0.030332154 -1.3642937 0.1803129
0.51813203 -0.09285307 0.2000287 0.38159165 -0.27112463 0.44434977 -0.16124253 -0.3743374
0.11717014 -0.27609769 0.16881135 0.27102217 -0.21590257 -0.35948706 -0.031202957 -0.71741015
-0.30164954 0.25079733 -0.022861479 0.19521676 -0.08533368 0.47133118 0.04783654 0.13706857
-0.035139572 0.0015403292 -0.03302549 -0.07587984 0.08957602 0.03946964 0.019070437 -0.08113671
0.026888646 0.05535322 0.004698917 -0.08919095 -0.0074815983 0.045032464 0.04406933 -0.03139811
0.03392593 -0.060722932 -0.0063341763 0.088608466 -0.016708009 -0.093830645 -0.0855254 0.06548093
0.01777263 -0.08056713 0.060129598 0.01989493 0.06801652 0.06760117 -0.028120443 -0.0015305335
-0.07161263 -0.08909932 0.0476821 -0.03016852 -0.095755115 0.03351395 0.03671935 -0.09737275
-0.092049845 -0.02027641 0.0011540648 -0.097213976 0.076910935 -0.06957994 0.05412047 -0.0054262774
-0.066436194 -0.06940936 -0.106884524 -0.0754449 0.055207506 -0.025282208 0.07440107 -0.08890261
-0.004191146 -0.030572025 0.07716657 0.06482561 0.053037696 0.09196509 -0.07660718 -0.010359905
0.08948914 -0.017495178 -0.020185275 -0.0039208154 -0.03982134 -0.06698375 0.057587087 0.01736811
-0.021895733 0.07800697 0.048586257 0.037703626 -0.081306696 0.03691165 0.025178889 -0.043110386
-0.06762237 -0.096793436 -0.06392312 0.051132344 0.075564764 -0.060216684 0.009504668 0.03750955
0.055078633 -0.034136526 -0.064018846 -0.099297516 0.07697575 -0.06646208 -0.021954212 0.01980157
0.021213856 0.07146097 -0.07114482 -0.011321054 -0.066357374 0.009099243 0.08465704 -0.034074668
0.09234268 0.046035018 0.05691148 -0.086927295 0.03009326 -0.07568404 -0.026535347 0.085816726
0.010021562 -0.06650366 0.07260672 -0.059015203 -0.093830585 0.007395371 -0.0018274533 0.05938047
0.08304629 -0.02800357 0.02279481 0.07715026 -0.09684524 -0.103629895 0.069028266 0.038866542
0.33996427 0.042441223 -0.4908034 0.035785433 -0.37229103 0.055955436 -0.049591154 1.2204909
0.5364388 -0.04747646 -0.031131512 -0.014317512 -0.027921403 0.65104085 0.12586388 -1.5528463
-0.28610328 -0.25222662 0.06554961 0.24335109 -0.0027289477 -0.31123185 -0.10738579 -1.2128698
0.09290228 -0.83357507 0.33216444 -0.5339508 0.37550038 0.6306562 0.1729666 0.98175865
-0.04230724 -0.07781528 -0.08056802 0.04860489 -0.1503833 0.07778726 0.20725888 -0.072334334
-0.47381836 0.0018023375 0.03090203 -0.09434838 1.1096677 0.11002488 -0.69103223 -1.6947453
-0.21660879 -0.7308296 0.096717805 0.10938209 -0.43062106 -1.0146658 -0.04814725 0.5443689
0.17942294 0.22671413 0.007847701 -0.025560632 0.08953223 0.28295714 -0.102911025 -0.17305826

fc.2.bias f4 [64]
00000000: 41df 6e3e 2d5e e5bd ecb4 99bd 7f60 23be
00000010: a96b 0b3e baa3 9eba ab55 d5bd 79e8 a2bd
00000020: 0340 bfbd 7063 d6bd 64b6 813d ce57 aabc
00000030: 338c 81bd 335a 5dbd 5e59 e1bc d126 413e
00000040: bd27 773d 98fc a43c a697 b03c 2fff 133e
00000050: 894d 9e3c 61a4 bdbd 5968 42bd a295 9dbd
00000060: 1783 993d 65bb dabd 87f2 6abd dad1 0a3b
00000070: 3905 943e 7b54 9cbd 9702 1abd 6ccf 593e
00000080: c4aa 23bd 452a 01bc c5a5 21bd eb80 0abd
00000090: b2a0 c6bc 6908 2a3d eb41 543e 2f46 7f3e
000000a0: 12dc c2bd fd36 c23d 70a3 783e fc88 1f3e
000000b0: fbf3 c73d a723 023d 2b4c 803e fe6a 0e3d
000000c0: 86d9 2e3d f8ec d6ba d737 46bd 47b2 b4bd
000000d0: a088 573c 29af 86bd f573 abbd 22a7 7cbd
000000e0: bc63 b93d 4999 b2bd 2fbb 18bd 21b7 0bbd
000000f0: 6416 263d cdaa 07bc f1f9 69be cd9c 96bc
0.23327352 -0.11199603 -0.07505211 -0.15954779 0.13615288 -0.0012103238 -0.104167305 -0.07954497
-0.09338381 -0.10468185 0.063336164 -0.020793822 -0.06325569 -0.0540411 -0.027508434 0.18862464
0.06034063 0.020139977 0.021556687 0.14452814 0.019324081 -0.092598684 -0.047462795 -0.07694556
0.074957065 -0.10680274 -0.0573602 0.002118221 0.28910235 -0.07633301 -0.037600126 0.21270531
-0.039957777 -0.007883613 -0.03946473 -0.033814352 -0.024246547 0.041511927 0.2072827 0.24929117
-0.09514631 0.094831444 0.24281096 0.15579599 0.097633325 0.031772282 0.25058112 0.034770004
0.042687915 -0.0016397526 -0.048393097 -0.08823066 0.0131551325 -0.06576378 -0.083717264 -0.061682828
0.09052226 -0.08720643 -0.037287887 -0.034110192 0.040548697 -0.008280468 -0.22849251 -0.018385315

fc.4.weight f4 [8, 64]
00000000: 92c3 8e3e 53f3 ae3d 488a a93d 3bb7 efbe
00000010: 0fb7 853f f663 30bd 10d9 503d 2df0 7e3d
00000020: 3a5c 95bf e8f2 afbd 463c af3d b670 10bf
00000030: cbf7 a0bd 03cf c6bd f032 8bbd 44c9 4d3f
00000040: 0870 383e ac4f babd 9095 423d ef7d 883e
00000050: 3844 53bd c754 bfbc 20b7 a43d 268b b8bd
00000060: a151 ed3e 6339 0a3d 8a3f 8b3d 802c 533d
00000070: 5b1e 813f 6cdb 4fbd 5ca4 853d f941 c23e
00000080: 555f a9bd 48c4 8bbd f2c4 623c c2e3 64be
00000090: 1c6b 473e a1cb 44bd cd0e 913e ed55 8f3e
000000a0: 7344 a7bd 37a4 333e a6f5 863e 76cb 053e
000000b0: 6e46 85be 0c67 7bbd 1147 6d3f e578 3e3d
000000c0: d506 d43d 1f96 19bd 4a27 b93b ba89 bdbc
000000d0: d5d4 763e d4d6 98bd 5bbe 2e3d 357b acbd
000000e0: 4196 323f cacd febc ae35 0a3d 400e ebbc
000000f0: 600e 15bc 7f4c 30bd d947 0fbf ef2c 4f3e
00000100: 15f3 7c3e 6792 863d fd53 4bbd 4ced 2bbe
00000110: 73f2 883f e52d 69b8 a392 9cbd 10f6 7cbd
00000120: db2c 59bf 8c37 df3d cd95 e7bd 719c 3ebe
00000130: d46c 913c b91f 35bd 353e ca3b 38af 243f
00000140: a6ca 1b3e 2a66 a3bd fcba 39bd 4e7f 833e
00000150: e7fa 533a aa01 88bd f477 00bd 2c5a 60bc
00000160: c6fc 803e b1e9 ccbc 88e2 b53c c049 aa3d
00000170: c0f3 6b3f d675 393d 0125 3cbc d6c6 843e
00000180: cce8 f13c b124 aa3d 2b64 643d 97de 9abd
00000190: be52 3b3e d1ee cc3d 874e 873e 8984 9f3e
000001a0: d6fb ae3d 3b3a ae3e 4cbc 9c3e 82b1 db3e
000001b0: 0783 5cbe c727 8d3d 7ae1 7f3f 53ca d63d
000001c0: 3810 1fbd 985d 253d 3d4f b03d bcc0 99bc
000001d0: a5df b23e da19 adbc 919c 9fbd 4a60 28bc
000001e0: bbe3 233f b766 cdbc 924b 10bd d35d 89bd
000001f0: b717 1dbd 2abf 68bc a603 3abf f8c7 813e
00000200: 43ef 923e 36a9 b2bc d7f4 9cbc 82e6 f4be
00000210: 508b 803f c1a9 ba3d f9db 30bd 90c1 3cbd
00000220: 4e40 5bbf 2f80 97bc 35ba bbbd 9482 67be
00000230: 8325 8fbb c3f7 aa3c 8661 873d 16c4 103f
00000240: 164e 643e c323 b53d 4d46 c6bd 7f23 903e
00000250: a260 d13d 1bd1 3dbd d5bf 6a3d 19a1 9fbc
00000260: 11f9 533e a160 9c3d 34ab 833d b2b5 43bd
00000270: fb4b 683f 37fd a23d b812 d53b 08ca d43e
00000280: c937 403d abc1 4dbd 3989 7b3d 3dc2 213d
00000290: 9290 4a3e b868 a63d 487f 5c3e 992f 8b3e
000002a0: a5d2 7d3d 2542 643e 4336 aa3e 3854 0c3f
000002b0: c5b5 86be 9e34 593d 1e3e 803f 741f 4f3e
000002c0: a89a b9bc 5d6c 5f3d d1ab 9f3d 0f77 a7bd
000002d0: 30b4 613e 1652 a2bd 98ea 323d d9f6 28bc
000002e0: 3883 0b3f b4d5 553d b7b2 14bd 0311 973c
000002f0: 6bf6 62bc ee31 ae3b 8d37 19bf 6f41 5b3e
00000300: a34b 963e eb67 b33d 815b a6bc ef20 b0bf
00000310: 35f4 a83f e4ea 063d 6473 d93b 5071 75bd
00000320: 6dc8 9bbf 3010 a8bc a1e1 1d3d 88ab bebe
00000330: 06ec 893d aeeb 473b f5f2 f8bc dd6d 123f
00000340: 6084 b23e fa4b bb3d 8ae7 733a 280d 183e
00000350: e1b7 873d 5f2d 56bd 615f 63bd c1d9 b63c
00000360: bb83 83bd ddfc 753c 2168 1cbd 7d70 5e3d
00000370: 07ed 7c3f cdd6 b8bd 025b 8a3d 2861 033f
00000380: 3cad b43d ce56 22bd 1def 533d cd73 9e3f
00000390: c042 5c3e 98d7 8fbd e0ba 863e 161e a33e
000003a0: d217 a93d c0cc b93d b87b 653e 2482 073f
000003b0: e068 92be bddf 8fbd 5e62 7b3f df4c c6bb
000003c0: 21b8 8abe a558 ab3d a7e1 93bc 73c6 123d
000003d0: cec3 d7bd 485b 9e3d a350 c3bd 5030 a23d
000003e0: ce0e 833f b6f6 0cbd 099d bbbd ac9a 93bd
000003f0: b878 56bc ff64 c8bb 8d9d 07bf b8fe 06bc
0.27883583 0.08542504 0.08278328 -0.4681948 1.044649 -0.04306408 0.050988257 0.06224077
-1.166877 -0.085912526 0.08556418 -0.56421983 -0.07859763 -0.09707453 -0.06796825 0.8038523
0.18011487 -0.090972275 0.047505915 0.2665858 -0.05157873 -0.023355855 0.08042741 -0.090109155
0.4635134 0.033746134 0.067992285 0.05155611 1.0087389 -0.050746366 0.0652549 0.37940958
-0.08270136 -0.06824547 0.013840901 -0.22352508 0.19474453 -0.04804576 0.28331605 0.27995244
-0.081673525 0.17543112 0.2635929 0.13065895 -0.26030296 -0.06137757 0.92686564 0.046502013
0.103528656 -0.037496682 0.0056504356 -0.023136962 0.24104626 -0.0746285 0.042662006 -0.084219374
0.6976052 -0.031103987 0.0337426 -0.028693318 -0.009097666 -0.043041702 -0.55969006 0.20231985
0.24702103 0.06570893 -0.049640644 -0.1678974 1.069899 -5.559427e-05 -0.07645156 -0.0617581
-0.8483407 0.108992666 -0.11307869 -0.18614365 0.017752089 -0.044219706 0.0061719664 0.6432986
0.15214023 -0.079784706 -0.045344338 0.25683063 0.00080863986 -0.066409424 -0.031364396 -0.013693374
0.2519285 -0.025013776 0.022202745 0.08314848 0.9216881 0.045278393 -0.011483432 0.2593295
0.029529952 0.083077796 0.05575959 -0.07561987 0.18293282 0.10006488 0.264271 0.31155804
0.08544128 0.340288 0.3061241 0.42908865 -0.21534358 0.068923526 0.99953425 0.10487809
-0.038833827 0.04037246 0.086088635 -0.01876866 0.34936252 -0.021130491 -0.077935345 -0.010276863
0.64019364 -0.025073392 -0.03522832 -0.06707349 -0.038352694 -0.014205733 -0.7266182 0.25347877
0.28698167 -0.021809202 -0.019159717 -0.47832114 1.0042515 0.09114409 -0.043178532 -0.046083033
-0.85644996 -0.01849374 -0.091663755 -0.22608405 -0.0043684854 0.020870095 0.06610398 0.56549203
0.22295412 0.08844712 -0.096813776 0.2815208 0.10223509 -0.046341997 0.05731185 -0.019485997
0.2070048 0.07635618 0.06429139 -0.0477807 0.90740937 0.07958453 0.0065024756 0.41560388
0.0469282 -0.050233524 0.061410163 0.03949188 0.19781712 0.08125442 0.21532929 0.27184752
0.061968464 0.22290857 0.33244523 0.5481601 -0.26310554 0.053028695 1.0018957 0.20226842
-0.022656754 0.054546703 0.07796443 -0.081770055 0.22041392 -0.07925813 0.043680757 -0.010312759
0.544971 0.052205756 -0.03630325 0.018440729 -0.013852696 0.0053160107 -0.5985039 0.2141168
0.2935458 0.08760055 -0.020307304 -1.376005 1.3199526 0.032938853 0.00663607 -0.059922516
-1.217054 -0.020515531 0.038545255 -0.37240243 0.06734471 0.0030505466 -0.030389288 0.5719889
0.3486662 0.09145351 0.00093042164 0.14848769 0.06626869 -0.052289363 -0.055510882 0.02232063
-0.0642161 0.015013901 -0.038185243 0.054306496 0.98799175 -0.09025345 0.067556396 0.51320124
0.08822104 -0.039633565 0.051741708 1.237909 0.21509838 -0.07023543 0.2631445 0.3185889
0.082564965 0.09072256 0.22410476 0.52932954 -0.28595638 -0.070250966 0.9819697 -0.006051644
-0.27093604 0.08366517 -0.018051935 0.035833787 -0.10535394 0.07732254 -0.095368646 0.07919371
1.0238893 -0.03441497 -0.091608115 -0.07207236 -0.013090305 -0.0061155553 -0.5297478 -0.008239441

fc.4.bias f4 [8]
00000000: 14ce b13d b6b7 f93d 69dd 153e 5335 753e
00000010: 4c57 313e f4de 383e aa00 dd3d c09f 0e3e
0.086818844 0.12193243 0.14635243 0.23946123 0.17318457 0.180538 0.10791142 0.13928127
