target_net_10000.pth (torch, 23202 bytes, 6 tensors)

fc.0.weight f4 [64, 6]
0	0x3e0372de	0.12836787
1	0xbb86205a	-0.004093212
2	0xbdbd86e2	-0.092542425
3	0x3e21fa87	0.15818225
4	0xbed7166c	-0.42009294
5	0xbef02a4c	-0.4690727
6	0xbd0c1d3c	-0.034207568
7	0xbde58afe	-0.11208151
8	0x3d7e1557	0.06203207
9	0x3fc1f031	1.5151426
10	0x3b83f4da	0.0040269913
11	0xbbf7b23f	-0.0075590904
12	0xbe103ba0	-0.14085245
13	0x3d4409e9	0.047861014
14	0xbdda0f6c	-0.10647473
15	0x3e2bd307	0.1677972
16	0xbecdddd2	-0.40208298
17	0xbe96d121	-0.29456428
18	0x3dbfd3a8	0.09366542
19	0xbe788c4c	-0.24272269
20	0xbd3b7c39	-0.045772765
21	0x3e3a54bc	0.18196386
22	0x3c24da79	0.010061854
23	0xbd99d27e	-0.07510851
24	0xbd809e0d	-0.06280146
25	0x3e7a38fb	0.24435799
26	0xbc7a1565	-0.01526389
27	0xbdfe1a55	-0.12407366
28	0xbe32b787	-0.17452823
29	0x3e290fb2	0.16509894
30	0xbf2e759d	-0.68148214
31	0xbd0985b4	-0.033574775
32	0x3f3b82e3	0.7324659
33	0x3d90cd67	0.070704274
34	0xbb6e0fbf	-0.0036325303
35	0xbc80211e	-0.015640792
36	0x3e38a859	0.1803297
37	0x3ef2ecdb	0.4744633
38	0xbed968f2	-0.4246288
39	0x3df9de2c	0.12200579
40	0x3daebe0e	0.08532344
41	0x3d9107ad	0.07081542
42	0x3e41610d	0.18884678
43	0x3e89f7b3	0.26946792
44	0xbedbe6a6	-0.42949408
45	0x3f2ffc00	0.68743896
46	0xbcbc9700	-0.023021221
47	0x3e0f4504	0.13991171
48	0xbdc014e4	-0.093789846
49	0xbe22ed9d	-0.15910955
50	0x3dc50491	0.096200116
51	0x3d123f65	0.03570499
52	0xbe3eb57e	-0.18623921
53	0x3e5a7886	0.21335039
54	0x3b83a16c	0.0040170457
55	0x3e1ed438	0.15510643
56	0xbb59dee5	-0.0033244428
57	0xbd1ab604	-0.03777124
58	0xbe076837	-0.13223349
59	0x3e07bdc4	0.13255984
60	0xbe43b935	-0.1911362
61	0x3e2c5938	0.16830909
62	0xbeed6325	-0.46364704
63	0xbdc4b598	-0.09604949
64	0xbdf3198e	-0.118701085
65	0x3e68703d	0.22699066
66	0xbd229c41	-0.039699797
67	0x3eb66e5a	0.35631067
68	0x3f232e09	0.6374212
69	0x3da9fb85	0.08299927
70	0xbc764b94	-0.015032668
71	0x3d08c5d8	0.033391804
72	0x3e864704	0.26226056
73	0x3e5372fd	0.20649333
74	0xbca35045	-0.019935736
75	0x3f7d927e	0.99051654
76	0x3dd32f0f	0.1031171
77	0xbe8f0bf9	-0.27938822
78	0xbed1b0e0	-0.40955257
79	0xbdd23d62	-0.10265614
80	0xbef8ac35	-0.48568884
81	0xbc861bd7	-0.016370697
82	0xbe4102c9	-0.18848719
83	0x3de287ed	0.11061082
84	0xbde8b7a5	-0.113631524
85	0x3eb68d67	0.35654756
86	0xbd9b7593	-0.07590785
87	0x3f2a6110	0.66554356
88	0xbeee67a1	-0.46563438
89	0x3e6b64a6	0.22987613
90	0x3eade0b7	0.33960506
91	0x3f8dee72	1.1088393
92	0xbe851d6a	-0.25999004
93	0xbe96d33e	-0.2945804
94	0xbcd3f962	-0.02587575
95	0x3e067439	0.13130273
96	0xba3cc3d3	-0.0007200811
97	0x3f0b0a81	0.543129
98	0xbe5f5976	-0.2181147
99	0x3e8bfb0b	0.27339968
100	0xbeb132f2	-0.3460918
101	0x3f0eb44f	0.5574388
102	0x3e76ee28	0.24114287
103	0x3e2bb288	0.16767323
104	0xbdc8748b	-0.09787854
105	0xbe7d1d16	-0.24718127
106	0xbebe4581	-0.37162402
107	0xbeffa6b0	-0.4993186
108	0xbe0bde18	-0.13658941
109	0x3db0096e	0.085955486
110	0xbe8cc8cf	-0.27496955
111	0xbf4e47a3	-0.8057806
112	0x3de31d13	0.1108953
113	0xbedeeff8	-0.43542457
114	0x3d882197	0.06647032
115	0xbd6ad523	-0.05733217
116	0xbd48fe88	-0.049070865
117	0xbf20c67e	-0.62802875
118	0x3e134ac5	0.14383991
119	0xbe794a09	-0.24344648
120	0x3e340df0	0.17583442
121	0xbf1f4a33	-0.62222594
122	0x3ec3d435	0.3824784
123	0x3f1ba30a	0.6079565
124	0xbb02bdfe	-0.001994967
125	0xbb28cad9	-0.0025755672
126	0xbcc944ff	-0.024569033
127	0xbf0871b1	-0.5329848
128	0xbd56a809	-0.052406345
129	0x3e661399	0.22468413
130	0xbebb8497	-0.36624596
131	0xbefe7bc2	-0.49703795
132	0xbcb7e1e3	-0.022446578
133	0xbbc89847	-0.0061216685
134	0xbeb78fb1	-0.35851815
135	0x3e202fca	0.1564323
136	0xbf0dd4b1	-0.55402666
137	0xbef555b9	-0.47916964
138	0x3dad17d7	0.08451813
139	0x3e9ce677	0.3064458
140	0xbd4d95a6	-0.050191544
141	0xbe95b52c	-0.29239786
142	0x3eb7d93e	0.3590793
143	0xbd5bd58c	-0.05367045
144	0xbdd4a5ee	-0.10383211
145	0x3ea35b81	0.3190575
146	0x3dc92d4a	0.09823091
147	0x3e806375	0.2507588
148	0xbb463030	-0.0030241124
149	0xbbdfc610	-0.006829031
150	0x3c8017ce	0.015636351
151	0x3f1e2793	0.61779135
152	0xbe772269	-0.2413422
153	0xbd4207a9	-0.047370587
154	0xbe06c87b	-0.13162415
155	0xbd0986ae	-0.033575706
156	0xbd937135	-0.07199327
157	0xbd05ba3e	-0.032648318
158	0xbd0fb784	-0.035087124
159	0x3d4a24a1	0.04935134
160	0x3c5844fb	0.01320004
161	0x3daa11bf	0.08304166
162	0xbe567c2c	-0.20945805
163	0x3e2ae76b	0.16689841
164	0xbe1685a2	-0.14699414
165	0xbbbe1324	-0.0058006216
166	0x3e339400	0.17536926
167	0x3d97cca5	0.0741208
168	0x3f12ede5	0.5739425
169	0x3ca80fd8	0.020515367
170	0xbe9e7f97	-0.30956718
171	0x3e12bc0d	0.14329548
172	0x3e950f60	0.29113293
173	0x3e14e6d6	0.14541182
174	0x3e28b902	0.16476825
175	0xbdd3b2bf	-0.103368275
176	0xbdd46d98	-0.10372466
177	0x3e221006	0.15826425
178	0xbecc0ba4	-0.3985263
179	0xbefbae0f	-0.49156234
180	0xbf1a20c2	-0.60206234
181	0x3ecbdf8d	0.39818993
182	0x3f22f5c9	0.6365629
183	0xbecae137	-0.3962495
184	0x3a5c2311	0.0008397559
185	0x3bcb1344	0.006197365
186	0xbdd51bee	-0.10405718
187	0x3b6ef3fe	0.0036461349
188	0xbe758dfc	-0.23979944
189	0xbe133371	-0.14375092
190	0xbddf3c76	-0.10900204
191	0x3e38e7de	0.180572
192	0xbe97e553	-0.29667148
193	0xbf242bd6	-0.6412939
194	0x3ed24a27	0.410722
195	0x3eaea85f	0.34112832
196	0x3cbf14c3	0.02332533
197	0x3e0a42b2	0.13502005
198	0x3ecd31de	0.40077108
199	0x3d419bda	0.047267772
200	0xbe9670a3	-0.2938281
201	0xbe7938d9	-0.24338092
202	0x3c0a9c0e	0.008460058
203	0x3e034e12	0.1282275
204	0xbf13f2df	-0.57792467
205	0xbead1cae	-0.33810943
206	0x3e4375c0	0.19087887
207	0xbd035c2b	-0.03207032
208	0x3d3ce0f8	0.046112984
209	0xbbc6ad92	-0.0060631717
210	0xbe695529	-0.22786392
211	0x3db87924	0.09007481
212	0xbdf6259c	-0.12018892
213	0xbddd20d4	-0.10797277
214	0xbe64a226	-0.2232748
215	0xbe6b846e	-0.22999737
216	0xbc2be56a	-0.010491708
217	0xbe80c903	-0.2515336
218	0x3a8c8278	0.0010720035
219	0x3f7d4785	0.98937255
220	0x3d16a8e3	0.036782157
221	0xbcf9ed2f	-0.030508606
222	0x3ebaaaf6	0.36458558
223	0xbf00ce9c	-0.5031526
224	0x3eaf835d	0.3427991
225	0xbdf41bc9	-0.11919362
226	0xbe1d74ae	-0.15376541
227	0x3e118150	0.14209485
228	0x3eb03877	0.3441808
229	0x3e6eca89	0.23319449
230	0x3ed596e6	0.4171669
231	0x3d23c9eb	0.039987486
232	0xbda61cff	-0.08110999
233	0x3cc0d849	0.023540633
234	0xbd7467f1	-0.05966944
235	0x3e457d64	0.19286114
236	0x3b45f550	0.0030206032
237	0xbe164159	-0.14673366
238	0xbe025854	-0.12729007
239	0x3e2516ca	0.16121975
240	0xbe3c5d2a	-0.18394914
241	0xbe7ab33d	-0.24482436
242	0xbe36465d	-0.17800279
243	0x3daff88f	0.08592331
244	0x3e573300	0.21015549
245	0xbbc07714	-0.00587357
246	0xbd8929da	-0.06697436
247	0xbe226de6	-0.15862235
248	0xbe23967b	-0.15975372
249	0xbdf3c0ce	-0.11902009
250	0x3d92fed5	0.071775116
251	0xbd427f2a	-0.047484554
252	0xbdbd9113	-0.09256186
253	0x3ea8dd76	0.3298146
254	0x3ed90f76	0.42394608
255	0xbf386ab5	-0.7203782

fc.0.bias f4 [64]
0	0xbddc65f5	-0.10761634
1	0xbedd3981	-0.43207934
2	0x3eca12f2	0.3946758
3	0xbe7baf0d	-0.24578495
4	0xbe69e72d	-0.22842093
5	0x3b9beea0	0.004758671
6	0x3ee2497f	0.44196698
7	0x3db0185f	0.085983984
8	0xbe7330e9	-0.23749126
9	0xbd9a060a	-0.07520683
10	0xbcaaf3a0	-0.020868123
11	0xbe970fa3	-0.29504117
12	0x3d8adf27	0.06780844
13	0x3ddbdb5a	0.10735197
14	0x3ea822eb	0.3283914
15	0x3e1b2bfe	0.151535
16	0x3d5f4531	0.054509345
17	0xbc8d9c43	-0.017286425
18	0x3dc73967	0.097277455
19	0xbd1b3183	-0.037889015
20	0xbe134682	-0.14382365
21	0x3e3683f7	0.17823778
22	0xbc4fa14a	-0.012672732
23	0x3efe8bce	0.49716038
24	0x3f167bee	0.5878285
25	0x3eb830d0	0.3597474
26	0xbd89840b	-0.06714638
27	0xbe02d9cf	-0.127784
28	0x3de60e09	0.11233146
29	0x3d5c557d	0.053792465
30	0xbbc5ee37	-0.0060403603
31	0xbdc2bade	-0.09508298
32	0xbd9fdcbc	-0.078057736
33	0x3ed7c970	0.42145872
34	0x3e998e89	0.29991558
35	0xbdb5e6d3	-0.08881917
36	0x3e44291b	0.19156305
37	0xbe767db5	-0.24071391
38	0xbe827361	-0.25478652
39	0xbe5bebab	-0.21476619
40	0xbe39a351	-0.18128707
41	0xbe67c4d0	-0.22633672
42	0xbd92ee0a	-0.071743086
43	0xbd11cd6d	-0.0355963
44	0x3e3ea184	0.18616301
45	0x3e9a4c17	0.30136177
46	0x3e9d4291	0.3071485
47	0xbe3c52d3	-0.1839097
48	0xbf1039cb	-0.56338185
49	0x3cbbfb74	0.02294705
50	0xbe2d68f7	-0.16934572
51	0xbdbc2b0c	-0.09187898
52	0xbe0e45f2	-0.1389387
53	0x3eed482a	0.4634412
54	0xbde907b1	-0.1137842
55	0x3e85a42a	0.2610181
56	0xbe993b53	-0.29928073
57	0x3e53fc1f	0.20701645
58	0xbe46102e	-0.1934211
59	0xbe694a04	-0.22782141
60	0xbdea8983	-0.114520095
61	0xbe5520f4	-0.20813352
62	0x3b4fc7a3	0.0031704686
63	0xbe11c03b	-0.14233486

fc.2.weight f4 [64, 64]
0	0x3ea8fc87	0.33005163
1	0xc0a53d30	-5.163719
2	0x3f21f712	0.63267624
3	0xbd438c1d	-0.047741044
4	0x3d83163e	0.06400727
5	0xbfa32c20	-1.2747841
6	0x3ed4f742	0.41594893
7	0x3ed6b870	0.4193759
8	0xbcec4fe0	-0.028846681
9	0xbdb59cb3	-0.08867779
10	0x3eda502c	0.4263929
11	0xbf5fc962	-0.8741666
12	0x3e068604	0.1313706
13	0x3db12901	0.08650399
14	0x3f2d4cc2	0.6769525
15	0x3eadcdf4	0.33946192
16	0x3f08d413	0.534486
17	0x3e30b20b	0.17255418
18	0x3cbe201a	0.023208667
19	0x3ec58535	0.3857819
20	0xbf5baf01	-0.8581391
21	0x3ed5322b	0.41639838
22	0x3f338786	0.7012867
23	0x3f0f576e	0.5599278
24	0x3ee79015	0.45227113
25	0x3eeba528	0.46024442
26	0x3d90e4e3	0.07074907
27	0x3d14b154	0.036301926
28	0x3e0afaf4	0.13572294
29	0x3ed95ae8	0.42452168
30	0xc059dd62	-3.4041371
31	0xbd4a513f	-0.04939389
32	0x3c584c65	0.013201808
33	0x3e62ed17	0.22160755
34	0x3ee5b51a	0.44864732
35	0xbc6a9faa	-0.014320293
36	0xbe2eae7c	-0.17058748
37	0xbedca11d	-0.4309167
38	0xbeb0721e	-0.34462065
39	0xbcfa0c82	-0.030523542
40	0xbd9a52af	-0.07535302
41	0x3d925d04	0.071466476
42	0xbe0124e3	-0.12611727
43	0x3de226eb	0.11042579
44	0xbec55abc	-0.38545787
45	0xbe20e195	-0.15711053
46	0x3dcb9be3	0.099418424
47	0xbd987ea0	-0.07446027
48	0xbfcae83b	-1.5852121
49	0x3dea00ac	0.114259094
50	0xbdb83830	-0.08995092
51	0xbd98ece6	-0.0746706
52	0xbd407820	-0.04698956
53	0x3ed5fde3	0.41795263
54	0xbcc7fe9c	-0.0244134
55	0x3efd007c	0.49414432
56	0xbf55c504	-0.83503747
57	0xbec73d80	-0.38914108
58	0x3d58ca65	0.052927393
59	0xbd93f8ea	-0.07225211
60	0xbf0110fd	-0.5041655
61	0x3d0cc33f	0.03436589
62	0xc066c1c3	-3.6055763
63	0xbe1a0da6	-0.15044269
64	0xbeaafd76	-0.333965
65	0x3ff81e72	1.9384291
66	0x3de17dda	0.110103324
67	0xbd03434b	-0.032046597
68	0xbd7a73dd	-0.061145652
69	0x400df73d	2.2182152
70	0xbea5a487	-0.32352087
71	0xbed3a69b	-0.41338047
72	0x3d44cad3	0.04804499
73	0x3d6a49f8	0.05719945
74	0xbdfb3106	-0.1226521
75	0x3f0d882d	0.5528591
76	0x3dd5134c	0.10404071
77	0x3d511c86	0.051052593
78	0x3d15305c	0.036423072
79	0xbdaca54c	-0.084299654
80	0xbf05088b	-0.5196616
81	0xbe7b6825	-0.24551447
82	0xbeb2e5ca	-0.3494094
83	0xbf56a969	-0.8385225
84	0x3f0defb6	0.55443895
85	0xbf0d87e6	-0.5528549
86	0xbe7eb2b1	-0.24872853
87	0x3d6d823f	0.05798554
88	0x3e420148	0.18945801
89	0xbd73acf9	-0.05949113
90	0x3ce0bec9	0.027434723
91	0xbd99e8cc	-0.075151056
92	0xbdaa242f	-0.08307683
93	0xbef7d268	-0.48402715
94	0x401e721c	2.4757147
95	0x3ce1eaea	0.027577836
96	0xbe98ca1b	-0.29841694
97	0xbd48170f	-0.048850115
98	0xbf165156	-0.5871786
99	0x3cbf4991	0.023350509
100	0xbe9fc5a7	-0.31205484
101	0x3ea413e1	0.32046416
102	0x3f2372a6	0.63846815
103	0x3cd92ce9	0.026510673
104	0x3d46b200	0.048509598
105	0xbd20d7a7	-0.039268162
106	0x3e4af889	0.19821371
107	0xbf823082	-1.0171053
108	0xc00b2541	-2.1741488
109	0x3e8f8ad6	0.2803561
110	0xbed2d903	-0.41181192
111	0x3d583d86	0.05279305
112	0x3fb577e7	1.4177216
113	0x3f0d3ba4	0.5516913
114	0xbeab1afa	-0.3341902
115	0x3cfa3390	0.030542165
116	0x3d23187c	0.039818272
117	0x3e3f08b0	0.18655658
118	0x3d08692e	0.033303432
119	0xbec5e2a5	-0.3864948
120	0x3ee51c5e	0.44748205
121	0xbeaa3217	-0.3324134
122	0xba895125	-0.0010476453
123	0x394471bf	0.0001873439
124	0xbe04cbee	-0.12968418
125	0xbc223cef	-0.009902223
126	0xbfbc7ae5	-1.4725004
127	0x3e5d488f	0.2160971
128	0x3d2c4115	0.042054255
129	0xbda09ca7	-0.07842379
130	0x3d13acad	0.03605335
131	0xbd3e51fc	-0.046464905
132	0x3d894d52	0.06704201
133	0xbd3479d6	-0.044061504
134	0xbd453092	-0.048142023
135	0x3ccbe5ea	0.024889905
136	0xbae50b50	-0.0017474685
137	0xbc51e6e0	-0.012811393
138	0x3cf663a4	0.03007681
139	0xbbb42d1c	-0.0054985415
140	0xbdaf7798	-0.085677326
141	0xbd786a5f	-0.06064832
142	0xbd40333e	-0.04692387
143	0x3d113daf	0.035459217
144	0xbd0327ca	-0.032020368
145	0x3c1437b5	0.009046485
146	0xbd9a106b	-0.07522663
147	0xbd9e8282	-0.07739736
148	0xbd6b5895	-0.057457525
149	0x3d553a64	0.05205764
150	0x3bb5f08a	0.005552356
151	0xbc0b84ae	-0.00851552
152	0xbdabedeb	-0.083949886
153	0x3cc8da2d	0.024518097
154	0x3d800148	0.062502444
155	0x3d95e19f	0.073184244
156	0xbd5205df	-0.05127513
157	0xbd78475c	-0.06061493
158	0x3df5acdd	0.11995862
159	0xbd71db9e	-0.059047334
160	0x3d8cf186	0.068820044
161	0xbc1ab899	-0.009443426
162	0xbdc9302c	-0.09823641
163	0x3d945ec6	0.07244639
164	0xbc4f0342	-0.012635054
165	0xbd55a6a6	-0.05216088
166	0x3d1db5fa	0.038503624
167	0xbb373caa	-0.0027959743
168	0xbd840f28	-0.06448203
169	0xbd599fb2	-0.053130813
170	0xbdc79c98	-0.09746665
171	0x3d18d3fe	0.037311547
172	0x3c9a49cd	0.01883402
173	0xbd8f05de	-0.06983541
174	0xbd9f08e1	-0.077653654
175	0xbcffcad4	-0.031224646
176	0xbd6cc3a5	-0.05780377
177	0xbdaeea4c	-0.08540782
178	0x3d452627	0.048132088
179	0x3d85265a	0.065014556
180	0x3d46b91c	0.048516378
181	0x3c16d688	0.009206422
182	0xbd87e11e	-0.066347346
183	0xbda6d59f	-0.08146214
184	0xbc07ae92	-0.008281367
185	0x3cf4eb13	0.029897248
186	0xbd04b8ae	-0.032402687
187	0xbd8002be	-0.06250523
188	0x3d160718	0.03662786
189	0x3d6a44ba	0.05719445
190	0x3cd0d483	0.025491958
191	0xbce0d3e8	-0.027444795
192	0x3e905de5	0.28196636
193	0xc0933650	-4.60038
194	0x3e1df9bf	0.15427302
195	0x3d008a93	0.031382155
196	0x3d933e68	0.071896374
197	0x3e2d0608	0.16896832
198	0x3e684c52	0.22685364
199	0x3e93ac3a	0.28842336
200	0x3d7b56ac	0.061361954
201	0xbc5f4205	-0.01362658
202	0xbdbebcb7	-0.09313338
203	0xbe4bdbec	-0.19908112
204	0x3e1c47f7	0.15261827
205	0x3e0627c0	0.13101101
206	0x3f3136d5	0.6922429
207	0xbeae2c94	-0.34018385
208	0x3f2d5393	0.6770565
209	0xbf0f26a5	-0.5591834
210	0xbf96af66	-1.1772277
211	0xbfde02bd	-1.7344586
212	0xbe9b68f4	-0.3035351
213	0x3d7ed6b7	0.062216487
214	0x3ed633d9	0.41836432
215	0xbe215221	-0.15753986
216	0x3ead1eb3	0.33812484
217	0x3e13c215	0.14429505
218	0xbcfb3a2a	-0.030667383
219	0xbd9768a4	-0.073930055
220	0xbe5ba314	-0.21448928
221	0x3de6a055	0.1126105
222	0xc0087419	-2.132086
223	0xbd4c1b1e	-0.04983055
224	0x3efa89d0	0.48933268
225	0xbe021730	-0.12704158
226	0x3f1793a9	0.59209687
227	0xbd26bf07	-0.04070952
228	0x3eeb6314	0.45974028
229	0xbf1a547c	-0.6028516
230	0xbd54925c	-0.05189739
231	0x3d7de6da	0.061987735
232	0xbd0f10ed	-0.03492825
233	0xbd7a9df2	-0.061185785
234	0xc008bc80	-2.1365051
235	0x3e2d1039	0.1690072
236	0xbfb637d4	-1.4235787
237	0x3e9bbced	0.30417576
238	0xbf7c51e6	-0.9856247
239	0xbce95935	-0.02848492
240	0xbe5cff2e	-0.21581718
241	0xbf4c9d1c	-0.7992723
242	0xbca7234f	-0.020402579
243	0xbd700a7d	-0.058603752
244	0xbd386494	-0.045017794
245	0x3e7a90a8	0.24469244
246	0xbd1d98f1	-0.038475934
247	0x3f07b6c0	0.5301323
248	0xc00c31ca	-2.190539
249	0xba1a1070	-0.0005877083
250	0xbc6d6f7e	-0.014491914
251	0x3d691421	0.056903962
252	0x3dcc3265	0.099705495
253	0xbcb789f5	-0.02240465
254	0xc0d6936d	-6.7054963
255	0x3de73677	0.11289685

fc.2.bias f4 [64]
0	0x3ef23917	0.4730918
1	0x3d428bac	0.047496483
2	0xbbe52143	-0.0069924905
3	0x3e432532	0.19057158
4	0xbd1ea141	-0.038728002
5	0x3ed23144	0.41053212
6	0xbcb254df	-0.021768985
7	0x3edb1d7f	0.4279594
8	0x3ef8bf7c	0.4858359
9	0xbda2092e	-0.07911907
10	0x3ef66971	0.4812732
11	0xbd96b9f2	-0.07359685
12	0xbc38cb01	-0.011278869
13	0xbc8b1856	-0.016979378
14	0xbd99a4fd	-0.07502172
15	0x3ef6dcc0	0.48215294
16	0x3f076c25	0.5289939
17	0x3f0d9724	0.5530875
18	0xbd7b5d2e	-0.06136816
19	0xbd873589	-0.06602008
20	0xbd85c1e0	-0.06531119
21	0xbd209fb7	-0.039214816
22	0x3ef9e1e3	0.4880515
23	0x3b2ec002	0.0026664739
24	0x3e12d119	0.14337577
25	0x3eb6d83d	0.35711852
26	0xbd0844d1	-0.033268753
27	0x3ea15e7f	0.31517407
28	0xbbb71fe8	-0.0055885203
29	0xbdab3016	-0.08358781
30	0xbd73e752	-0.059546776
31	0x3cdd22c3	0.026994115
32	0xbbcdea7b	-0.0062840558
33	0x3ef031a3	0.4691287
34	0xbd12e7c0	-0.035865545
35	0xbd64c245	-0.055849332
36	0xbc4968a3	-0.012293014
37	0x3c7d7aaf	0.015471145
38	0xbd99d041	-0.075104244
39	0xbcde2c9e	-0.027120885
40	0xbd189a3b	-0.03725646
41	0x3eac7366	0.33681792
42	0x3e63e299	0.22254409
43	0xbd227cc6	-0.039669774
44	0xbbc2d668	-0.0059459694
45	0x3e7c7d52	0.24657181
46	0x3ee3708e	0.4442181
47	0xbdd88607	-0.10572439
48	0xbda019cc	-0.0781742
49	0xbdedea78	-0.11616987
50	0x3eae13a1	0.3399935
51	0x3e9aeef8	0.30260444
52	0xbdb58b84	-0.08864501
53	0x3e703c2a	0.23460451
54	0xbdb28de4	-0.0871847
55	0xba96dd73	-0.0011510089
56	0xbca02927	-0.019550873
57	0xbd121677	-0.035665955
58	0xbdb3209d	-0.08746455
59	0xbbaf8551	-0.0053564687
60	0xbe12d8d0	-0.1434052
61	0xbd8cd4de	-0.06876539
62	0x3eeb18f6	0.4591748
63	0xbd48ba03	-0.04900552

fc.4.weight f4 [8, 64]
0	0x3f687a8a	0.9081198
1	0xbf703676	-0.938331
2	0xbd25b966	-0.040460013
3	0x3f3b16f4	0.730819
4	0x3d98aa38	0.07454342
5	0x3fc39d72	1.5282423
6	0x3c372233	0.011177587
7	0x3f46ea41	0.77701193
8	0x3fad3616	1.3532131
9	0x3cf50fb4	0.029914714
10	0x3efaddde	0.48997396
11	0x3d1d4c2d	0.038402725
12	0xbd4bd6da	-0.049765445
13	0x3d920b8b	0.07131108
14	0xbcce1f0f	-0.025161294
15	0x3f05a0ba	0.52198374
16	0x3ee52d30	0.44761038
17	0x3efaffb6	0.49023217
18	0xbd29cb2c	-0.041453525
19	0x3d36af2a	0.044600643
20	0xbd23608a	-0.03988699
21	0xbb4176be	-0.0029520239
22	0x3f3f30dc	0.7468393
23	0xbcb530e2	-0.022118036
24	0x3f108574	0.56453633
25	0x3f72305c	0.9460504
26	0xbcc38554	-0.023867287
27	0x3f9532eb	1.1656164
28	0x3c8e5a14	0.017376937
29	0x3d8fa3d2	0.07013668
30	0xbc37b192	-0.01121177
31	0xbd39ea12	-0.045389242
32	0xbd05f816	-0.032707296
33	0x3f709750	0.93980885
34	0x3cb31314	0.021859683
35	0xbda9b1de	-0.082858786
36	0xbcc54207	-0.024079336
37	0x3d519032	0.051162906
38	0x3dc35f68	0.09539682
39	0xbd7fc90a	-0.062447585
40	0x3ced6a8d	0.028981471
41	0x3f6b758e	0.9197625
42	0x3fc0f46f	1.5074595
43	0x3ccb7330	0.0248352
44	0xbf8c39ac	-1.09551
45	0x3f92f54a	1.1481106
46	0x3fb2e06a	1.3974736
47	0xbd29458c	-0.04132609
48	0x3c06b3ec	0.008221608
49	0xbd549e82	-0.051908977
50	0x3ea17ae2	0.31539065
51	0x3f184899	0.59485775
52	0xbd824e31	-0.0636257
53	0x3fa55b7e	1.2918546
54	0xbd0f5b92	-0.034999438
55	0xba9a5289	-0.0011773865
56	0x3d17e8c5	0.03708722
57	0x3ccf277a	0.025287379
58	0x3cbdc821	0.023166718
59	0xbc1bb850	-0.009504393
60	0xbfe12dba	-1.759208
61	0x3c9e0c2d	0.019292915
62	0x3f19075a	0.5977684
63	0x3cd25274	0.025674082
64	0x3f592bc8	0.8483243
65	0xbf94adb7	-1.1615514
66	0x3cbeefa7	0.023307635
67	0x3f90390b	1.1267408
68	0x398893c2	0.0002605003
69	0x3f9186e5	1.1369292
70	0xbcba0b1f	-0.022710381
71	0x3f4863a1	0.7827702
72	0x3f995798	1.1979856
73	0x3d4081cd	0.046998788
74	0x3f1c3cd7	0.61030334
75	0x3d6e0ed6	0.058119617
76	0x3d383a9a	0.04497776
77	0x3d3836da	0.044974186
78	0x3d8e79d7	0.06956833
79	0x3ee3c241	0.4448414
80	0x3eeac068	0.4584992
81	0x3efcea00	0.49397278
82	0xbc881c26	-0.016614985
83	0x3c7b4b7d	0.015337822
84	0x3c4a375f	0.012342303
85	0xbd3b2202	-0.04568673
86	0x3f451ace	0.76994026
87	0xbd30b3fe	-0.043140404
88	0x3fab4305	1.3379828
89	0x3f80ed3b	1.0072397
90	0x3d9af7df	0.07566809
91	0x3f8f1ecc	1.1181273
92	0x3cc7f503	0.024408823
93	0x3d4351d6	0.047685467
94	0x3d51ad80	0.051190853
95	0x3d1b6254	0.03793557
96	0x3c9700d3	0.01843301
97	0x3f8c50d7	1.096217
98	0x3d8e9b19	0.06963176
99	0x3d46b04a	0.048507966
100	0x3d0f7db5	0.035031993
101	0x3eb8c1ea	0.36085445
102	0x3d443782	0.0479045
103	0x3c894009	0.016754167
104	0xbc558b1c	-0.013033655
105	0x3f8eff65	1.117169
106	0x3fcf7687	1.6208047
107	0xbcd28f95	-0.02570323
108	0xc009a911	-2.150944
109	0x3f6fe180	0.9370346
110	0x3f9adbcb	1.2098325
111	0xbd453386	-0.04814484
112	0xbc800539	-0.01562749
113	0x3c2fda7d	0.010733244
114	0x3f5c529d	0.8606356
115	0x3f2e682c	0.68127704
116	0x3cf22673	0.02955935
117	0x3fc159c7	1.5105523
118	0xbd8c4eec	-0.06850991
119	0x3d69fd77	0.05712649
120	0x3b4417d3	0.0029921427
121	0x3c98324c	0.01857867
122	0x3d5500d9	0.05200276
123	0xbd1cc0ca	-0.038269795
124	0xbfca2d9a	-1.5795166
125	0xbd60ea7d	-0.054911125
126	0x3f13ed8a	0.5778433
127	0x3cae6423	0.021287983
128	0x3f69a1e7	0.9126267
129	0xbf88a52f	-1.067541
130	0x3d1cf6ce	0.03832131
131	0x3f7b016a	0.9804903
132	0xbd6a9bbf	-0.057277437
133	0x3f9db930	1.232214
134	0xbc12e898	-0.0089665875
135	0x3f74cd0d	0.9562538
136	0x3f88bd39	1.0682746
137	0xbcba6d06	-0.022757065
138	0x3f01828c	0.50589824
139	0x3991058d	0.0002766069
140	0x3b19f6cb	0.0023493047
141	0x3d275717	0.04085454
142	0x3d846657	0.06464832
143	0x3f03598c	0.5130851
144	0x3f07cb7f	0.53044885
145	0x3efe8f54	0.49718726
146	0x3d752804	0.059852615
147	0xbce82ffa	-0.02834319
148	0xbca6dc5f	-0.020368753
149	0x3d060770	0.032721937
150	0x3f43372f	0.7625608
151	0x3c9994b2	0.018747661
152	0xbd79929f	-0.060930844
153	0x3f84f73e	1.0387952
154	0xbc002698	-0.0078217015
155	0x3ef6fd1c	0.48239982
156	0xbc623468	-0.01380644
157	0x3cb34f29	0.021888332
158	0xbd92f6aa	-0.07175954
159	0xbd0b29d1	-0.033975426
160	0xbd03196e	-0.032006674
161	0x3f9eaf90	1.2397327
162	0xbd370f03	-0.04469205
163	0x3d1395e9	0.036031637
164	0xbd410025	-0.04711928
165	0xbea71428	-0.32632565
166	0x3c5c4b8f	0.013445749
167	0xbc86dffa	-0.016464222
168	0x3b08b27c	0.0020858338
169	0x3f8e3f2b	1.1113027
170	0x3fa36cfe	1.2767637
171	0x3c8ff07d	0.017570728
172	0x3e54663c	0.20742124
173	0x3f7d51a4	0.989527
174	0x3fb52a54	1.4153543
175	0x3d87ab23	0.066244386
176	0xbae9741a	-0.001781109
177	0xbcb2dd53	-0.021834051
178	0x3f842bf9	1.0325919
179	0x3f9a855e	1.207195
180	0x3aa7d70d	0.0012805179
181	0x3f5734de	0.84065044
182	0x3d80aa20	0.06282449
183	0x3c081137	0.008304886
184	0x3d9fbf86	0.07800202
185	0x3d6b4e4f	0.057447728
186	0xbc9619fa	-0.018322933
187	0xbc32b708	-0.010907896
188	0xc0708db4	-3.7586489
189	0xbc683ac9	-0.014174172
190	0x3ec446e7	0.38335344
191	0x3d0e0cd1	0.03468019
192	0x3f60cd92	0.87813675
193	0xbf4a93bb	-0.7913167
194	0xbd1084d2	-0.035282917
195	0x3f055ff8	0.5209956
196	0xbd52b502	-0.051442154
197	0x3f9da1b1	1.2314969
198	0xbd4bbc64	-0.04974021
199	0x3f56ef52	0.83958924
200	0x3f97708b	1.183122
201	0x3cea0e99	0.028571414
202	0x3eccb8a7	0.3998463
203	0xbcf521d9	-0.029923366
204	0xbbc48ad6	-0.005997996
205	0xbc5c763e	-0.0134559255
206	0x3d903e50	0.07043135
207	0x3ef1ba6e	0.47212547
208	0x3ecf0f6b	0.4044145
209	0x3ec91fe2	0.39282137
210	0xbb801e77	-0.0039098817
211	0x3c395699	0.01131215
212	0x3c6cec2a	0.014460603
213	0xbc9b52b2	-0.01896033
214	0x3f5e03e8	0.8672471
215	0xbc825b45	-0.015912661
216	0x3d9a720a	0.075412825
217	0x3f7abbcf	0.97942823
218	0x3d1acf72	0.03779549
219	0xbdc3b11d	-0.09555266
220	0x3c5db40b	0.013531695
221	0xbc277c14	-0.010222454
222	0xbd43611d	-0.047700036
223	0xbc015de9	-0.007895925
224	0xbd6934f7	-0.056935277
225	0x3f9ad94c	1.2097564
226	0xbcfd7d66	-0.030943584
227	0xbc539280	-0.012913346
228	0x3d9713ff	0.07376861
229	0xbeb9569d	-0.36198893
230	0xbd712431	-0.058872405
231	0xbd4ac818	-0.04950723
232	0xbbc6aee4	-0.006063329
233	0x3f98fabc	1.1951518
234	0x3fcb4cf4	1.5882859
235	0x3b83d5a9	0.004023273
236	0xbee40455	-0.44534555
237	0x3f9eb8c3	1.2400135
238	0x3fcdacd0	1.6068363
239	0xbcfc3aa2	-0.030789677
240	0x3d0351d1	0.032060448
241	0xbd986d87	-0.07442766
242	0x3f42918a	0.76003325
243	0x3fd7146f	1.6803111
244	0x3cd7b520	0.026331484
245	0x3f3ffec7	0.74998134
246	0x3d1f7eab	0.03893916
247	0x3c700f69	0.014652112
248	0xbd6b890e	-0.057503752
249	0xbd5607cc	-0.05225353
250	0xbaa1fe75	-0.0012359159
251	0xbd33fa5f	-0.043939944
252	0xbf8c5a45	-1.0965048
253	0x3d35dbf3	0.044399213
254	0x3ee3e960	0.44513988
255	0xbd024303	-0.03180219

fc.4.bias f4 [8]
0	0x3e5a69d5	0.21329434
1	0x3e8a1e34	0.26976168
2	0x3ed1d77c	0.40984714
3	0x3ea20d16	0.3165061
4	0x3e44d003	0.19219975
5	0x3ecc1865	0.39862362
6	0x3e680399	0.22657622
7	0x3e71e59e	0.23622748
