target_net_2500.pth (torch, 23192 bytes, 6 tensors)

fc.0.weight f4 [64, 6]
000000 ee 7b a9 3d f7 79 3e be eb 28 f9 3e d8 2b b1 3e
       0.08275591 -0.18601213 0.4866403 0.34603763
000010 1e 57 de be 65 e5 0f bf ad 27 b7 3c 19 29 13 be
       -0.4342584 -0.56209403 0.022357786 -0.14371146
000020 3d 9e db bd ff 9f 14 3f 81 a6 21 3e ef 24 c3 3d
       -0.10723541 0.58056635 0.15786172 0.09528529
000030 8b 51 fb 3d 75 69 00 3e 2f ab 01 3f 52 52 88 3e
       0.122714125 0.12540229 0.5065183 0.26625305
000040 9e e3 32 be 51 92 8f 3e d5 34 50 3e 79 21 57 be
       -0.17469642 0.28041318 0.20332654 -0.21008863
000050 b7 37 25 3e b3 b7 c1 3e 3e 2b 99 be 93 d8 32 3f
       0.16134535 0.37835464 -0.29915804 0.69861716
000060 32 41 08 be a3 3f 2d be 72 e9 31 3e 25 a6 cf 3e
       -0.1330612 -0.16918807 0.17374209 0.40556446
000070 3b 24 b3 be 99 1e ed be ce c7 9c 3e 98 b3 13 bf
       -0.3498858 -0.46312407 0.3062119 -0.57695913
000080 3c d5 5c be f2 94 0d 3f bd b9 01 3e fc 86 01 3e
       -0.21565717 0.553054 0.1266851 0.12649149
000090 02 63 3a 3d 50 f8 05 bd c2 7d 6a be 03 6a 5a 3f
       0.045504577 -0.032707512 -0.22899535 0.8531801
0000a0 39 e9 e7 bd 66 50 01 bd eb 43 8f 3d 3b 73 b3 be
       -0.113237806 -0.031570815 0.06995376 -0.3504885
0000b0 6c 5c f4 3e ba 8b 9a be 1b 98 d3 3d 55 2a 01 bf
       0.47726762 -0.30184728 0.10331746 -0.5045522
0000c0 42 02 d4 be 69 9a c5 3c 0c 9f 90 3e 1a 50 7a be
       -0.41407973 0.02412148 0.28246343 -0.24444619
0000d0 17 f2 24 3e 26 9a a0 3c 69 88 51 bc 6a e6 84 be
       0.16107975 0.019604754 -0.01278887 -0.25957042
0000e0 81 70 5c 3d ce bc e4 3d 46 a6 7a be f7 b0 e4 3c
       0.05381823 0.11168824 -0.24477491 0.027916415
0000f0 b9 d3 98 be 2b e1 4e 3e ec 3c 6c 3e 29 93 7b bf
       -0.29849032 0.20203082 0.23070115 -0.98271424
000100 04 85 9c 3e ab 33 a8 3e ab e9 df be d1 69 36 3f
       0.30570233 0.3285192 -0.43732962 0.71255213
000110 6a cd 11 3f fd bf 3b bf 69 0a cb 3d 2c 29 8d 3e
       0.5695406 -0.73339826 0.09914095 0.27570474
000120 1e 74 ee be d0 25 42 3d 4a fd cc 3d 18 0e 15 3e
       -0.46572965 0.047399342 0.100092486 0.14556158
000130 e2 b7 a8 3e 47 f1 4f 3e ff 46 4b 3e 5c ac a2 bb
       0.3295279 0.20306884 0.19851302 -0.0049643945
000140 e1 3c 4c be e1 81 b5 3e 2d 0b 97 bd fc 32 8c bf
       -0.19945098 0.35450652 -0.073751785 -1.0953059
000150 f7 1a 9b 3d 68 9e 1f 3e a0 48 d4 be df f4 27 3f
       0.075735025 0.15587771 -0.41461658 0.6560802
000160 bf 0d 88 be 93 7e 26 bd 84 cf 44 be 02 47 28 be
       -0.26572987 -0.040648054 -0.19219786 -0.16433337
000170 3b 2d 0e 3f 0e 30 28 3f 46 c8 b0 be 35 ed c2 be
       0.55537766 0.65698326 -0.34527797 -0.380716
000180 17 87 4f 3e a0 f7 02 bc ff c0 e9 3d ec 4f 05 bf
       0.20266376 -0.007993609 0.11413764 -0.52075076
000190 4e 96 0c bd 95 5e 23 3f 19 03 9b bd 19 3f 71 be
       -0.03432303 0.63816196 -0.0756895 -0.23559226
0001a0 86 02 a7 3e 88 4e 25 3f c8 51 4f 3e c3 5a 64 3e
       0.32619113 0.64572954 0.20246041 0.22300248
0001b0 7f 14 91 be a9 75 38 3d 39 96 69 3c a2 1e b2 be
       -0.2833595 0.045034084 0.014257007 -0.34788996
0001c0 7b 48 89 3d f4 24 a0 be 2c 20 f0 3d d1 be 54 3d
       0.06703278 -0.31278193 0.11724886 0.05193979
0001d0 c2 19 82 bd 6e 01 be 3d 56 d0 ed be 01 44 ed be
       -0.06352569 0.092776164 -0.4644801 -0.46340945
0001e0 39 b9 91 be 51 59 87 3e af ae 89 3d 58 24 82 be
       -0.28461626 0.2643533 0.067227714 -0.25418353
0001f0 56 90 9f 3e a3 1f 23 be 4e 56 81 be 91 f4 d5 bd
       0.31164807 -0.15930037 -0.25261158 -0.10447038
000200 7a 92 82 be 82 03 2c be 16 38 b2 be a9 45 66 be
       -0.25502378 -0.16798213 -0.34808415 -0.2248751
000210 58 91 14 3c 87 6d ec bb 04 ed c8 be e5 87 d7 3e
       0.009067856 -0.007215205 -0.3924333 0.42095867
000220 1d 1d 0b 3e 58 63 ba 3d 1d ce 73 bd 2b 47 20 3f
       0.13585325 0.091009796 -0.059522737 0.62608594
000230 b8 c3 85 be 9e 65 43 be f0 1f df 3d 2d 13 a2 bf
       -0.26125884 -0.19081733 0.108947635 -1.2662102
000240 d0 33 58 3e 20 46 40 be 54 37 b4 be 27 51 b4 be
       0.21113515 -0.1877675 -0.35198462 -0.35218164
000250 3e 63 d9 3e 10 05 75 3e 7d 1b 4a 3e b4 46 59 3c
       0.42458528 0.23927712 0.19737048 0.013261486
000260 57 cd 3a 3e fc 8d d4 be 43 c8 e5 be 04 2e bd 3e
       0.18242393 -0.41514575 -0.4487935 0.3694917
000270 51 7d 56 3e ad 35 ac be d4 11 21 bd aa 57 af 3e
       0.20946242 -0.336347 -0.039323643 0.3424657
000280 d7 27 95 3e ac 3f a8 3e dc 50 37 be 63 eb d4 be
       0.29131958 0.32861078 -0.17901939 -0.41585836
000290 f8 e9 49 be 55 d2 9f 3e d8 e5 43 be c8 c9 7b 3e
       -0.19718158 0.31215158 -0.19130647 0.24588692
0002a0 d3 36 e0 3d 37 f3 a5 3c 7a dd f2 be 16 68 5c 3e
       0.10947957 0.020257575 -0.47434598 0.2152408
0002b0 ed 51 dd 3d 99 dd ae 3b 27 d2 c1 3d 88 6b 7e 3d
       0.10806642 0.005336475 0.094639115 0.06211427
0002c0 8e 99 49 bc 18 76 dc 3e 0c df 28 3e 42 b5 d4 3e
       -0.012304677 0.43058848 0.16491336 0.4154454
0002d0 33 8d 76 3d ea 2d f2 be 8e d1 bc be 22 48 f4 3e
       0.06019325 -0.47300655 -0.36878628 0.47711283
0002e0 39 67 95 3e 76 2b 20 bf 64 b4 5c be 8f b8 8f 3e
       0.29180315 -0.62566316 -0.21553189 0.28070495
0002f0 2a f7 3b bf 89 92 28 3f 1b e7 d2 3e 22 f0 18 3f
       -0.7342402 0.65848595 0.41191944 0.59741414
000300 20 87 2d 3e 2d 19 95 3e 92 ea 33 bf f5 66 09 3f
       0.16946077 0.2912077 -0.702798 0.53672725
000310 51 30 ad 3e f3 a4 e1 3e db f4 e4 3d bf c7 f2 3c
       0.33825925 0.4407116 0.11179515 0.029636262
000320 50 94 b6 be 9f 5c 0c 3f e3 95 e1 bd c9 f3 d6 3e
       -0.35660028 0.5482883 -0.11014917 0.41982868
000330 9c 41 d2 be 73 b9 9c be 6c 67 4d 3e 42 7c 62 3e
       -0.4106568 -0.30610237 0.20058984 0.22117713
000340 3f df 11 3f 48 a4 fd be 60 ef 9b 3d d7 66 b4 3e
       0.5698127 -0.495394 0.076140165 0.3523471
000350 78 29 70 be ca f0 36 3d 9b 99 f1 3e 0b a3 03 3f
       -0.23453319 0.044663228 0.47187504 0.5142066
000360 2a 5b b6 be 99 81 1c 3e 58 7f 2e 3e b5 d6 ee 3e
       -0.35616428 0.15283813 0.17040765 0.46648183
000370 72 ca ae 3e 5e 1d 4c bd e6 3a 0b b9 a6 55 6b 3d
       0.3413883 -0.049832694 -0.00013278014 0.057454728
000380 9f 49 e3 3e 1c 7b b1 be be b6 ef be e9 95 d8 3e
       0.44392106 -0.34664237 -0.4681911 0.42301872
000390 98 a2 55 be ea d5 bb be 48 75 46 be fb 8a ac be
       -0.20862806 -0.3668664 -0.19380677 -0.33699784
0003a0 48 7f a7 3e 93 6d e5 be e2 e1 51 be d0 a7 b0 3e
       0.32714295 -0.4481016 -0.20496324 0.3450303
0003b0 d5 09 0e bf 17 ea ce 3e df 85 30 3e e0 aa 66 3e
       -0.5548375 0.4041297 0.17238568 0.22526121
0003c0 f7 b2 ce be 3c 03 cd 3e 02 6c b5 3e 17 4c 99 bf
       -0.40370914 0.4004153 0.35433966 -1.1976346
0003d0 1c 7b 6a ba 3e e0 17 bd 18 48 3f bd c0 f3 eb 3e
       -0.00089447363 -0.03707909 -0.046699613 0.46084404
0003e0 0e 48 1e 3f 93 99 97 3b 31 47 bb be b0 04 34 3f
       0.61828697 0.004626462 -0.36577752 0.7031965
0003f0 87 de c0 be 0b fb a4 bd 9f ef 04 3f 5c 1b c3 3e
       -0.37669775 -0.08055695 0.5192813 0.3810681

fc.0.bias f4 [64]
000000 58 ee 23 3e b7 5f 24 3e a6 d3 42 be 1f ad f9 bc
       0.1600889 0.16052137 -0.1902605 -0.030478058
000010 73 0a 5a 3e d6 5d 00 be 95 bb a2 3d 3a b5 29 3e
       0.21293049 -0.12535796 0.07945935 0.16573039
000020 e5 a8 ef 3d dc 84 68 bd cf 6a 2d 3c b6 a7 fc bd
       0.11702136 -0.05676733 0.010584547 -0.12336676
000030 f3 f4 cd 3d 8b cf 57 3d 63 46 88 3e 89 29 c9 3c
       0.10056486 0.052688163 0.266162 0.024555938
000040 3e c9 da bd 81 a4 29 be 2c 34 b4 be dd c2 94 3e
       -0.10682915 -0.1656666 -0.35196054 0.2905492
000050 60 55 bf be ce 4c d5 bd 86 11 19 bc e1 9c bc 3c
       -0.37369823 -0.1041504 -0.009342557 0.023024024
000060 8a 47 4c 3e c9 b3 86 3e 69 43 a2 bd 03 c8 69 3d
       0.19949165 0.2630904 -0.07923014 0.05707551
000070 c2 1a 34 3e c2 10 75 3d b6 c6 1e bd bf 93 46 3c
       0.17588332 0.059830435 -0.038763724 0.012120186
000080 ab 7d 3b be bf 47 87 3e a6 7c 67 be 89 5a 66 3b
       -0.18309657 0.26421925 -0.22606143 0.0035149178
000090 7e d2 60 3e 41 18 60 3e 30 f5 91 be 9e 56 c9 3d
       0.21955296 0.21884252 -0.28507376 0.09830974
0000a0 c4 99 11 3e 17 dc 0a be 22 8f 9b 3e 20 f1 e5 3d
       0.14218813 -0.1356052 0.3038264 0.112276316
0000b0 57 d7 f4 bd 5f 35 56 be b5 3a 40 3e 1d 74 a8 be
       -0.11955135 -0.20918797 0.18772395 -0.32901087
0000c0 ba 91 5e 3d fb ed 5f be d0 3d 91 be 66 68 13 3d
       0.054338194 -0.21868126 -0.28367472 0.035988234
0000d0 39 e2 7e 3d c4 94 15 3c c4 ee ae bd ea ea 93 be
       0.06222746 0.009129707 -0.08541635 -0.28890163
0000e0 20 37 5c 3e 74 d9 90 be 2c 0f c8 be cf d1 20 3e
       0.21505404 -0.28290904 -0.39074075 0.15705036
0000f0 21 ef 36 be 98 01 82 3c c6 bf a4 be ed 48 bd be
       -0.17864658 0.0158699 -0.32177562 -0.369697

fc.2.weight f4 [64, 64]
000000 b6 0a 05 3e d4 cd fa 3d 76 9f 0a 3e 44 c6 1d bd
       0.12992367 0.1224629 0.13537392 -0.03851916
000010 31 9c 09 3e 7a 02 2b bd ae 1b 4c 3e 43 87 2c 3e
       0.13438489 -0.04175041 0.19932434 0.16848473
000020 0d 73 ff 3d ed 54 54 bb 6d ba 6a bc 9c 3e ea be
       0.12473116 -0.0032399253 -0.014326674 -0.45750892
000030 e8 23 94 3c b8 a1 56 bd a8 59 2c bd bf c2 f9 3e
       0.018083528 -0.05240032 -0.04207769 0.48781392
000040 4d ea 6f bc 0a 6a cd 3e d6 76 54 bc ad b7 de bd
       -0.014643264 0.40119964 -0.012967786 -0.10874877
000050 4b d0 d6 3c 2f 04 a5 3d 77 69 f7 3e b5 50 0b be
       0.026222369 0.080574386 0.4832265 -0.13605006
000060 44 c6 4e 3d 26 e1 01 3d 29 66 51 3d 52 5f f0 bd
       0.05048205 0.03170886 0.05112282 -0.11736931
000070 f5 5e 01 3d 31 22 aa 3c f3 62 a0 3b b4 71 63 3f
       0.0315847 0.020768257 0.004894608 0.8884537
000080 19 3a 33 3f 65 8d 18 3e 30 88 ac be a5 40 b7 3d
       0.70010525 0.14897688 -0.33697653 0.08947877
000090 a3 c0 5d 3e 98 1b 61 bd e7 2d e5 bd 52 fb 89 3e
       0.21655516 -0.054957956 -0.11190396 0.26949555
0000a0 b4 d2 a5 bc e7 bb 42 3d 71 56 07 3e 9b e9 85 bf
       -0.020242073 0.04754248 0.13216569 -1.0461916
0000b0 20 38 b5 3e 4d 80 ae 3d db fe 8a 3d 5c b0 1a bf
       0.35394382 0.08520565 0.06786891 -0.60425353
0000c0 fc e2 02 be a6 45 81 bd 90 b6 3d bc ca 17 1b 3f
       -0.127819 -0.063121125 -0.011579171 0.60583174
0000d0 02 34 ed 3e 6c 37 ff 3d 95 28 b0 3d 54 59 b5 bd
       0.4632874 0.12461743 0.086014904 -0.088549286
0000e0 36 80 8d be 77 29 83 3e b9 9e e0 3e 4a cf ad bc
       -0.2763688 0.25617573 0.43871096 -0.021217007
0000f0 19 61 94 bd 7b 24 3a be 69 6e 59 3d 0d e4 80 3d
       -0.072450824 -0.18177979 0.05308381 0.06293497
000100 73 f1 7b be fc 0d 52 be 6a 7a 0b bf 05 97 47 bf
       -0.24603824 -0.20513147 -0.54483664 -0.7796481
000110 f6 da a0 be 9b 5f ff be 7b 24 e7 3d b1 0d 9d 3d
       -0.31417054 -0.4987763 0.11286255 0.07668627
000120 92 cd 91 3d 5e 51 88 bd 98 17 56 3e 59 20 85 3d
       0.071192876 -0.066561446 0.20907438 0.065003105
000130 73 ad 1b be 22 49 3f 3e b2 3c 1f 3e 40 07 06 bf
       -0.15202884 0.18680242 0.15550497 -0.5235481
000140 68 d3 42 3b 7d 08 43 bf 6d 60 ad bd 20 0d 3a 3e
       0.0029728059 -0.7618483 -0.084656574 0.1816907
000150 f4 77 dd 3d 19 93 ae bd 0a 3c 10 be 20 5b 62 3e
       0.10813895 -0.085241504 -0.14085403 0.22105074
000160 8d 73 80 3e 87 c4 70 3e ee 7f 2f be b9 33 ff 3d
       0.25088158 0.23512469 -0.17138645 0.12461037
000170 46 78 17 3e 8a 1b 1e be 2c 53 61 3d 6e c9 80 3d
       0.14791974 -0.15440193 0.05501096 0.0628842
000180 02 1b db bd d7 af e3 bd 29 ba 85 3c 5a a7 93 bc
       -0.10698511 -0.11117523 0.01632412 -0.018024135
000190 cf 9d 3d be 8a f9 49 ba a1 1b fb bd ca 03 9b bd
       -0.1851723 -0.0007704726 -0.12261129 -0.07569082
0001a0 93 55 b0 3e 56 23 3a 3c e0 87 cd be 70 1e b1 bf
       0.34440288 0.011360964 -0.40142727 -1.3837414
0001b0 cc d3 1e be ca 6a 4f bc 94 d2 9a 3e 6a ee af 3e
       -0.15510482 -0.012659738 0.30238783 0.34361583
0001c0 fd d6 bf 3d 5d fd a8 bd 63 97 8b 3c d0 de 18 be
       0.09367178 -0.0825145 0.01703996 -0.14928746
0001d0 cc 23 82 3d 55 e1 22 be 1b 69 77 3e 58 02 24 bd
       0.06354484 -0.1590627 0.24161188 -0.040041298
0001e0 f3 c5 a4 be 45 b1 32 be de c1 86 be 5b be 66 3e
       -0.32182273 -0.17450435 -0.26319784 0.22533552
0001f0 4c 6f 99 3d 6b 9a a1 3e d0 ae 90 bc d6 a2 d6 3d
       0.07491931 0.31563124 -0.017661482 0.10480277
000200 8c 46 00 bd b0 a1 98 bc 07 c2 81 bd 2d 82 2f 3d
       -0.03131728 -0.018631786 -0.06335836 0.042848755
000210 ba fe ba bd 75 8e 7e bd 05 2a c5 3c ce 1f a4 3b
       -0.091306165 -0.062147576 0.024067888 0.005008674
000220 fe 77 5d 3d d3 49 27 3d fe 42 86 bd 05 3d b6 bb
       0.05406951 0.04084189 -0.065557465 -0.0055614733
000230 1d 5b 31 bd 6e 2d b8 bd d5 fd 48 3d 95 60 c4 3d
       -0.043299783 -0.0899304 0.049070198 0.09588734
000240 b7 0f 78 3c 28 2a 5e bd 19 5f 0b bd 2c cd 3b bc
       0.015140465 -0.054239422 -0.03402624 -0.011462491
000250 51 75 17 3d 5b 68 dc ba e5 66 76 bd d2 ba 83 bd
       0.036977116 -0.0016815768 -0.06015672 -0.064321175
000260 03 af a4 bd 2d 1a e5 3c d1 e8 99 3d fe 03 be bd
       -0.08041193 0.027966583 0.07515109 -0.09278105
000270 a5 95 9e 3d 21 1b 8d 3a b7 ba 45 bd 9a ee ea 3c
       0.07743386 0.0010765531 -0.04827377 0.028678227
000280 40 4b c2 bd d7 58 5e bd 33 89 69 3d de 73 bb bb
       -0.09487009 -0.054283943 0.05701561 -0.0057205996
000290 3a 37 bd bd 3f 61 d6 bc b4 fc 37 3d 34 c3 52 bc
       -0.09239049 -0.026169417 0.04491873 -0.012863923
0002a0 19 da d5 bd 52 48 86 bd c4 16 23 bd ef 5d 9b 3c
       -0.104419895 -0.06556763 -0.039816633 0.01896569
0002b0 db 24 52 bd 83 bf cb bd 6a d7 7f 3d ec 15 88 bd
       -0.05130468 -0.09948637 0.062461294 -0.06644806
0002c0 45 9f 55 bd 62 e0 19 3d 28 7f ad 3d 5b 2f c5 bd
       -0.052153844 0.037567504 0.08471519 -0.09628173
0002d0 e5 24 75 bd 66 f8 c7 bd 93 2e 84 3d 1e 79 83 bd
       -0.05984964 -0.09764175 0.06454196 -0.06419586
0002e0 8e 9d d7 bd 0f 6f 83 3d 78 fb 02 be 73 ba c1 bd
       -0.10528098 0.06417667 -0.1279124 -0.094593905
0002f0 7c 36 02 3d 5c 78 28 3d ad 86 0c bc e9 c8 c3 3d
       0.03179024 0.04113041 -0.008577031 0.09559805
000300 a1 09 e4 3c 0f b8 57 3d a3 29 4a bd c2 4d 8b bc
       0.027836623 0.052665766 -0.049356114 -0.017004851
000310 38 c0 87 3c 46 36 f4 bb 02 50 97 3d d1 3a 8b bd
       0.01657115 -0.007452759 0.07388307 -0.06798328
000320 af 83 de bc 74 fa 60 bd fc c0 74 bc 8b ab 04 3d
       -0.027162401 -0.05492635 -0.014938589 0.03239016
000330 86 62 8d bd c7 b7 cb bc fa 4c b6 bd a5 48 6a 3d
       -0.069035575 -0.024867905 -0.08901401 0.057198185
000340 62 86 5f 3d ab 47 b0 bd 04 42 d3 3d cc e7 3f bd
       0.054571517 -0.086074196 0.10315326 -0.046851918
000350 22 58 b1 3d b8 96 94 bd eb b5 e1 3d 96 f7 06 bd
       0.08659388 -0.0725531 0.11021026 -0.03295096
000360 ec 13 19 3d 22 49 b7 3d ad e0 93 bd db ff a9 bd
       0.037372515 0.08949496 -0.07220588 -0.08300754
000370 5b f1 f0 3c e8 69 25 bd ab 25 55 3d 66 a0 df bc
       0.029411962 -0.040384203 0.052037876 -0.027298164
000380 70 e6 d1 bd 63 c3 2e bc da db df bd ee bf d5 ba
       -0.102490306 -0.010666701 -0.10930605 -0.001630781
000390 f1 3a cb ba 51 ed cc bd fc 34 87 bd bf 0d fb bc
       -0.0015505237 -0.10006202 -0.06601903 -0.030646203
0003a0 17 a5 1f bd fb 2e c6 bd 1c 2e 65 3d 84 98 45 3d
       -0.0389758 -0.096769296 0.055952176 0.048241153
0003b0 1e 76 b7 bd 90 7b 86 3d a3 73 8b bd f4 66 a5 3c
       -0.08958076 0.065665364 -0.06809165 0.020190693
0003c0 5b eb c4 bd 7b 5c 62 bd 02 01 8f bd b9 43 25 3b
       -0.09615203 -0.055263977 -0.06982614 0.0025217368
0003d0 d8 d2 ce bd d7 9a 60 3d 0d f3 ad 3d a0 84 57 bd
       -0.10098809 0.054835167 0.08493624 -0.052616715
0003e0 23 80 d2 3c 2b 26 cd 3b 43 a9 cc bd 58 26 b9 bd
       0.025695866 0.0062606535 -0.099932216 -0.090405166
0003f0 cd ea 77 bd f0 cb 47 bd ee 15 51 3d c0 28 62 bd
       -0.060526658 -0.048778474 0.051046304 -0.055214643

fc.2.bias f4 [64]
000000 cb d7 8b 3d cf a1 bf 3d 8e c3 69 3b df 92 9e bc
       0.068282686 0.093570344 0.0035669538 -0.019357143
000010 c1 d3 e4 3c 3b 60 00 bd 08 9d e3 3d ba a1 fd bd
       0.027933003 -0.031341773 0.11113936 -0.123843625
000020 48 9a 59 bd 78 1f 77 3c 3b b3 e8 bd 8b 9d 26 bd
       -0.05312565 0.015083186 -0.113623105 -0.04067759
000030 00 d3 00 bc 69 60 cc 3d f5 b9 98 bd 4c 30 9b bd
       -0.007862806 0.09979326 -0.074573435 -0.07577571
000040 80 90 a7 3b 3b 7f eb 3b dc af 0b 3e a4 43 95 3d
       0.0051136613 0.007186798 0.13641304 0.07288292
000050 b9 3c f4 bd 02 7a 66 3d ee b3 5f bc 69 cf 50 bd
       -0.119256444 0.0562687 -0.013653738 -0.05097905
000060 3f 7a 3c bd 9c 71 6b bd fd 81 47 bd aa 8a e5 bc
       -0.04601502 -0.057481393 -0.04870795 -0.028020222
000070 3d 81 30 3e b2 3b 86 bd 37 cf b0 3d 94 57 ff 3d
       0.172368 -0.06554355 0.08633273 0.12467876
000080 fd 4f 23 bd 67 1c 88 bd 02 91 16 bd 9c f0 fc bc
       -0.039871205 -0.06646042 -0.036759384 -0.03087645
000090 3a 8e 09 3d e5 c0 94 3d ab 69 0f 3e 65 e0 27 3d
       0.033582903 0.07263354 0.14005153 0.040985484
0000a0 93 22 ab 3d 18 96 4c 3c 53 2a bc bd 7d 43 62 bd
       0.08356204 0.012486957 -0.0918776 -0.055240143
0000b0 47 72 ed bd 96 ed 86 3d be b6 0a 3d 9d 00 01 bc
       -0.11594062 0.06588285 0.033865683 -0.007873681
0000c0 04 5d 4f bd 7b d6 24 be a8 00 9f bc 11 71 85 bd
       -0.050625816 -0.16097443 -0.019409493 -0.06515706
0000d0 fa 0f d7 3d 7d da 78 bd b9 e7 a3 bb 54 94 f2 3c
       0.10501094 -0.06075524 -0.0050019887 0.029611744
0000e0 5a 07 6d 3d 70 96 c1 3c fa 47 87 bd 34 2c fe 3c
       0.05786834 0.023631305 -0.06605525 0.031026937
0000f0 2a 5a 01 bd 81 14 9e bc e9 57 01 3e 0f e2 77 3c
       -0.031580128 -0.019296886 0.12631191 0.01512958

fc.4.weight f4 [8, 64]
000000 ec 8a 8c 3e 95 0f 76 3e ac 07 a4 bd 75 d4 b9 3d
       0.2744974 0.24029382 -0.08009276 0.09073726
000010 98 2a a0 3c 2d ff 5e 3d 48 34 70 3f 89 98 d4 bc
       0.01955156 0.054442573 0.93829775 -0.02595164
000020 38 37 85 bd e2 47 4f bd 0d c3 03 3d a6 29 fe 3d
       -0.06504673 -0.050605662 0.032168437 0.124102876
000030 52 3d 8d 3d 95 9c d4 3e dc c6 85 bd dd 54 c9 be
       0.068964615 0.41525713 -0.0653207 -0.39322558
000040 d2 6e 4f bc 0a f5 a7 bc f1 5c 67 3f 9f 36 66 bc
       -0.012660699 -0.020502586 0.9037619 -0.014051109
000050 9a 68 83 bd 90 8d e9 3e 5f d7 45 3f cc 1c 4b 3c
       -0.064164355 0.45615816 0.77281755 0.012397002
000060 bf 6c 84 3d 88 55 e8 bc 3d 47 3a bd ce 36 89 3d
       0.06466054 -0.028361097 -0.045478094 0.06699906
000070 fb ea 31 3e c4 ff a3 bd 08 9d 8e be 60 68 05 3e
       0.17374794 -0.08007768 -0.2785418 0.13028097
000080 e9 7d 08 bd f2 b6 11 bd d8 a7 53 bd 1c 35 09 bd
       -0.033323202 -0.03557486 -0.05167374 -0.033497915
000090 1f 65 d8 3e 28 40 90 3e 4f f6 60 3e 4d e6 d5 3e
       0.4226465 0.28173947 0.2196896 0.41777268
0000a0 d7 f5 5d 3d e7 61 9e 3b b0 eb f2 bc 75 55 d3 bc
       0.05418953 0.004833448 -0.0296534 -0.025797585
0000b0 2c bf a2 3e 43 66 43 3f a6 0b 52 3f 1e ec 38 bb
       0.31786478 0.76327914 0.82049024 -0.0028216909
0000c0 6a 8b cf 3c 08 e0 52 3f 4b 88 d0 3d ce 44 98 bd
       0.025335032 0.82373095 0.10182246 -0.074349985
0000d0 a8 60 27 3f 32 1d 43 bd 25 33 2f 3f 2c c7 36 3f
       0.6538186 -0.047635265 0.68437415 0.7139766
0000e0 48 07 1e 3f 03 0e 83 bd 32 f3 82 3d 35 f6 6f bc
       0.6172986 -0.06399157 0.06394042 -0.014646103
0000f0 0c d5 d5 3d ce 29 1a 3d 5a d2 80 3e f1 a2 5d bd
       0.10441026 0.037637524 0.25160486 -0.05411047
000100 09 e6 68 3e 52 e3 a0 3e ea 90 77 bd d8 b0 f4 bc
       0.22744001 0.31423432 -0.060440935 -0.029869482
000110 68 40 33 3d d6 3b 90 3c 78 ed 4e 3f 20 d3 9d 3d
       0.043762594 0.017606657 0.808311 0.077062845
000120 3c 45 2f 3d a4 71 a8 3d 6b 2d 70 3b 48 82 65 bd
       0.042790636 0.082248 0.0036648165 -0.05603245
000130 c2 4d c4 3c a8 40 c0 3e b5 28 d1 3d 49 4c 9a be
       0.023962859 0.3754933 0.102128424 -0.30136326
000140 f1 b3 39 3d fa 6f 92 bd 26 3c 39 3f 0b fa bd bd
       0.04533762 -0.07150264 0.72357404 -0.092762075
000150 da 2d 6d 3b 53 28 da 3e 98 0d 3e 3f 51 eb 90 bc
       0.003619066 0.4260889 0.7423949 -0.017690333
000160 4e 99 7b 3d db 13 21 bd 7e a9 38 3c c5 95 21 3d
       0.0614255 -0.039325576 0.011270879 0.039449472
000170 73 2e 88 3e 82 5b 7c bb bf bc 01 bf 87 9c 5b 3e
       0.26597938 -0.0038506691 -0.5067863 0.21446429
000180 fe 4a cf bd c6 ed 74 bd c5 c0 6b bd fc fd 1f 3d
       -0.101217255 -0.05979707 -0.057556886 0.039060578
000190 a4 60 06 3f f4 08 85 3e 88 f3 65 3e b3 13 0b 3f
       0.5249121 0.25983393 0.22456181 0.54326934
0001a0 86 4c c0 bc 7b b8 79 3c e6 5f dd 3c 55 52 bc 3b
       -0.02347399 0.0152417375 0.027023267 0.0057471194
0001b0 bc cd 1a 3f b1 74 dd 3e 89 0a 2d 3f 31 c9 7b 3d
       0.60470176 0.4325309 0.675942 0.061471168
0001c0 5d f5 a5 bd 85 54 5a 3f 9e da ae 3c 34 b5 bd 3d
       -0.0810344 0.85285217 0.02134448 0.092630774
0001d0 aa da 60 3f a0 fd 81 3c 7c ce 2c 3f 69 c9 50 3f
       0.87833655 0.015868008 0.6750257 0.8155733
0001e0 98 7b 52 bc ba 14 a3 3d 41 42 00 3e 90 85 b5 bc
       -0.01284685 0.07962938 0.12525274 -0.022158414
0001f0 1f cc d2 3d bb b3 c0 3c 9c 52 74 3e 69 55 ca bd
       0.10292839 0.023523202 0.23859638 -0.09879572
000200 93 4f 86 3e b7 33 9f 3e af 42 e7 3a 87 d9 56 3c
       0.26232585 0.31094143 0.0017643775 0.013113386
000210 d3 0d 0c 3c 1a cb 8d bd 3f 59 59 3f 1d 35 65 bd
       0.008548218 -0.06923504 0.84901804 -0.055958856
000220 fa 1f ae 3d f7 a9 94 bd 53 e6 45 3d f8 d7 04 3c
       0.08502193 -0.07258981 0.048315357 0.008108132
000230 5b 63 43 bc fe d4 db 3e 8c a6 a7 bd 50 d2 fe bd
       -0.011925544 0.42935938 -0.08186063 -0.12442458
000240 53 1a 6f 3c d0 b8 8f bd 72 f1 39 3f a9 82 95 3c
       0.0145936785 -0.07017672 0.7263404 0.01825078
000250 2f c1 df bc ec ff ae 3e 1c 96 82 3f 55 96 39 bd
       -0.027313797 0.34179628 1.020206 -0.045309383
000260 bc 5b 88 3d b4 0a 04 3d 39 de 2e bd a9 09 2d bb
       0.06658122 0.03223677 -0.042692397 -0.0026403463
000270 28 47 7a 3e d0 a9 a7 bd a9 e1 a6 be ef b3 43 3e
       0.24441206 -0.08186686 -0.3259404 0.19111608
000280 aa 4b 80 3d bc bb 64 bd eb 8e db 3d 2a e6 51 3d
       0.06264432 -0.0558431 0.10720619 0.051244892
000290 f5 b1 d7 3e 87 d0 45 3e ce 9e 76 3e e3 dc b2 3e
       0.42127958 0.19317828 0.24084017 0.34934148
0002a0 70 9f c4 bd b9 dc 76 bd 52 7f bd bd ff 21 fe bc
       -0.09600723 -0.06026909 -0.092528 -0.03102207
0002b0 6c bf 00 3f fa de c7 3e ff ca 60 3f f9 9e 39 3d
       0.50292087 0.39037305 0.8780975 0.045317624
0002c0 17 30 a0 bc 3b 1d ce 3e d5 c1 69 bd b8 36 9d bb
       -0.019554181 0.40256676 -0.05706962 -0.0047977827
0002d0 c4 80 6b 3f 76 de 80 bd db 27 1c 3f c5 d6 6c 3f
       0.91993356 -0.06292431 0.60998315 0.9251521
0002e0 3d e5 bc 3d cb 45 20 3d 0e 19 21 bd 4e 65 aa bd
       0.09223411 0.03912906 -0.039330535 -0.083201036
0002f0 f2 55 e7 bc 0a c5 0e ba 74 9d 00 3e 71 59 39 3c
       -0.028239224 -0.0005446231 0.12560064 0.011312828
000300 e5 a2 7a 3e cc 73 93 3e 0a 7e df bc 7f 93 b8 bd
       0.24476202 0.28799284 -0.02728178 -0.09012508
000310 83 11 2d bd c5 45 1f bc 24 78 68 3f 92 99 76 bc
       -0.04225303 -0.009721224 0.9080832 -0.015051262
000320 3d a0 3a bd 03 b5 92 3c 4a f6 b5 3d 79 f1 2a bb
       -0.04556297 0.017908579 0.088848665 -0.002608387
000330 39 18 99 3d 14 73 c2 3e f7 55 14 bd e7 ca 96 be
       0.07475323 0.37978423 -0.036214795 -0.29451677
000340 fe e9 6a 3d 4e 11 28 bc 3c c7 74 3f 58 86 4e bd
       0.05735206 -0.010258032 0.9561651 -0.05042109
000350 a3 7c 7b 3d d2 b4 b7 3e 20 86 8b 3f ae 30 00 be
       0.06139816 0.35880142 1.0900307 -0.1251857
000360 3a bb 3d bd e4 30 2b 3d 03 39 13 39 d8 81 ef bd
       -0.04632113 0.041794673 0.00014040251 -0.116946876
000370 a9 4d 72 3e f3 41 a6 3c 52 92 0e be 07 00 9e 3e
       0.23662437 0.020295119 -0.13923004 0.30859396
000380 82 2e 03 bc ec 1f 30 bc ee 49 71 bd 7f f1 f0 3c
       -0.008006694 -0.010749798 -0.058908395 0.02941203
000390 c5 80 c6 3e 60 9e 6c 3e 2c cb 32 3e b1 f6 d2 3e
       0.38770118 0.2310729 0.17460316 0.41203836
0003a0 45 11 b2 3d b3 b0 86 bd 31 09 a7 3d 8e 6b af 3d
       0.086947 -0.065766715 0.0815605 0.08565436
0003b0 95 11 0a 3f 5c 2a 59 3e 18 76 91 3f f8 33 dd 3d
       0.5393308 0.21207565 1.1364164 0.10800928
0003c0 67 be 9c bc 38 7c 19 3f d4 51 db bd 11 1d 6e bd
       -0.01913376 0.5995517 -0.10708967 -0.05813319
0003d0 1f 1e 7f 3f 3b 75 81 3d b4 cc f4 3e 46 72 36 3f
       0.99655336 0.06321188 0.47812426 0.7126812
0003e0 ba d2 bd bc b9 86 0a bd 6b 06 59 bd 42 61 e8 3c
       -0.023171771 -0.033819888 -0.052984636 0.028366689
0003f0 1b c5 a9 3d 87 a9 e4 3c 97 16 32 3e e3 d7 68 bc
       0.08289548 0.027912868 0.1739143 -0.014211628

fc.4.bias f4 [8]
000000 87 ce 1a 3e 69 a7 b9 3d 52 88 e3 3d f1 89 ee 3d
       0.15117846 0.09065134 0.111099854 0.11647404
000010 1f dd 0e 3e 1c c7 19 3e 92 ff 28 3e 35 4a 05 3e
       0.13951539 0.1501736 0.16503742 0.13016589
