target_net.pth (torch, 23142 bytes, 6 tensors)

fc.0.weight f4 [64, 6]
00000000: 7a59 c33e 667e 923e 1ee2 a83e 0076 ccbc
00000010: 506b 693d 4b36 81be 54b5 ac3e 40b6 77bc
00000020: 2d43 abbe d02c 6fbd a8c1 97be 63a9 c4be
00000030: f8b8 3b3e 640b 213e 9996 acbe 3c63 90be
00000040: 9e60 b1be 8407 233e 13a8 a7be dc49 493e
00000050: 5009 5a3e 20c6 093e f0fe ab3d 4cff 16be
00000060: a4b1 983e 8aa2 b33e 7278 833e 6aad 91be
00000070: 1429 593e 6637 19be 302b 263e c42b 843d
00000080: e001 db3c e831 843e a859 0b3e de4c c23e
00000090: 3ff6 38be 0006 743e c246 9d3e a869 f33d
000000a0: 1063 df3d e763 a5be 0065 91be ea53 22be
000000b0: d47d a9be 702d 953e 5c96 aebe 60a1 b03c
000000c0: 2014 6b3d 005f 98bd ecc1 863d c482 a63d
000000d0: 265f c73e 2cd6 9c3e d234 a5be 7f38 39be
000000e0: 1c9b d2bd d954 c1be bcfc 0b3e 4102 33be
000000f0: d039 a43d 4267 53be 9007 0c3d 183f d73d
00000100: f2f5 a43e a4b5 523e 6866 cbbe 9e49 92be
00000110: 6031 8b3e 2c98 9c3d e086 2c3e ae79 20be
00000120: 4d9c 79be 9005 9a3e 505e 6fbe eccc d03e
00000130: eceb 563e 0c0e 9f3e 5c5a c6be d458 6a3e
00000140: d111 bbbe 1c48 fcbd 54a6 b2bd 68a5 ce3d
00000150: 8242 af3e 7d29 32be 4059 83bc 9872 c03d
00000160: ee6b a5be 823f a03e f083 8d3e 0baa babe
00000170: 1c53 783e fddb 62be 327d cd3e a617 953e
00000180: e845 373e d3fc 75be 3ca0 7b3e 2f0f 2cbe
00000190: 9c41 8cbe 7060 c63d ad94 73be caf4 11be
000001a0: 3cac 42be aae6 af3e 90e3 c03e 14f8 963d
000001b0: d2cd 8c3e 7848 1dbd 0db9 b9be cc3d a53e
000001c0: b2a2 853e e02d 9abe bf1f 85be 8091 20bd
000001d0: 8e8b bd3e 3093 633d 1c47 7a3e f2c5 3cbe
000001e0: c057 92bc b4bb f5bd 10a2 093e 980d 9cbd
000001f0: a8ae 62bd 3ee8 b43e 16d6 833e 2e88 c53e
00000200: 9493 963e 8083 343d 4e66 99be c419 8bbd
00000210: a683 893e f495 83bd 1851 27bd 71b9 cabe
00000220: 57a6 6cbe 906c cdbe c0f7 b23b 824d 50be
00000230: c4e0 583e 6735 b7be 1877 b33e 6ce1 b13e
00000240: 64c5 283e 1c73 253e cc1d 853e 2dbb d0be
00000250: a25f a7be 8d74 53be 8440 bebe 92a6 ccbe
00000260: 8a75 9f3e 6c78 463e a8ad 8cbd a613 20be
00000270: 20ed bb3d 29c6 bdbe c0cc 273e eb42 3fbe
00000280: a055 61be ee09 99be 806b adbd c0ad 983e
00000290: d811 083e 74df 5bbe 10ec 573e c206 1cbe
000002a0: 48f8 4dbe 5867 2e3e f921 c0be a290 2ebe
000002b0: f83d 273d 90f3 1f3e 8495 753e 2c56 62be
000002c0: acc1 20be 8c92 a03d dde6 2ebe f091 eb3c
000002d0: 765d a5be 609a 5c3e beb1 8ebe f182 aabe
000002e0: 87a8 a5be 3d95 8ebe 869e 0fbe b0f9 ed3d
000002f0: 7910 babe 2185 5fbe 387d fdbd cc43 89be
00000300: 5ccc 1f3e acae f0bd a5f1 a0be ea20 a33e
00000310: 4769 b4be bd66 4dbe cc59 b53d 8020 b63e
00000320: 8aeb bebe 000f aebb 4c13 b6be 565e 923e
00000330: 80a4 4b3e aa0c 9bbe 1c0d 14be a866 eb3d
00000340: ac08 903e 0019 703b b0c9 ff3d 4829 a5bd
00000350: c05a 9dbd 80cc 0cbd 05e8 afbe 8660 18be
00000360: 8438 563e 582f 5c3e b0b7 b6be 4890 673e
00000370: c03e 05be 8252 89be 521e 8b3e f418 773e
00000380: aa4f b23e 0601 c5be a4c0 bebe 0449 463e
00000390: 4dc0 9abe d8ce 7abd 063c 85be 6489 bcbe
000003a0: a057 51bd a6d4 aebe c8cb 20bd 08ca b33e
000003b0: a0d2 1abd 6eaf b7be f18f a6be 0812 0abd
000003c0: 302c 6c3e 282e 4b3e 0988 29be 3cd5 9abd
000003d0: 7b75 9dbe ee89 c5be 4e7c 83be 6818 c73d
000003e0: 58dc 633e fab5 3fbe a2fc 12be 8c56 293e
000003f0: 3883 863e 8014 0f3c 4ce5 263e 0aec 0ebe
0.38154203 0.2861206 0.32985014 -0.02495861 0.056987107 -0.25236735 0.33732092 -0.015119135
-0.3344969 -0.058392346 -0.29639935 -0.38410482 0.18332279 0.15727001 -0.33708647 -0.2820071
-0.34644026 0.15920836 -0.32745418 0.19657081 0.21292615 0.13454485 0.08398235 -0.14745826
0.2982303 0.35084945 0.2567783 -0.28452617 0.21207076 -0.14962539 0.16227412 0.0645366
0.026734293 0.25819325 0.1360842 0.3794927 -0.18062685 0.23830414 0.30718046 0.11885387
0.109075665 -0.32302782 -0.2839737 -0.15852323 -0.33103812 0.2913623 -0.3409909 0.021561325
0.05739224 -0.07439995 0.065799564 0.0813041 0.3893978 0.3063215 -0.3226686 -0.18087958
-0.10283491 -0.37760046 0.1367063 -0.17481329 0.08018839 -0.20644858 0.0341869 0.10510081
0.3221889 0.20577103 -0.39726567 -0.2857179 0.27186108 0.07646212 0.16848326 -0.15671417
-0.2437603 0.3008237 -0.23375821 0.40781343 0.20988435 0.31065404 -0.38740814 0.22885448
-0.3653703 -0.12318441 -0.08723131 0.100901425 0.3423043 -0.17398639 -0.016033769 0.09396857
-0.32308906 0.31298453 0.27639723 -0.36457857 0.24250454 -0.22154231 0.4013458 0.29119605
0.17897761 -0.24022226 0.24572843 -0.16802667 -0.27393806 0.09686363 -0.23787184 -0.14253536
-0.19011015 0.3435567 0.37673616 0.07371536 0.27500778 -0.03839919 -0.36273995 0.3227371
0.2610069 -0.30113125 -0.26000783 -0.03920126 0.37020534 0.05556029 0.24441189 -0.18434885
-0.017864108 -0.11998692 0.13440728 -0.0761978 -0.055342346 0.35333437 0.25749272 0.3858046
0.29409468 0.04407072 -0.29960865 -0.06792024 0.26858252 -0.06425086 -0.04084882 -0.39594606
-0.23110329 -0.4012189 0.005461663 -0.20342067 0.21179491 -0.3578293 0.350518 0.34742296
0.16481549 0.16157192 0.25999296 -0.40767804 -0.3269015 -0.2064993 -0.37158597 -0.39970833
0.31144363 0.19381875 -0.0686906 -0.15632495 0.091760874 -0.37065247 0.163867 -0.18677871
-0.2200532 -0.29890388 -0.084677696 0.2982006 0.13288057 -0.2147196 0.21086144 -0.15236953
-0.20114243 0.1703161 -0.3752592 -0.1704736 0.040830582 0.15620255 0.23982817 -0.22103184
-0.1569888 0.078404516 -0.17080255 0.028756112 -0.32297868 0.21543264 -0.27869982 -0.33303025
-0.3235514 -0.27848235 -0.14025316 0.1161989 -0.36340693 -0.21828128 -0.12377399 -0.26809537
0.156053 -0.11752066 -0.3143436 0.3186105 -0.3523657 -0.20058723 0.08855018 0.3557167
-0.37289077 -0.0053118467 -0.35561597 0.28587598 0.1988697 -0.302831 -0.14458126 0.114941895
0.28131616 0.0036635995 0.12489641 -0.080645144 -0.07683325 -0.034374714 -0.34356704 -0.14880571
0.20919997 0.21502435 -0.35687017 0.22613633 -0.13012218 -0.2682076 0.2717157 0.24130613
0.34826404 -0.38477343 -0.37256348 0.19363791 -0.3022484 -0.061232418 -0.26022357 -0.3682357
-0.051108956 -0.34146613 -0.03925684 0.35115075 -0.037798524 -0.3587603 -0.32531694 -0.033708602
0.23063731 0.19841826 -0.165558 -0.075602025 -0.30753693 -0.38581795 -0.25680774 0.09721452
0.22252023 -0.18721762 -0.14354184 0.16536921 0.26271987 0.008732915 0.16298407 -0.1395723

fc.0.bias f4 [64]
00000000: 4453 5a3e ca27 1cbe 1622 babe 6e90 b7be
00000010: e45c 4f3e fc8e 82be ece0 aebe 006c c33c
00000020: 921a 0bbe 9f88 5cbe 003b 323d 3076 793d
00000030: 6fb9 cbbe ccc0 ce3e 420a c53e 3cc8 8a3e
00000040: ccef 2b3e 8c3e d03e e6af 62be 6c74 b43e
00000050: 0044 3c3a 34c4 cabe 3010 1c3e 60f9 fabc
00000060: f8d3 283e 3054 32be 7842 54bd d40d 063e
00000070: 7cb4 b23d 814d cdbe c2e2 c53e e089 3cbd
00000080: fc44 373e bce5 673e f3eb c4be 51ad cabe
00000090: 5c5f 46be 6034 8fbc 9e30 afbe b82e 9e3e
000000a0: fabd 88be 748c 7c3e b4ee c9bd a862 a9be
000000b0: 5076 203e dd33 a1be e0d5 5b3c ab47 a1be
000000c0: 24d0 e2bd 0cb7 503e f6e1 ae3e e499 06be
000000d0: 24c5 13be c441 ca3e cc78 a2bd 5814 89be
000000e0: 40e8 27bc 8e71 81be 5829 82be e002 47be
000000f0: 48f4 d93d d75d 96be 4ece b83e 5cbb 473e
0.21320826 -0.15249553 -0.3635413 -0.3585238 0.20250279 -0.25499713 -0.34155977 0.02385521
-0.13584355 -0.21536492 0.043513298 0.060903728 -0.39789912 0.40381467 0.3848439 0.27105892
0.16790694 0.4067272 -0.22137412 0.35245073 0.00071817636 -0.39602816 0.1524055 -0.03063649
0.1648711 -0.17414927 -0.051821202 0.13091213 0.08725831 -0.40098193 0.38649565 -0.046029925
0.17897409 0.2264623 -0.38461265 -0.39585355 -0.19372314 -0.017481029 -0.3421678 0.3089502
-0.2670744 0.24662954 -0.09859982 -0.3308308 0.15670133 -0.3148488 0.013417691 -0.3149999
-0.11074856 0.20382327 0.3415677 -0.13144642 -0.14430672 0.395033 -0.079331964 -0.26773334
-0.010248244 -0.25281948 -0.25422168 -0.1943469 0.10642296 -0.2936847 0.36094898 0.19505066

fc.2.weight f4 [64, 64]
00000000: 147b ad3d 2a5b 873d 2c79 ff3d 1e12 de3d
00000010: 3099 7abc ac3b 0a3d c6c8 bfbd 40a4 073b
00000020: 9af3 c2bd ea85 c53d 282c 72bd 2e88 fc3d
00000030: d4c3 28bd a6ee cc3d d0b2 333c 4420 5cbd
00000040: 40bb dc3c c002 7ebb cc6b ddbd a091 bd3b
00000050: 68a7 55bd 247b f8bd 86f2 ad3d 20d8 c2bb
00000060: 36f2 fdbd f87a 50bd 388f 9ebd f65d ff3d
00000070: a014 b63b daeb acbd 3870 90bc 28ae a6bc
00000080: d805 ebbc 3071 1fbd 587d 11bd 2033 07bc
00000090: d8ae 9b3c 00f0 d53b e8c5 a93c 68b5 ac3d
000000a0: f8f5 853c 88a1 ed3d e02d 563d e834 babd
000000b0: ba79 b8bd b016 423d 0832 ad3c 685e cb3c
000000c0: 00a0 a8b8 cac8 853d 80a8 a23d 4660 e63d
000000d0: a8dc 22bd 7614 d03d 0080 d6bc e037 1d3c
000000e0: 00f7 d6bd e056 053c a078 b6bb 0ee6 a63d
000000f0: 480e 033d b0ea 913c a034 cc3d 447a 8dbd
00000100: 12b1 f13d 6405 5e3d 1e26 d33d 22c3 803d
00000110: e0ce 26bc 8639 f73d 502b d8bc 5e9f f5bd
00000120: fc2b 0cbd 4aca e13d e827 afbc f8bb fd3d
00000130: e46a ab3d 0646 f03d 2022 debd b033 8ebc
00000140: b8f9 79bd 18e0 823c dab8 c13d 98af 993d
00000150: a882 b9bd 00ee 23ba d059 f9bc bac3 acbd
00000160: bce0 bdbd c827 09bd d84a 54bd 8cc1 1b3d
00000170: f68a b43d 508b 89bd 1c98 5abd c08e b33b
00000180: be07 fcbd 8407 37bd f86c 783d 807d cfbd
00000190: 341d 223d 4061 d0bb 56fc 943d d8ef ff3c
000001a0: 48dd ffbd 482c d63d ec9e 6f3d 5435 10bd
000001b0: 4ac5 ee3d 18cd 4a3d 00b6 fabb d803 f6bc
000001c0: a0c2 d9bb 60f4 253c c0ab 7b3c b03c a23d
000001d0: 1a2b e0bd a0af 34bd 58f2 07bd 7a5b bbbd
000001e0: bc91 b13d 4000 cabc 0ece de3d 6062 7c3c
000001f0: 5a1a 913d 387d dabc 1a68 f6bd a0a6 23bc
00000200: 863f 9b3d ecd6 873d 3869 24bd a03b bdbd
00000210: 84ba 7dbd 3c60 e0bd 7c68 c73d 3850 903d
00000220: 84a9 afbd 96ae 8e3d 8857 a1bc dc22 59bd
00000230: b8b8 f4bd 78d7 adbd b427 f9bd 1883 3cbd
00000240: f899 4c3d 50ad 7a3d 80dc e33b 0ad7 bdbd
00000250: 88a7 98bc c055 70bb 74ea afbd 8acb 813d
00000260: 7033 b03d b431 20bd 9e58 d1bd c8c9 9ebd
00000270: 846a b3bd 8010 2abd 14e6 62bd 98a8 4bbd
00000280: 8084 c43d 6ea8 b3bd 6e44 e3bd c815 d3bc
00000290: b00c 0dbc 36b9 823d 20e0 6f3d 906b 9c3c
000002a0: 90a5 a83c 58bb 59bd 28d0 1cbd 0089 643b
000002b0: b028 b6bd 6627 d2bd 003c 0c3c 40a1 25bd
000002c0: 6c98 393d 62c5 8e3d 4004 ccbb 98dc 89bc
000002d0: 90d5 7dbc e0c3 d2bb be81 9d3d 5c5c 983d
000002e0: 10a9 41bd 7c52 d83d c036 1fbb 8097 793b
000002f0: f201 de3d 8029 8abc 68c3 7e3d 0c8c 343d
00000300: e838 96bd f27e af3d c8a6 e6bc e053 5e3d
00000310: 78f8 d3bd 98fc 2f3d e800 183d ac2c eabd
00000320: 866d 9cbd 08c5 4a3d fc8c a7bd 580e 39bd
00000330: 0056 b539 0673 b93d 1a55 9bbd 2e89 b93d
00000340: 24c8 d8bd 20a6 b53c d0f2 c03c e0f5 6b3d
00000350: d48e 113d 2675 f8bd 98a2 f2bc 6ef8 9f3d
00000360: 2c7d fa3d 7a7b b8bd f422 6f3d 1e79 a5bd
00000370: 122b c0bd 88b4 f3bd a26f 913d d455 a43d
00000380: bc82 953d c2f2 96bd a46c 293d 5cc3 4e3d
00000390: 4efc c1bd 500e 1fbc b0d2 6cbc 7674 a9bd
000003a0: 9293 d0bd f445 61bd 66ec dabd 18dd 153d
000003b0: 1809 c53d da41 d7bd 109d 4bbd b05b 423c
000003c0: a69a 8cbd 0877 a23c 900f 463d aacc 9a3d
000003d0: 2014 423d 7030 7e3c 0812 2a3d 8878 abbc
000003e0: 1411 f9bd 3e50 cb3d 16c8 ce3d 605f 6a3d
000003f0: 704d afbd d45b 2d3d a069 c33d 1094 23bd
0.08470741 0.06609185 0.124742836 0.10843299 -0.015295312 0.033748314 -0.09364466 0.0020697266
-0.095191196 0.09644683 -0.059124142 0.12330662 -0.04120238 0.10006456 0.010967925 -0.05374171
0.026944757 -0.0038758963 -0.10811576 0.005785182 -0.052161604 -0.12132862 0.08493523 -0.0059461743
-0.12399714 -0.050898522 -0.077421606 0.124690935 0.005556658 -0.084434226 -0.017631635 -0.020346716
-0.02868931 -0.038926303 -0.035519928 -0.008251935 0.01900427 0.0065288544 0.020724252 0.08433038
0.016352639 0.11603075 0.052289844 -0.09092122 -0.090075925 0.047384918 0.02114202 0.02482529
-8.0406666e-05 0.06532438 0.07942295 0.112488315 -0.039761215 0.101601526 -0.026184082 0.009595841
-0.1049633 0.008138388 -0.005568579 0.08149348 0.03199604 0.017812103 0.09970975 -0.06908086
0.118013516 0.05420436 0.10310005 0.06287219 -0.010181159 0.120715186 -0.02638784 -0.119932875
-0.034221634 0.11024912 -0.021381333 0.12389368 0.08369997 0.11732106 -0.108463526 -0.01735863
-0.061029166 0.015975997 0.09459086 0.07504195 -0.09058124 -0.00062534213 -0.030438334 -0.084357694
-0.0927138 -0.033485204 -0.05182919 0.038026378 0.08815567 -0.06716025 -0.05336772 0.0054796636
-0.12306164 -0.0446849 0.060650796 -0.10131359 0.03957863 -0.0063592494 0.07274692 0.031242296
-0.12493378 0.10457665 0.05850117 -0.035207108 0.11658724 0.049512 -0.0076510906 -0.03003113
-0.0066455156 0.010129064 0.015360773 0.079217315 -0.10945721 -0.0441128 -0.0331901 -0.09148307
0.08670375 -0.024658322 0.108791456 0.015404314 0.07085104 -0.026671037 -0.120315745 -0.009988457
0.075804755 0.0663279 -0.040139407 -0.09239888 -0.061945453 -0.10955855 0.09736726 0.070465505
-0.085772544 0.069668934 -0.019695058 -0.05301176 -0.11949295 -0.08488363 -0.12165776 -0.04602346
0.049951524 0.06120044 0.006953776 -0.09269531 -0.018634573 -0.0036672205 -0.0858964 0.0633765
0.08603561 -0.0391099 -0.102219805 -0.077533305 -0.087605506 -0.041519642 -0.0553952 -0.04972133
0.09595585 -0.0877236 -0.11097036 -0.025767222 -0.008608982 0.063829824 0.05856335 0.019094259
0.020586759 -0.05315718 -0.03828445 0.0034871697 -0.08894479 -0.10261421 0.008559227 -0.040436983
0.045311376 0.069712415 -0.0062260926 -0.01682882 -0.015492812 -0.0064320415 0.07690762 0.07439491
-0.04728037 0.10562608 -0.0024294108 0.0038084686 0.10840215 -0.016865492 0.062198073 0.04407887
-0.07335073 0.08569135 -0.0281557 0.05427921 -0.10350126 0.0429655 0.03711024 -0.11434302
-0.076380774 0.04950431 -0.081811875 -0.045179695 0.00034587085 0.09055142 -0.07584591 0.09059368
-0.10585049 0.022173941 0.023553282 0.05760753 0.035536602 -0.12131719 -0.029618546 0.07811056
0.12230906 -0.09007926 0.058382943 -0.08079742 -0.09383215 -0.11899668 0.071013704 0.08024183
0.07300326 -0.07370521 0.041363373 0.050479278 -0.094719514 -0.009708002 -0.014454529 -0.08274166
-0.10184397 -0.054998353 -0.10689621 0.036587805 0.09620875 -0.10510607 -0.049710333 0.01186268
-0.06865434 0.01983215 0.048354685 0.07558568 0.047382474 0.015514478 0.041521102 -0.020931497
-0.121614605 0.09927414 0.10096757 0.057219863 -0.08559692 0.042323902 0.09541631 -0.039936125

fc.2.bias f4 [64]
00000000: e85c 293d 28d7 6abd 7854 be3d f028 14bc
00000010: 806b 2f3d 3cd2 82bd 08ea 833c aadf df3d
00000020: e403 28bd 70b7 cebd 6c72 c83d 901d 97bd
00000030: 421f e93d 0264 ebbd 4097 4ebc d426 8bbd
00000040: f86a 483d 2ea8 b43d 02db a3bd 0499 51bd
00000050: 8841 a4bd 2048 943b 3a7f 8f3d 8891 263d
00000060: e06f 9ebb 3006 c8bd 9a81 87bd 5c72 b8bd
00000070: 7cd2 543d 00f9 283a 60e3 e8bc 0065 b93a
00000080: d84b adbc 7496 fa3d 248b 873d 707f 11bd
00000090: 786a 0f3d 0873 033d 0cfb 0bbd 5867 34bd
000000a0: a406 babd 0e27 e63d c45b 98bd 9c83 963d
000000b0: 185e eebd c026 413c 88f3 053d 1aa5 bdbd
000000c0: 10c2 40bd bc66 c13d 30a2 d7bd 1815 e1bd
000000d0: 600e 55bc d875 bebc bc17 793d 985c c4bc
000000e0: e43e 48bd 58d3 a93d b87a 2abd 5462 663d
000000f0: 802a 67bc f01d 913c 2c49 503d 0059 113c
0.041348368 -0.057334095 0.09293455 -0.009042963 0.04282713 -0.06387755 0.016102806 0.109313324
-0.041019335 -0.10093582 0.09787449 -0.073786855 0.11382915 -0.11493684 -0.012609303 -0.06794515
0.04893014 0.0882114 -0.08000757 -0.051171318 -0.080203116 0.0045251995 0.070066884 0.040666133
-0.004835114 -0.09766805 -0.066165164 -0.09006187 0.051958546 0.00064457953 -0.028428733 0.001414448
-0.02115433 0.12235728 0.06618336 -0.035521924 0.035013646 0.032092124 -0.034174964 -0.04404387
-0.09083298 0.11237918 -0.07439378 0.07349321 -0.11639041 0.011789024 0.032702953 -0.09260006
-0.047060072 0.09443423 -0.10528982 -0.109903514 -0.013003916 -0.023249552 0.06081365 -0.023969933
-0.048888102 0.08292264 -0.04162094 0.056246117 -0.014109254 0.01771447 0.050851032 0.008871317

fc.4.weight f4 [8, 64]
00000000: c4b5 b03d 2067 16bc 0209 c7bd aece 85bd
00000010: 7015 78bc 30ec cfbd 9843 d93c b82e f6bd
00000020: a4a0 03bd 0c62 adbd 8cc0 eebd 7838 b5bc
00000030: 9815 87bd e4d9 7fbd fa12 dabd de41 9fbd
00000040: f2d0 873d 8407 d93d 8eeb b2bd aed8 d83d
00000050: e05b 993d 0a63 bb3d 1844 8bbc 1067 f53d
00000060: 4edf c73d d477 28bd 261d c13d c880 0fbd
00000070: 1eed 8a3d 50c7 6dbc a298 8b3d cada b9bd
00000080: d8dd a23c 34b3 f53d 50e8 33bc 846d 833d
00000090: ba94 bc3d 6ed2 9f3d 6ccf 483d 14e5 bd3d
000000a0: 7484 313d 7cf5 043d 4e76 9c3d b465 4ebd
000000b0: 40e6 5ebb c85c 52bd bc79 63bd 78c8 0b3d
000000c0: 766e f8bd a09c 143d c854 75bd e0db 2c3d
000000d0: cce5 783d 4ae1 99bd b22f 8e3d 6c43 883d
000000e0: 3c2f c73d 06ce cb3d 0e2c 90bd c8d6 ef3c
000000f0: f8ce fd3d cae8 b93d 1cc2 083d 8844 0bbd
00000100: eeee bb3d 42ea f73d 0ad2 f4bd b47c c73d
00000110: d45a 98bd a0d0 ffbd 5e66 8a3d f4d0 923d
00000120: e0a7 89bd 6481 ddbd 20e5 9fbd 24b7 10bd
00000130: 58d1 86bc c8bc b63d 082d 9ebd 904f 97bd
00000140: b875 c03c e8b0 a7bc 000b ec3d 6ca4 683d
00000150: 142a 24bd 080c c1bc dcd9 acbd a862 833d
00000160: 36ca c73d 0413 f13d fe74 c63d ac08 953d
00000170: cc43 81bd a8f1 f1bd c4e4 1fbd b897 a6bd
00000180: d8a6 5e3d d602 a1bd a85d 72bd 306b 373c
00000190: 0aa1 8b3d dcc1 f73d e42f 893d 1420 02bd
000001a0: 6c53 513d 28a0 92bd d8e4 87bd 6002 40bc
000001b0: 203e 9e3b 7035 e9bd dc43 a7bd b41e 2bbd
000001c0: 3456 efbd 5e64 e93d 78a6 963c 9a0c b7bd
000001d0: aa74 babd 66d7 b2bd 30e5 fe3d 0876 b3bd
000001e0: c03e a6bd 6ca3 5a3d 3872 b33d 6434 a7bd
000001f0: c2bf b6bd 34b1 7d3d fc4c 61bd 6408 28bd
00000200: aa56 b93d 7855 b9bc d0ca 15bc c020 bcbb
00000210: 58e0 b43c c464 42bd 7496 cabd 80ff 593c
00000220: 405f 3d3b 083a f23d e072 b5bc b425 c5bd
00000230: 24c3 7bbd 607f 963c 0023 2a3c 14ae 7fbd
00000240: 6cf1 e73d f860 9f3c 8896 17bd 9024 a23d
00000250: d0c6 dc3c ecdf 31bd f2c5 cc3d 1a35 a5bd
00000260: d66d 89bd 30bd b03d 9a18 e13d 94ec 80bd
00000270: bab2 f4bd 5805 a0bc b8b6 03bd f873 6abd
00000280: 2045 45bd 4ecf 93bd 4032 cb3d 6cf3 a73d
00000290: 3a1d 83bd 10d5 a33c ae3d fabd 2886 44bd
000002a0: 5402 2b3d 0077 d33a a499 9d3d b61b 933d
000002b0: 160e d63d 6aa7 a5bd e06c c83d 543d 1f3d
000002c0: b022 fcbd b09c 433c 2871 c4bd a835 9e3c
000002d0: 902a aebd 90e6 67bc 18c8 fd3d 780a b7bd
000002e0: 1024 e5bc 26e1 c6bd 6cbd 8cbd 0017 94bb
000002f0: 165e b2bd 768d bc3d 90d6 31bc e604 8dbd
00000300: a8d4 86bc 00fb 193a 106f e4bc 0427 5abd
00000310: fc4a 10bd b070 37bd c608 ea3d 4810 9e3d
00000320: 10bc c2bc 40ae d93d a0de 8c3d 58cb 8f3d
00000330: d0ea e2bc 5e2c 9bbd 7e60 903d 18c1 a6bc
00000340: 84a1 d0bd 7aed ecbd b8a2 773d d02b c83c
00000350: 80fc 873b 7092 76bc 90b5 9cbc 1646 893d
00000360: 3445 dfbd 30f5 de3c 00c2 b73b 20b6 93bd
00000370: 1af8 fb3d 4016 73bd 2034 60bd 884d f2bd
00000380: e8e8 6abd 1e6b 813d 385f cabc 1485 9b3d
00000390: 1688 e5bd 9c58 86bd b0b6 dcbc 08a4 743d
000003a0: f4fb 7dbd a4ec cfbd 0c30 71bd c018 8ebb
000003b0: 3c11 bcbd f8c0 2d3d 3c2c 7e3d fcac 91bd
000003c0: 9218 e73d 90b8 5c3c 28aa af3c 9814 643d
000003d0: 4e51 b23d f242 de3d c65a 833d 96d9 dd3d
000003e0: 94d7 c3bd 287c 323d 2474 253d 6ac2 b6bd
000003f0: 0c6e cc3d a816 8bbd 28dc d83c 58dd 91bd
0.08628419 -0.00917986 -0.09718515 -0.06533562 -0.01514183 -0.10152471 0.026521489 -0.1202063
-0.03213562 -0.084659666 -0.11657819 -0.022121653 -0.065959156 -0.062463656 -0.10648151 -0.07776235
0.0663165 0.105971366 -0.08736335 0.10588203 0.07488227 0.091497496 -0.017000243 0.11982548
0.09759389 -0.041129902 0.09429388 -0.035034925 0.06783508 -0.014512852 0.06816222 -0.09074934
0.019881174 0.11997071 -0.010980681 0.06417373 0.09208055 0.07803808 0.049025938 0.09272209
0.043339208 0.032460675 0.07639752 -0.05038996 -0.0034011751 -0.051358014 -0.055536017 0.03412673
-0.12130444 0.03628218 -0.059895307 0.042201877 0.060766026 -0.075136736 0.06942691 0.06653485
0.09725806 0.09951405 -0.07039653 0.02927722 0.12392992 0.09077604 0.033388242 -0.034000903
0.091764316 0.12105228 -0.11954124 0.09740582 -0.07439199 -0.12490964 0.06757806 0.07168761
-0.06721473 -0.10815695 -0.07807374 -0.035330907 -0.016457245 0.08922726 -0.07723433 -0.07388222
0.023493633 -0.020470098 0.115255356 0.05679743 -0.04007919 -0.023565307 -0.08439991 0.064153016
0.097553656 0.11771205 0.09690283 0.07277045 -0.06311759 -0.118136704 -0.039036527 -0.08134407
0.054358333 -0.07861869 -0.05917135 0.011194989 0.06817825 0.120975226 0.066985875 -0.031768873
0.051104948 -0.07159454 -0.06635445 -0.011719316 0.004829183 -0.113871455 -0.0816724 -0.041777328
-0.11686364 0.11396097 0.018389925 -0.089379504 -0.09104283 -0.0873249 0.12446058 -0.08762747
-0.08117437 0.053378507 0.0876202 -0.081642896 -0.08923294 0.061936572 -0.05500506 -0.041023627
0.09049733 -0.022623762 -0.009142593 -0.005741209 0.022079632 -0.04745938 -0.09891978 0.013305545
0.0028895885 0.11827475 -0.022149503 -0.09626332 -0.061465397 0.018371284 0.010384321 -0.062421873
0.113253444 0.019455418 -0.037008792 0.0791713 0.02695027 -0.04342644 0.099986926 -0.08066769
-0.06710403 0.08629835 0.109910205 -0.06295124 -0.11948152 -0.019533798 -0.032156676 -0.057239503
-0.048161626 -0.072172746 0.09921694 0.08200726 -0.06402059 0.019999057 -0.12218796 -0.047979504
0.041750267 0.0016133487 0.0769532 0.0718302 0.104519054 -0.08088572 0.09786391 0.038876846
-0.123113036 0.011939213 -0.09591895 0.019312695 -0.08504212 -0.0141540915 0.123916805 -0.08937544
-0.027971298 -0.097109124 -0.06872067 -0.0045193434 -0.08709352 0.09206669 -0.010854378 -0.068857
-0.016458824 0.0005873889 -0.02788499 -0.053259864 -0.03522776 -0.0447852 0.11427455 0.07717949
-0.023771316 0.10628939 0.068784 0.070212066 -0.027699858 -0.07576822 0.070496544 -0.020355746
-0.10187057 -0.115687326 0.060457915 0.024434954 0.0041499734 -0.015049562 -0.019129544 0.06702821
-0.10901871 0.027216524 0.0056078434 -0.07212472 0.12303181 -0.05934739 -0.05473721 -0.11831194
-0.057351023 0.06319259 -0.024703607 0.07593742 -0.11207597 -0.0655987 -0.026942581 0.059726745
-0.06200786 -0.101525575 -0.05888371 -0.0043364465 -0.09182975 0.042420357 0.062053904 -0.07113072
0.11283983 0.0134717375 0.021443442 0.055683702 0.08706914 0.108526126 0.06413798 0.10832517
-0.09562603 0.043575436 0.040393963 -0.089238 0.09981927 -0.06791431 0.026472166 -0.07122296

fc.4.bias f4 [8]
00000000: 6040 18bc 4427 fb3d e657 93bd 6cff 8dbd
00000010: 9835 e33d 0cc7 6abd baa2 b5bd e637 9ebd
-0.009292692 0.12263349 -0.071945 -0.069334835 0.110942066 -0.057318732 -0.08868928 -0.077255055
